…
I1214 10:12:13.732064 24007 net.cpp:258] The NetState phase (0) differed from the phase (1) specified by a rule in layer reshape-label-print
I1214 10:12:13.732069 24007 net.cpp:258] The NetState phase (0) differed from the phase (1) specified by a rule in layer reshape-cm
I1214 10:12:13.732225 24007 net.cpp:42] Initializing net from parameters: 
name: "lstm_joints"
state {
  phase: TRAIN
}
layer {
  name: "data"
  type: "Python"
  top: "data"
  top: "label"
  top: "clip_markers"
  include {
    phase: TRAIN
  }
  python_param {
    module: "sequence_input_layer"
    layer: "videoReadTrain_RGB"
  }
}
layer {
  name: "conv1"
  type: "Convolution"
  bottom: "data"
  top: "conv1"
  param {
    lr_mult: 1
    decay_mult: 1
  }
  param {
    lr_mult: 2
    decay_mult: 0
  }
  convolution_param {
    num_output: 96
    kernel_size: 7
    stride: 2
    weight_filler {
      type: "gaussian"
      std: 0.01
    }
    bias_filler {
      type: "constant"
      value: 0.1
    }
  }
}
layer {
  name: "relu1"
  type: "ReLU"
  bottom: "conv1"
  top: "conv1"
}
layer {
  name: "pool1"
  type: "Pooling"
  bottom: "conv1"
  top: "pool1"
  pooling_param {
    pool: MAX
    kernel_size: 3
    stride: 2
  }
}
layer {
  name: "norm1"
  type: "LRN"
  bottom: "pool1"
  top: "norm1"
  lrn_param {
    local_size: 5
    alpha: 0.0001
    beta: 0.75
  }
}
layer {
  name: "conv2"
  type: "Convolution"
  bottom: "norm1"
  top: "conv2"
  param {
    lr_mult: 1
    decay_mult: 1
  }
  param {
    lr_mult: 2
    decay_mult: 0
  }
  convolution_param {
    num_output: 384
    kernel_size: 5
    group: 2
    stride: 2
    weight_filler {
      type: "gaussian"
      std: 0.01
    }
    bias_filler {
      type: "constant"
      value: 0.1
    }
  }
}
layer {
  name: "relu2"
  type: "ReLU"
  bottom: "conv2"
  top: "conv2"
}
layer {
  name: "pool2"
  type: "Pooling"
  bottom: "conv2"
  top: "pool2"
  pooling_param {
    pool: MAX
    kernel_size: 3
    stride: 2
  }
}
layer {
  name: "norm2"
  type: "LRN"
  bottom: "pool2"
  top: "norm2"
  lrn_param {
    local_size: 5
    alpha: 0.0001
    beta: 0.75
  }
}
layer {
  name: "conv3"
  type: "Convolution"
  bottom: "norm2"
  top: "conv3"
  param {
    lr_mult: 1
    decay_mult: 1
  }
  param {
    lr_mult: 2
    decay_mult: 0
  }
  convolution_param {
    num_output: 512
    pad: 1
    kernel_size: 3
    weight_filler {
      type: "gaussian"
      std: 0.01
    }
    bias_filler {
      type: "constant"
      value: 0.1
    }
  }
}
layer {
  name: "relu3"
  type: "ReLU"
  bottom: "conv3"
  top: "conv3"
}
layer {
  name: "conv4"
  type: "Convolution"
  bottom: "conv3"
  top: "conv4"
  param {
    lr_mult: 1
    decay_mult: 1
  }
  param {
    lr_mult: 2
    decay_mult: 0
  }
  convolution_param {
    num_output: 512
    pad: 1
    kernel_size: 3
    group: 2
    weight_filler {
      type: "gaussian"
      std: 0.01
    }
    bias_filler {
      type: "constant"
      value: 0.1
    }
  }
}
layer {
  name: "relu4"
  type: "ReLU"
  bottom: "conv4"
  top: "conv4"
}
layer {
  name: "conv5"
  type: "Convolution"
  bottom: "conv4"
  top: "conv5"
  param {
    lr_mult: 1
    decay_mult: 1
  }
  param {
    lr_mult: 2
    decay_mult: 0
  }
  convolution_param {
    num_output: 384
    pad: 1
    kernel_size: 3
    group: 2
    weight_filler {
      type: "gaussian"
      std: 0.01
    }
    bias_filler {
      type: "constant"
      value: 0.1
    }
  }
}
layer {
  name: "relu5"
  type: "ReLU"
  bottom: "conv5"
  top: "conv5"
}
layer {
  name: "pool5"
  type: "Pooling"
  bottom: "conv5"
  top: "pool5"
  pooling_param {
    pool: MAX
    kernel_size: 3
    stride: 2
  }
}
layer {
  name: "fc6"
  type: "InnerProduct"
  bottom: "pool5"
  top: "fc6"
  param {
    lr_mult: 1
    decay_mult: 1
  }
  param {
    lr_mult: 2
    decay_mult: 0
  }
  inner_product_param {
    num_output: 4096
    weight_filler {
      type: "gaussian"
      std: 0.01
    }
    bias_filler {
      type: "constant"
      value: 0.1
    }
  }
}
layer {
  name: "relu6"
  type: "ReLU"
  bottom: "fc6"
  top: "fc6"
}
layer {
  name: "drop6"
  type: "Dropout"
  bottom: "fc6"
  top: "fc6"
  dropout_param {
    dropout_ratio: 0.9
  }
}
layer {
  name: "reshape-data"
  type: "Reshape"
  bottom: "fc6"
  top: "fc6-reshape"
  include {
    phase: TRAIN
  }
  reshape_param {
    shape {
      dim: 16
      dim: 24
      dim: 4096
    }
  }
}
layer {
  name: "reshape-label"
  type: "Reshape"
  bottom: "label"
  top: "reshape-label"
  include {
    phase: TRAIN
  }
  reshape_param {
    shape {
      dim: 16
      dim: 24
    }
  }
}
layer {
  name: "reshape-label-print"
  type: "Split"
  bottom: "reshape-label"
  top: "reshape-label-print-train"
  include {
    phase: TRAIN
  }
}
layer {
  name: "reshape-cm"
  type: "Reshape"
  bottom: "clip_markers"
  top: "reshape-cm"
  include {
    phase: TRAIN
  }
  reshape_param {
    shape {
      dim: 16
      dim: 24
    }
  }
}
layer {
  name: "lstm1"
  type: "LSTM"
  bottom: "fc6-reshape"
  bottom: "reshape-cm"
  top: "lstm1"
  recurrent_param {
    num_output: 256
    weight_filler {
      type: "uniform"
      min: -0.01
      max: 0.01
    }
    bias_filler {
      type: "constant"
      value: 0
    }
  }
}
layer {
  name: "lstm1-drop"
  type: "Dropout"
  bottom: "lstm1"
  top: "lstm1-drop"
  dropout_param {
    dropout_ratio: 0.5
  }
}
layer {
  name: "fc8-final"
  type: "InnerProduct"
  bottom: "lstm1-drop"
  top: "fc8-final"
  param {
    lr_mult: 10
    decay_mult: 1
  }
  param {
    lr_mult: 20
    decay_mult: 0
  }
  inner_product_param {
    num_output: 101
    weight_filler {
      type: "gaussian"
      std: 0.01
    }
    bias_filler {
      type: "constant"
      value: 0
    }
    axis: 2
  }
}
layer {
  name: "loss"
  type: "SoftmaxWithLoss"
  bottom: "fc8-final"
  bottom: "reshape-label"
  top: "loss"
  softmax_param {
    axis: 2
  }
}
layer {
  name: "accuracy"
  type: "Accuracy"
  bottom: "fc8-final"
  bottom: "reshape-label"
  top: "accuracy"
  accuracy_param {
    axis: 2
  }
}
I1214 10:12:13.732363 24007 layer_factory.hpp:74] Creating layer data
I1214 10:12:14.469835 24007 net.cpp:84] Creating Layer data
I1214 10:12:14.469867 24007 net.cpp:339] data -> data
I1214 10:12:14.469890 24007 net.cpp:339] data -> label
I1214 10:12:14.469903 24007 net.cpp:339] data -> clip_markers
I1214 10:12:14.469912 24007 net.cpp:113] Setting up data
I1214 10:12:19.201897 24007 net.cpp:120] Top shape: 384 3 227 227 (59361408)
I1214 10:12:19.201947 24007 net.cpp:120] Top shape: 384 (384)
I1214 10:12:19.201957 24007 net.cpp:120] Top shape: 384 (384)
I1214 10:12:19.201978 24007 layer_factory.hpp:74] Creating layer conv1
I1214 10:12:19.202015 24007 net.cpp:84] Creating Layer conv1
I1214 10:12:19.202028 24007 net.cpp:381] conv1 <- data
I1214 10:12:19.202054 24007 net.cpp:339] conv1 -> conv1
I1214 10:12:19.202080 24007 net.cpp:113] Setting up conv1
I1214 10:12:19.202600 24007 net.cpp:120] Top shape: 384 96 111 111 (454201344)
I1214 10:12:19.202622 24007 layer_factory.hpp:74] Creating layer relu1
I1214 10:12:19.202637 24007 net.cpp:84] Creating Layer relu1
I1214 10:12:19.202646 24007 net.cpp:381] relu1 <- conv1
I1214 10:12:19.202666 24007 net.cpp:328] relu1 -> conv1 (in-place)
I1214 10:12:19.202675 24007 net.cpp:113] Setting up relu1
I1214 10:12:19.202688 24007 net.cpp:120] Top shape: 384 96 111 111 (454201344)
I1214 10:12:19.202698 24007 layer_factory.hpp:74] Creating layer pool1
I1214 10:12:19.202709 24007 net.cpp:84] Creating Layer pool1
I1214 10:12:19.202716 24007 net.cpp:381] pool1 <- conv1
I1214 10:12:19.202724 24007 net.cpp:339] pool1 -> pool1
I1214 10:12:19.202736 24007 net.cpp:113] Setting up pool1
I1214 10:12:19.202759 24007 net.cpp:120] Top shape: 384 96 55 55 (111513600)
I1214 10:12:19.202767 24007 layer_factory.hpp:74] Creating layer norm1
I1214 10:12:19.202781 24007 net.cpp:84] Creating Layer norm1
I1214 10:12:19.202788 24007 net.cpp:381] norm1 <- pool1
I1214 10:12:19.202797 24007 net.cpp:339] norm1 -> norm1
I1214 10:12:19.202808 24007 net.cpp:113] Setting up norm1
I1214 10:12:19.202839 24007 net.cpp:120] Top shape: 384 96 55 55 (111513600)
I1214 10:12:19.202849 24007 layer_factory.hpp:74] Creating layer conv2
I1214 10:12:19.202862 24007 net.cpp:84] Creating Layer conv2
I1214 10:12:19.202869 24007 net.cpp:381] conv2 <- norm1
I1214 10:12:19.202879 24007 net.cpp:339] conv2 -> conv2
I1214 10:12:19.202890 24007 net.cpp:113] Setting up conv2
I1214 10:12:19.216039 24007 net.cpp:120] Top shape: 384 384 26 26 (99680256)
I1214 10:12:19.216056 24007 layer_factory.hpp:74] Creating layer relu2
I1214 10:12:19.216064 24007 net.cpp:84] Creating Layer relu2
I1214 10:12:19.216069 24007 net.cpp:381] relu2 <- conv2
I1214 10:12:19.216076 24007 net.cpp:328] relu2 -> conv2 (in-place)
I1214 10:12:19.216083 24007 net.cpp:113] Setting up relu2
I1214 10:12:19.216090 24007 net.cpp:120] Top shape: 384 384 26 26 (99680256)
I1214 10:12:19.216095 24007 layer_factory.hpp:74] Creating layer pool2
I1214 10:12:19.216101 24007 net.cpp:84] Creating Layer pool2
I1214 10:12:19.216106 24007 net.cpp:381] pool2 <- conv2
I1214 10:12:19.216112 24007 net.cpp:339] pool2 -> pool2
I1214 10:12:19.216120 24007 net.cpp:113] Setting up pool2
I1214 10:12:19.216128 24007 net.cpp:120] Top shape: 384 384 13 13 (24920064)
I1214 10:12:19.216135 24007 layer_factory.hpp:74] Creating layer norm2
I1214 10:12:19.216141 24007 net.cpp:84] Creating Layer norm2
I1214 10:12:19.216146 24007 net.cpp:381] norm2 <- pool2
I1214 10:12:19.216152 24007 net.cpp:339] norm2 -> norm2
I1214 10:12:19.216159 24007 net.cpp:113] Setting up norm2
I1214 10:12:19.216167 24007 net.cpp:120] Top shape: 384 384 13 13 (24920064)
I1214 10:12:19.216172 24007 layer_factory.hpp:74] Creating layer conv3
I1214 10:12:19.216183 24007 net.cpp:84] Creating Layer conv3
I1214 10:12:19.216189 24007 net.cpp:381] conv3 <- norm2
I1214 10:12:19.216200 24007 net.cpp:339] conv3 -> conv3
I1214 10:12:19.216208 24007 net.cpp:113] Setting up conv3
I1214 10:12:19.254271 24007 net.cpp:120] Top shape: 384 512 13 13 (33226752)
I1214 10:12:19.254303 24007 layer_factory.hpp:74] Creating layer relu3
I1214 10:12:19.254313 24007 net.cpp:84] Creating Layer relu3
I1214 10:12:19.254319 24007 net.cpp:381] relu3 <- conv3
I1214 10:12:19.254328 24007 net.cpp:328] relu3 -> conv3 (in-place)
I1214 10:12:19.254336 24007 net.cpp:113] Setting up relu3
I1214 10:12:19.254343 24007 net.cpp:120] Top shape: 384 512 13 13 (33226752)
I1214 10:12:19.254351 24007 layer_factory.hpp:74] Creating layer conv4
I1214 10:12:19.254362 24007 net.cpp:84] Creating Layer conv4
I1214 10:12:19.254369 24007 net.cpp:381] conv4 <- conv3
I1214 10:12:19.254380 24007 net.cpp:339] conv4 -> conv4
I1214 10:12:19.254390 24007 net.cpp:113] Setting up conv4
I1214 10:12:19.279889 24007 net.cpp:120] Top shape: 384 512 13 13 (33226752)
I1214 10:12:19.279906 24007 layer_factory.hpp:74] Creating layer relu4
I1214 10:12:19.279914 24007 net.cpp:84] Creating Layer relu4
I1214 10:12:19.279919 24007 net.cpp:381] relu4 <- conv4
I1214 10:12:19.279927 24007 net.cpp:328] relu4 -> conv4 (in-place)
I1214 10:12:19.279932 24007 net.cpp:113] Setting up relu4
I1214 10:12:19.279938 24007 net.cpp:120] Top shape: 384 512 13 13 (33226752)
I1214 10:12:19.279945 24007 layer_factory.hpp:74] Creating layer conv5
I1214 10:12:19.279968 24007 net.cpp:84] Creating Layer conv5
I1214 10:12:19.279974 24007 net.cpp:381] conv5 <- conv4
I1214 10:12:19.279981 24007 net.cpp:339] conv5 -> conv5
I1214 10:12:19.279989 24007 net.cpp:113] Setting up conv5
I1214 10:12:19.299013 24007 net.cpp:120] Top shape: 384 384 13 13 (24920064)
I1214 10:12:19.299033 24007 layer_factory.hpp:74] Creating layer relu5
I1214 10:12:19.299041 24007 net.cpp:84] Creating Layer relu5
I1214 10:12:19.299046 24007 net.cpp:381] relu5 <- conv5
I1214 10:12:19.299054 24007 net.cpp:328] relu5 -> conv5 (in-place)
I1214 10:12:19.299062 24007 net.cpp:113] Setting up relu5
I1214 10:12:19.299069 24007 net.cpp:120] Top shape: 384 384 13 13 (24920064)
I1214 10:12:19.299077 24007 layer_factory.hpp:74] Creating layer pool5
I1214 10:12:19.299088 24007 net.cpp:84] Creating Layer pool5
I1214 10:12:19.299094 24007 net.cpp:381] pool5 <- conv5
I1214 10:12:19.299100 24007 net.cpp:339] pool5 -> pool5
I1214 10:12:19.299108 24007 net.cpp:113] Setting up pool5
I1214 10:12:19.299118 24007 net.cpp:120] Top shape: 384 384 6 6 (5308416)
I1214 10:12:19.299124 24007 layer_factory.hpp:74] Creating layer fc6
I1214 10:12:19.299137 24007 net.cpp:84] Creating Layer fc6
I1214 10:12:19.299144 24007 net.cpp:381] fc6 <- pool5
I1214 10:12:19.299151 24007 net.cpp:339] fc6 -> fc6
I1214 10:12:19.299163 24007 net.cpp:113] Setting up fc6
I1214 10:12:20.499212 24007 net.cpp:120] Top shape: 384 4096 (1572864)
I1214 10:12:20.499251 24007 layer_factory.hpp:74] Creating layer relu6
I1214 10:12:20.499265 24007 net.cpp:84] Creating Layer relu6
I1214 10:12:20.499272 24007 net.cpp:381] relu6 <- fc6
I1214 10:12:20.499280 24007 net.cpp:328] relu6 -> fc6 (in-place)
I1214 10:12:20.499290 24007 net.cpp:113] Setting up relu6
I1214 10:12:20.499296 24007 net.cpp:120] Top shape: 384 4096 (1572864)
I1214 10:12:20.499301 24007 layer_factory.hpp:74] Creating layer drop6
I1214 10:12:20.499315 24007 net.cpp:84] Creating Layer drop6
I1214 10:12:20.499318 24007 net.cpp:381] drop6 <- fc6
I1214 10:12:20.499326 24007 net.cpp:328] drop6 -> fc6 (in-place)
I1214 10:12:20.499337 24007 net.cpp:113] Setting up drop6
I1214 10:12:20.499349 24007 net.cpp:120] Top shape: 384 4096 (1572864)
I1214 10:12:20.499356 24007 layer_factory.hpp:74] Creating layer reshape-data
I1214 10:12:20.499369 24007 net.cpp:84] Creating Layer reshape-data
I1214 10:12:20.499375 24007 net.cpp:381] reshape-data <- fc6
I1214 10:12:20.499382 24007 net.cpp:339] reshape-data -> fc6-reshape
I1214 10:12:20.499392 24007 net.cpp:113] Setting up reshape-data
I1214 10:12:20.499408 24007 net.cpp:120] Top shape: 16 24 4096 (1572864)
I1214 10:12:20.499416 24007 layer_factory.hpp:74] Creating layer reshape-label
I1214 10:12:20.499423 24007 net.cpp:84] Creating Layer reshape-label
I1214 10:12:20.499428 24007 net.cpp:381] reshape-label <- label
I1214 10:12:20.499436 24007 net.cpp:339] reshape-label -> reshape-label
I1214 10:12:20.499444 24007 net.cpp:113] Setting up reshape-label
I1214 10:12:20.499454 24007 net.cpp:120] Top shape: 16 24 (384)
I1214 10:12:20.499459 24007 layer_factory.hpp:74] Creating layer reshape-label_reshape-label_0_split
I1214 10:12:20.499466 24007 net.cpp:84] Creating Layer reshape-label_reshape-label_0_split
I1214 10:12:20.499471 24007 net.cpp:381] reshape-label_reshape-label_0_split <- reshape-label
I1214 10:12:20.499480 24007 net.cpp:339] reshape-label_reshape-label_0_split -> reshape-label_reshape-label_0_split_0
I1214 10:12:20.499490 24007 net.cpp:339] reshape-label_reshape-label_0_split -> reshape-label_reshape-label_0_split_1
I1214 10:12:20.499496 24007 net.cpp:339] reshape-label_reshape-label_0_split -> reshape-label_reshape-label_0_split_2
I1214 10:12:20.499503 24007 net.cpp:113] Setting up reshape-label_reshape-label_0_split
I1214 10:12:20.499512 24007 net.cpp:120] Top shape: 16 24 (384)
I1214 10:12:20.499519 24007 net.cpp:120] Top shape: 16 24 (384)
I1214 10:12:20.499524 24007 net.cpp:120] Top shape: 16 24 (384)
I1214 10:12:20.499529 24007 layer_factory.hpp:74] Creating layer reshape-label-print
I1214 10:12:20.499538 24007 net.cpp:84] Creating Layer reshape-label-print
I1214 10:12:20.499553 24007 net.cpp:381] reshape-label-print <- reshape-label_reshape-label_0_split_0
I1214 10:12:20.499562 24007 net.cpp:339] reshape-label-print -> reshape-label-print-train
I1214 10:12:20.499568 24007 net.cpp:113] Setting up reshape-label-print
I1214 10:12:20.499577 24007 net.cpp:120] Top shape: 16 24 (384)
I1214 10:12:20.499580 24007 layer_factory.hpp:74] Creating layer reshape-cm
I1214 10:12:20.499588 24007 net.cpp:84] Creating Layer reshape-cm
I1214 10:12:20.499593 24007 net.cpp:381] reshape-cm <- clip_markers
I1214 10:12:20.499599 24007 net.cpp:339] reshape-cm -> reshape-cm
I1214 10:12:20.499608 24007 net.cpp:113] Setting up reshape-cm
I1214 10:12:20.499614 24007 net.cpp:120] Top shape: 16 24 (384)
I1214 10:12:20.499620 24007 layer_factory.hpp:74] Creating layer lstm1
I1214 10:12:20.499635 24007 net.cpp:84] Creating Layer lstm1
I1214 10:12:20.499641 24007 net.cpp:381] lstm1 <- fc6-reshape
I1214 10:12:20.499647 24007 net.cpp:381] lstm1 <- reshape-cm
I1214 10:12:20.499655 24007 net.cpp:339] lstm1 -> lstm1
I1214 10:12:20.499665 24007 net.cpp:113] Setting up lstm1
I1214 10:12:20.499673 24007 recurrent_layer.cpp:27] Initializing recurrent layer: assuming input batch contains 16 timesteps of 24 independent streams.
I1214 10:12:20.500221 24007 net.cpp:42] Initializing net from parameters: 
input: "x"
input: "cont"
input: "c_0"
input: "h_0"
force_backward: true
input_shape {
  dim: 16
  dim: 24
  dim: 4096
}
input_shape {
  dim: 1
  dim: 16
  dim: 24
}
input_shape {
  dim: 1
  dim: 24
  dim: 256
}
input_shape {
  dim: 1
  dim: 24
  dim: 256
}
layer {
  name: "lstm1_cont_slice"
  type: "Slice"
  bottom: "cont"
  top: "cont_1"
  top: "cont_2"
  top: "cont_3"
  top: "cont_4"
  top: "cont_5"
  top: "cont_6"
  top: "cont_7"
  top: "cont_8"
  top: "cont_9"
  top: "cont_10"
  top: "cont_11"
  top: "cont_12"
  top: "cont_13"
  top: "cont_14"
  top: "cont_15"
  top: "cont_16"
  slice_param {
    axis: 1
  }
}
layer {
  name: "lstm1_x_transform"
  type: "InnerProduct"
  bottom: "x"
  top: "W_xc_x"
  param {
    name: "W_xc"
  }
  param {
    name: "b_c"
  }
  inner_product_param {
    num_output: 1024
    bias_term: true
    weight_filler {
      type: "uniform"
      min: -0.01
      max: 0.01
    }
    bias_filler {
      type: "constant"
      value: 0
    }
    axis: 2
  }
}
layer {
  name: "lstm1_W_xc_x_slice"
  type: "Slice"
  bottom: "W_xc_x"
  top: "W_xc_x_1"
  top: "W_xc_x_2"
  top: "W_xc_x_3"
  top: "W_xc_x_4"
  top: "W_xc_x_5"
  top: "W_xc_x_6"
  top: "W_xc_x_7"
  top: "W_xc_x_8"
  top: "W_xc_x_9"
  top: "W_xc_x_10"
  top: "W_xc_x_11"
  top: "W_xc_x_12"
  top: "W_xc_x_13"
  top: "W_xc_x_14"
  top: "W_xc_x_15"
  top: "W_xc_x_16"
  slice_param {
    axis: 0
  }
}
layer {
  name: "lstm1_h_conted_0"
  type: "Eltwise"
  bottom: "h_0"
  bottom: "cont_1"
  top: "h_conted_0"
  eltwise_param {
    operation: SUM
    coeff_blob: true
  }
}
layer {
  name: "lstm1_transform_1"
  type: "InnerProduct"
  bottom: "h_conted_0"
  top: "W_hc_h_0"
  param {
    name: "W_hc"
  }
  inner_product_param {
    num_output: 1024
    bias_term: false
    weight_filler {
      type: "uniform"
      min: -0.01
      max: 0.01
    }
    axis: 2
  }
}
layer {
  name: "lstm1_gate_input_1"
  type: "Eltwise"
  bottom: "W_hc_h_0"
  bottom: "W_xc_x_1"
  top: "gate_input_1"
  eltwise_param {
    operation: SUM
  }
}
layer {
  name: "lstm1_unit_1"
  type: "LSTMUnit"
  bottom: "c_0"
  bottom: "gate_input_1"
  bottom: "cont_1"
  top: "c_1"
  top: "h_1"
}
layer {
  name: "lstm1_h_conted_1"
  type: "Eltwise"
  bottom: "h_1"
  bottom: "cont_2"
  top: "h_conted_1"
  eltwise_param {
    operation: SUM
    coeff_blob: true
  }
}
layer {
  name: "lstm1_transform_2"
  type: "InnerProduct"
  bottom: "h_conted_1"
  top: "W_hc_h_1"
  param {
    name: "W_hc"
  }
  inner_product_param {
    num_output: 1024
    bias_term: false
    weight_filler {
      type: "uniform"
      min: -0.01
      max: 0.01
    }
    axis: 2
  }
}
layer {
  name: "lstm1_gate_input_2"
  type: "Eltwise"
  bottom: "W_hc_h_1"
  bottom: "W_xc_x_2"
  top: "gate_input_2"
  eltwise_param {
    operation: SUM
  }
}
layer {
  name: "lstm1_unit_2"
  type: "LSTMUnit"
  bottom: "c_1"
  bottom: "gate_input_2"
  bottom: "cont_2"
  top: "c_2"
  top: "h_2"
}
layer {
  name: "lstm1_h_conted_2"
  type: "Eltwise"
  bottom: "h_2"
  bottom: "cont_3"
  top: "h_conted_2"
  eltwise_param {
    operation: SUM
    coeff_blob: true
  }
}
layer {
  name: "lstm1_transform_3"
  type: "InnerProduct"
  bottom: "h_conted_2"
  top: "W_hc_h_2"
  param {
    name: "W_hc"
  }
  inner_product_param {
    num_output: 1024
    bias_term: false
    weight_filler {
      type: "uniform"
      min: -0.01
      max: 0.01
    }
    axis: 2
  }
}
layer {
  name: "lstm1_gate_input_3"
  type: "Eltwise"
  bottom: "W_hc_h_2"
  bottom: "W_xc_x_3"
  top: "gate_input_3"
  eltwise_param {
    operation: SUM
  }
}
layer {
  name: "lstm1_unit_3"
  type: "LSTMUnit"
  bottom: "c_2"
  bottom: "gate_input_3"
  bottom: "cont_3"
  top: "c_3"
  top: "h_3"
}
layer {
  name: "lstm1_h_conted_3"
  type: "Eltwise"
  bottom: "h_3"
  bottom: "cont_4"
  top: "h_conted_3"
  eltwise_param {
    operation: SUM
    coeff_blob: true
  }
}
layer {
  name: "lstm1_transform_4"
  type: "InnerProduct"
  bottom: "h_conted_3"
  top: "W_hc_h_3"
  param {
    name: "W_hc"
  }
  inner_product_param {
    num_output: 1024
    bias_term: false
    weight_filler {
      type: "uniform"
      min: -0.01
      max: 0.01
    }
    axis: 2
  }
}
layer {
  name: "lstm1_gate_input_4"
  type: "Eltwise"
  bottom: "W_hc_h_3"
  bottom: "W_xc_x_4"
  top: "gate_input_4"
  eltwise_param {
    operation: SUM
  }
}
layer {
  name: "lstm1_unit_4"
  type: "LSTMUnit"
  bottom: "c_3"
  bottom: "gate_input_4"
  bottom: "cont_4"
  top: "c_4"
  top: "h_4"
}
layer {
  name: "lstm1_h_conted_4"
  type: "Eltwise"
  bottom: "h_4"
  bottom: "cont_5"
  top: "h_conted_4"
  eltwise_param {
    operation: SUM
    coeff_blob: true
  }
}
layer {
  name: "lstm1_transform_5"
  type: "InnerProduct"
  bottom: "h_conted_4"
  top: "W_hc_h_4"
  param {
    name: "W_hc"
  }
  inner_product_param {
    num_output: 1024
    bias_term: false
    weight_filler {
      type: "uniform"
      min: -0.01
      max: 0.01
    }
    axis: 2
  }
}
layer {
  name: "lstm1_gate_input_5"
  type: "Eltwise"
  bottom: "W_hc_h_4"
  bottom: "W_xc_x_5"
  top: "gate_input_5"
  eltwise_param {
    operation: SUM
  }
}
layer {
  name: "lstm1_unit_5"
  type: "LSTMUnit"
  bottom: "c_4"
  bottom: "gate_input_5"
  bottom: "cont_5"
  top: "c_5"
  top: "h_5"
}
layer {
  name: "lstm1_h_conted_5"
  type: "Eltwise"
  bottom: "h_5"
  bottom: "cont_6"
  top: "h_conted_5"
  eltwise_param {
    operation: SUM
    coeff_blob: true
  }
}
layer {
  name: "lstm1_transform_6"
  type: "InnerProduct"
  bottom: "h_conted_5"
  top: "W_hc_h_5"
  param {
    name: "W_hc"
  }
  inner_product_param {
    num_output: 1024
    bias_term: false
    weight_filler {
      type: "uniform"
      min: -0.01
      max: 0.01
    }
    axis: 2
  }
}
layer {
  name: "lstm1_gate_input_6"
  type: "Eltwise"
  bottom: "W_hc_h_5"
  bottom: "W_xc_x_6"
  top: "gate_input_6"
  eltwise_param {
    operation: SUM
  }
}
layer {
  name: "lstm1_unit_6"
  type: "LSTMUnit"
  bottom: "c_5"
  bottom: "gate_input_6"
  bottom: "cont_6"
  top: "c_6"
  top: "h_6"
}
layer {
  name: "lstm1_h_conted_6"
  type: "Eltwise"
  bottom: "h_6"
  bottom: "cont_7"
  top: "h_conted_6"
  eltwise_param {
    operation: SUM
    coeff_blob: true
  }
}
layer {
  name: "lstm1_transform_7"
  type: "InnerProduct"
  bottom: "h_conted_6"
  top: "W_hc_h_6"
  param {
    name: "W_hc"
  }
  inner_product_param {
    num_output: 1024
    bias_term: false
    weight_filler {
      type: "uniform"
      min: -0.01
      max: 0.01
    }
    axis: 2
  }
}
layer {
  name: "lstm1_gate_input_7"
  type: "Eltwise"
  bottom: "W_hc_h_6"
  bottom: "W_xc_x_7"
  top: "gate_input_7"
  eltwise_param {
    operation: SUM
  }
}
layer {
  name: "lstm1_unit_7"
  type: "LSTMUnit"
  bottom: "c_6"
  bottom: "gate_input_7"
  bottom: "cont_7"
  top: "c_7"
  top: "h_7"
}
layer {
  name: "lstm1_h_conted_7"
  type: "Eltwise"
  bottom: "h_7"
  bottom: "cont_8"
  top: "h_conted_7"
  eltwise_param {
    operation: SUM
    coeff_blob: true
  }
}
layer {
  name: "lstm1_transform_8"
  type: "InnerProduct"
  bottom: "h_conted_7"
  top: "W_hc_h_7"
  param {
    name: "W_hc"
  }
  inner_product_param {
    num_output: 1024
    bias_term: false
    weight_filler {
      type: "uniform"
      min: -0.01
      max: 0.01
    }
    axis: 2
  }
}
layer {
  name: "lstm1_gate_input_8"
  type: "Eltwise"
  bottom: "W_hc_h_7"
  bottom: "W_xc_x_8"
  top: "gate_input_8"
  eltwise_param {
    operation: SUM
  }
}
layer {
  name: "lstm1_unit_8"
  type: "LSTMUnit"
  bottom: "c_7"
  bottom: "gate_input_8"
  bottom: "cont_8"
  top: "c_8"
  top: "h_8"
}
layer {
  name: "lstm1_h_conted_8"
  type: "Eltwise"
  bottom: "h_8"
  bottom: "cont_9"
  top: "h_conted_8"
  eltwise_param {
    operation: SUM
    coeff_blob: true
  }
}
layer {
  name: "lstm1_transform_9"
  type: "InnerProduct"
  bottom: "h_conted_8"
  top: "W_hc_h_8"
  param {
    name: "W_hc"
  }
  inner_product_param {
    num_output: 1024
    bias_term: false
    weight_filler {
      type: "uniform"
      min: -0.01
      max: 0.01
    }
    axis: 2
  }
}
layer {
  name: "lstm1_gate_input_9"
  type: "Eltwise"
  bottom: "W_hc_h_8"
  bottom: "W_xc_x_9"
  top: "gate_input_9"
  eltwise_param {
    operation: SUM
  }
}
layer {
  name: "lstm1_unit_9"
  type: "LSTMUnit"
  bottom: "c_8"
  bottom: "gate_input_9"
  bottom: "cont_9"
  top: "c_9"
  top: "h_9"
}
layer {
  name: "lstm1_h_conted_9"
  type: "Eltwise"
  bottom: "h_9"
  bottom: "cont_10"
  top: "h_conted_9"
  eltwise_param {
    operation: SUM
    coeff_blob: true
  }
}
layer {
  name: "lstm1_transform_10"
  type: "InnerProduct"
  bottom: "h_conted_9"
  top: "W_hc_h_9"
  param {
    name: "W_hc"
  }
  inner_product_param {
    num_output: 1024
    bias_term: false
    weight_filler {
      type: "uniform"
      min: -0.01
      max: 0.01
    }
    axis: 2
  }
}
layer {
  name: "lstm1_gate_input_10"
  type: "Eltwise"
  bottom: "W_hc_h_9"
  bottom: "W_xc_x_10"
  top: "gate_input_10"
  eltwise_param {
    operation: SUM
  }
}
layer {
  name: "lstm1_unit_10"
  type: "LSTMUnit"
  bottom: "c_9"
  bottom: "gate_input_10"
  bottom: "cont_10"
  top: "c_10"
  top: "h_10"
}
layer {
  name: "lstm1_h_conted_10"
  type: "Eltwise"
  bottom: "h_10"
  bottom: "cont_11"
  top: "h_conted_10"
  eltwise_param {
    operation: SUM
    coeff_blob: true
  }
}
layer {
  name: "lstm1_transform_11"
  type: "InnerProduct"
  bottom: "h_conted_10"
  top: "W_hc_h_10"
  param {
    name: "W_hc"
  }
  inner_product_param {
    num_output: 1024
    bias_term: false
    weight_filler {
      type: "uniform"
      min: -0.01
      max: 0.01
    }
    axis: 2
  }
}
layer {
  name: "lstm1_gate_input_11"
  type: "Eltwise"
  bottom: "W_hc_h_10"
  bottom: "W_xc_x_11"
  top: "gate_input_11"
  eltwise_param {
    operation: SUM
  }
}
layer {
  name: "lstm1_unit_11"
  type: "LSTMUnit"
  bottom: "c_10"
  bottom: "gate_input_11"
  bottom: "cont_11"
  top: "c_11"
  top: "h_11"
}
layer {
  name: "lstm1_h_conted_11"
  type: "Eltwise"
  bottom: "h_11"
  bottom: "cont_12"
  top: "h_conted_11"
  eltwise_param {
    operation: SUM
    coeff_blob: true
  }
}
layer {
  name: "lstm1_transform_12"
  type: "InnerProduct"
  bottom: "h_conted_11"
  top: "W_hc_h_11"
  param {
    name: "W_hc"
  }
  inner_product_param {
    num_output: 1024
    bias_term: false
    weight_filler {
      type: "uniform"
      min: -0.01
      max: 0.01
    }
    axis: 2
  }
}
layer {
  name: "lstm1_gate_input_12"
  type: "Eltwise"
  bottom: "W_hc_h_11"
  bottom: "W_xc_x_12"
  top: "gate_input_12"
  eltwise_param {
    operation: SUM
  }
}
layer {
  name: "lstm1_unit_12"
  type: "LSTMUnit"
  bottom: "c_11"
  bottom: "gate_input_12"
  bottom: "cont_12"
  top: "c_12"
  top: "h_12"
}
layer {
  name: "lstm1_h_conted_12"
  type: "Eltwise"
  bottom: "h_12"
  bottom: "cont_13"
  top: "h_conted_12"
  eltwise_param {
    operation: SUM
    coeff_blob: true
  }
}
layer {
  name: "lstm1_transform_13"
  type: "InnerProduct"
  bottom: "h_conted_12"
  top: "W_hc_h_12"
  param {
    name: "W_hc"
  }
  inner_product_param {
    num_output: 1024
    bias_term: false
    weight_filler {
      type: "uniform"
      min: -0.01
      max: 0.01
    }
    axis: 2
  }
}
layer {
  name: "lstm1_gate_input_13"
  type: "Eltwise"
  bottom: "W_hc_h_12"
  bottom: "W_xc_x_13"
  top: "gate_input_13"
  eltwise_param {
    operation: SUM
  }
}
layer {
  name: "lstm1_unit_13"
  type: "LSTMUnit"
  bottom: "c_12"
  bottom: "gate_input_13"
  bottom: "cont_13"
  top: "c_13"
  top: "h_13"
}
layer {
  name: "lstm1_h_conted_13"
  type: "Eltwise"
  bottom: "h_13"
  bottom: "cont_14"
  top: "h_conted_13"
  eltwise_param {
    operation: SUM
    coeff_blob: true
  }
}
layer {
  name: "lstm1_transform_14"
  type: "InnerProduct"
  bottom: "h_conted_13"
  top: "W_hc_h_13"
  param {
    name: "W_hc"
  }
  inner_product_param {
    num_output: 1024
    bias_term: false
    weight_filler {
      type: "uniform"
      min: -0.01
      max: 0.01
    }
    axis: 2
  }
}
layer {
  name: "lstm1_gate_input_14"
  type: "Eltwise"
  bottom: "W_hc_h_13"
  bottom: "W_xc_x_14"
  top: "gate_input_14"
  eltwise_param {
    operation: SUM
  }
}
layer {
  name: "lstm1_unit_14"
  type: "LSTMUnit"
  bottom: "c_13"
  bottom: "gate_input_14"
  bottom: "cont_14"
  top: "c_14"
  top: "h_14"
}
layer {
  name: "lstm1_h_conted_14"
  type: "Eltwise"
  bottom: "h_14"
  bottom: "cont_15"
  top: "h_conted_14"
  eltwise_param {
    operation: SUM
    coeff_blob: true
  }
}
layer {
  name: "lstm1_transform_15"
  type: "InnerProduct"
  bottom: "h_conted_14"
  top: "W_hc_h_14"
  param {
    name: "W_hc"
  }
  inner_product_param {
    num_output: 1024
    bias_term: false
    weight_filler {
      type: "uniform"
      min: -0.01
      max: 0.01
    }
    axis: 2
  }
}
layer {
  name: "lstm1_gate_input_15"
  type: "Eltwise"
  bottom: "W_hc_h_14"
  bottom: "W_xc_x_15"
  top: "gate_input_15"
  eltwise_param {
    operation: SUM
  }
}
layer {
  name: "lstm1_unit_15"
  type: "LSTMUnit"
  bottom: "c_14"
  bottom: "gate_input_15"
  bottom: "cont_15"
  top: "c_15"
  top: "h_15"
}
layer {
  name: "lstm1_h_conted_15"
  type: "Eltwise"
  bottom: "h_15"
  bottom: "cont_16"
  top: "h_conted_15"
  eltwise_param {
    operation: SUM
    coeff_blob: true
  }
}
layer {
  name: "lstm1_transform_16"
  type: "InnerProduct"
  bottom: "h_conted_15"
  top: "W_hc_h_15"
  param {
    name: "W_hc"
  }
  inner_product_param {
    num_output: 1024
    bias_term: false
    weight_filler {
      type: "uniform"
      min: -0.01
      max: 0.01
    }
    axis: 2
  }
}
layer {
  name: "lstm1_gate_input_16"
  type: "Eltwise"
  bottom: "W_hc_h_15"
  bottom: "W_xc_x_16"
  top: "gate_input_16"
  eltwise_param {
    operation: SUM
  }
}
layer {
  name: "lstm1_unit_16"
  type: "LSTMUnit"
  bottom: "c_15"
  bottom: "gate_input_16"
  bottom: "cont_16"
  top: "c_16"
  top: "h_16"
}
layer {
  name: "lstm1_"
  type: "Split"
  bottom: "c_16"
  top: "c_T"
}
layer {
  name: "lstm1_h_concat"
  type: "Concat"
  bottom: "h_1"
  bottom: "h_2"
  bottom: "h_3"
  bottom: "h_4"
  bottom: "h_5"
  bottom: "h_6"
  bottom: "h_7"
  bottom: "h_8"
  bottom: "h_9"
  bottom: "h_10"
  bottom: "h_11"
  bottom: "h_12"
  bottom: "h_13"
  bottom: "h_14"
  bottom: "h_15"
  bottom: "h_16"
  top: "h"
  concat_param {
    axis: 0
  }
}
I1214 10:12:20.500625 24007 net.cpp:341] Input 0 -> x
I1214 10:12:20.500635 24007 net.cpp:341] Input 1 -> cont
I1214 10:12:20.500643 24007 net.cpp:341] Input 2 -> c_0
I1214 10:12:20.500649 24007 net.cpp:341] Input 3 -> h_0
I1214 10:12:20.500663 24007 layer_factory.hpp:74] Creating layer lstm1_cont_slice
I1214 10:12:20.500674 24007 net.cpp:84] Creating Layer lstm1_cont_slice
…
I1214 10:12:20.500753 24007 net.cpp:339] lstm1_cont_slice -> cont_9
I1214 10:12:20.500761 24007 net.cpp:339] lstm1_cont_slice -> cont_10
I1214 10:12:20.500769 24007 net.cpp:339] lstm1_cont_slice -> cont_11
I1214 10:12:20.500777 24007 net.cpp:339] lstm1_cont_slice -> cont_12
I1214 10:12:20.500784 24007 net.cpp:339] lstm1_cont_slice -> cont_13
I1214 10:12:20.500792 24007 net.cpp:339] lstm1_cont_slice -> cont_14
I1214 10:12:20.500799 24007 net.cpp:339] lstm1_cont_slice -> cont_15
I1214 10:12:20.500808 24007 net.cpp:339] lstm1_cont_slice -> cont_16
I1214 10:12:20.500813 24007 net.cpp:113] Setting up lstm1_cont_slice
I1214 10:12:20.500825 24007 net.cpp:120] Top shape: 1 1 24 (24)
I1214 10:12:20.500831 24007 net.cpp:120] Top shape: 1 1 24 (24)
I1214 10:12:20.500838 24007 net.cpp:120] Top shape: 1 1 24 (24)
I1214 10:12:20.500843 24007 net.cpp:120] Top shape: 1 1 24 (24)
I1214 10:12:20.500847 24007 net.cpp:120] Top shape: 1 1 24 (24)
I1214 10:12:20.500854 24007 net.cpp:120] Top shape: 1 1 24 (24)
I1214 10:12:20.500859 24007 net.cpp:120] Top shape: 1 1 24 (24)
I1214 10:12:20.500864 24007 net.cpp:120] Top shape: 1 1 24 (24)
I1214 10:12:20.500869 24007 net.cpp:120] Top shape: 1 1 24 (24)
I1214 10:12:20.500875 24007 net.cpp:120] Top shape: 1 1 24 (24)
I1214 10:12:20.500880 24007 net.cpp:120] Top shape: 1 1 24 (24)
I1214 10:12:20.500885 24007 net.cpp:120] Top shape: 1 1 24 (24)
I1214 10:12:20.500891 24007 net.cpp:120] Top shape: 1 1 24 (24)
I1214 10:12:20.500896 24007 net.cpp:120] Top shape: 1 1 24 (24)
I1214 10:12:20.500901 24007 net.cpp:120] Top shape: 1 1 24 (24)
I1214 10:12:20.500907 24007 net.cpp:120] Top shape: 1 1 24 (24)
I1214 10:12:20.500912 24007 layer_factory.hpp:74] Creating layer cont_1_lstm1_cont_slice_0_split
I1214 10:12:20.500918 24007 net.cpp:84] Creating Layer cont_1_lstm1_cont_slice_0_split
I1214 10:12:20.500923 24007 net.cpp:381] cont_1_lstm1_cont_slice_0_split <- cont_1
I1214 10:12:20.500929 24007 net.cpp:339] cont_1_lstm1_cont_slice_0_split -> cont_1_lstm1_cont_slice_0_split_0
I1214 10:12:20.500936 24007 net.cpp:339] cont_1_lstm1_cont_slice_0_split -> cont_1_lstm1_cont_slice_0_split_1
I1214 10:12:20.500942 24007 net.cpp:113] Setting up cont_1_lstm1_cont_slice_0_split
I1214 10:12:20.500949 24007 net.cpp:120] Top shape: 1 1 24 (24)
I1214 10:12:20.500955 24007 net.cpp:120] Top shape: 1 1 24 (24)
I1214 10:12:20.500960 24007 layer_factory.hpp:74] Creating layer cont_2_lstm1_cont_slice_1_split
I1214 10:12:20.500967 24007 net.cpp:84] Creating Layer cont_2_lstm1_cont_slice_1_split
I1214 10:12:20.500972 24007 net.cpp:381] cont_2_lstm1_cont_slice_1_split <- cont_2
I1214 10:12:20.500978 24007 net.cpp:339] cont_2_lstm1_cont_slice_1_split -> cont_2_lstm1_cont_slice_1_split_0
I1214 10:12:20.500987 24007 net.cpp:339] cont_2_lstm1_cont_slice_1_split -> cont_2_lstm1_cont_slice_1_split_1
I1214 10:12:20.500993 24007 net.cpp:113] Setting up cont_2_lstm1_cont_slice_1_split
I1214 10:12:20.500999 24007 net.cpp:120] Top shape: 1 1 24 (24)
I1214 10:12:20.501004 24007 net.cpp:120] Top shape: 1 1 24 (24)
I1214 10:12:20.501009 24007 layer_factory.hpp:74] Creating layer cont_3_lstm1_cont_slice_2_split
I1214 10:12:20.501014 24007 net.cpp:84] Creating Layer cont_3_lstm1_cont_slice_2_split
I1214 10:12:20.501019 24007 net.cpp:381] cont_3_lstm1_cont_slice_2_split <- cont_3
I1214 10:12:20.501025 24007 net.cpp:339] cont_3_lstm1_cont_slice_2_split -> cont_3_lstm1_cont_slice_2_split_0
I1214 10:12:20.501031 24007 net.cpp:339] cont_3_lstm1_cont_slice_2_split -> cont_3_lstm1_cont_slice_2_split_1
I1214 10:12:20.501039 24007 net.cpp:113] Setting up cont_3_lstm1_cont_slice_2_split
I1214 10:12:20.501044 24007 net.cpp:120] Top shape: 1 1 24 (24)
I1214 10:12:20.501049 24007 net.cpp:120] Top shape: 1 1 24 (24)
I1214 10:12:20.501055 24007 layer_factory.hpp:74] Creating layer cont_4_lstm1_cont_slice_3_split
I1214 10:12:20.501061 24007 net.cpp:84] Creating Layer cont_4_lstm1_cont_slice_3_split
I1214 10:12:20.501070 24007 net.cpp:381] cont_4_lstm1_cont_slice_3_split <- cont_4
I1214 10:12:20.501075 24007 net.cpp:339] cont_4_lstm1_cont_slice_3_split -> cont_4_lstm1_cont_slice_3_split_0
I1214 10:12:20.501083 24007 net.cpp:339] cont_4_lstm1_cont_slice_3_split -> cont_4_lstm1_cont_slice_3_split_1
I1214 10:12:20.501090 24007 net.cpp:113] Setting up cont_4_lstm1_cont_slice_3_split
I1214 10:12:20.501096 24007 net.cpp:120] Top shape: 1 1 24 (24)
I1214 10:12:20.501101 24007 net.cpp:120] Top shape: 1 1 24 (24)
I1214 10:12:20.501106 24007 layer_factory.hpp:74] Creating layer cont_5_lstm1_cont_slice_4_split
I1214 10:12:20.501111 24007 net.cpp:84] Creating Layer cont_5_lstm1_cont_slice_4_split
I1214 10:12:20.501116 24007 net.cpp:381] cont_5_lstm1_cont_slice_4_split <- cont_5
I1214 10:12:20.501121 24007 net.cpp:339] cont_5_lstm1_cont_slice_4_split -> cont_5_lstm1_cont_slice_4_split_0
I1214 10:12:20.501128 24007 net.cpp:339] cont_5_lstm1_cont_slice_4_split -> cont_5_lstm1_cont_slice_4_split_1
I1214 10:12:20.501134 24007 net.cpp:113] Setting up cont_5_lstm1_cont_slice_4_split
I1214 10:12:20.501140 24007 net.cpp:120] Top shape: 1 1 24 (24)
I1214 10:12:20.501147 24007 net.cpp:120] Top shape: 1 1 24 (24)
I1214 10:12:20.501150 24007 layer_factory.hpp:74] Creating layer cont_6_lstm1_cont_slice_5_split
I1214 10:12:20.501157 24007 net.cpp:84] Creating Layer cont_6_lstm1_cont_slice_5_split
I1214 10:12:20.501163 24007 net.cpp:381] cont_6_lstm1_cont_slice_5_split <- cont_6
I1214 10:12:20.501168 24007 net.cpp:339] cont_6_lstm1_cont_slice_5_split -> cont_6_lstm1_cont_slice_5_split_0
I1214 10:12:20.501174 24007 net.cpp:339] cont_6_lstm1_cont_slice_5_split -> cont_6_lstm1_cont_slice_5_split_1
I1214 10:12:20.501180 24007 net.cpp:113] Setting up cont_6_lstm1_cont_slice_5_split
I1214 10:12:20.501188 24007 net.cpp:120] Top shape: 1 1 24 (24)
I1214 10:12:20.501194 24007 net.cpp:120] Top shape: 1 1 24 (24)
I1214 10:12:20.501199 24007 layer_factory.hpp:74] Creating layer cont_7_lstm1_cont_slice_6_split
I1214 10:12:20.501204 24007 net.cpp:84] Creating Layer cont_7_lstm1_cont_slice_6_split
I1214 10:12:20.501209 24007 net.cpp:381] cont_7_lstm1_cont_slice_6_split <- cont_7
I1214 10:12:20.501214 24007 net.cpp:339] cont_7_lstm1_cont_slice_6_split -> cont_7_lstm1_cont_slice_6_split_0
I1214 10:12:20.501222 24007 net.cpp:339] cont_7_lstm1_cont_slice_6_split -> cont_7_lstm1_cont_slice_6_split_1
I1214 10:12:20.501229 24007 net.cpp:113] Setting up cont_7_lstm1_cont_slice_6_split
I1214 10:12:20.501235 24007 net.cpp:120] Top shape: 1 1 24 (24)
I1214 10:12:20.501240 24007 net.cpp:120] Top shape: 1 1 24 (24)
I1214 10:12:20.501245 24007 layer_factory.hpp:74] Creating layer cont_8_lstm1_cont_slice_7_split
I1214 10:12:20.501251 24007 net.cpp:84] Creating Layer cont_8_lstm1_cont_slice_7_split
I1214 10:12:20.501256 24007 net.cpp:381] cont_8_lstm1_cont_slice_7_split <- cont_8
I1214 10:12:20.501262 24007 net.cpp:339] cont_8_lstm1_cont_slice_7_split -> cont_8_lstm1_cont_slice_7_split_0
I1214 10:12:20.501271 24007 net.cpp:339] cont_8_lstm1_cont_slice_7_split -> cont_8_lstm1_cont_slice_7_split_1
I1214 10:12:20.501277 24007 net.cpp:113] Setting up cont_8_lstm1_cont_slice_7_split
I1214 10:12:20.501283 24007 net.cpp:120] Top shape: 1 1 24 (24)
I1214 10:12:20.501289 24007 net.cpp:120] Top shape: 1 1 24 (24)
I1214 10:12:20.501293 24007 layer_factory.hpp:74] Creating layer cont_9_lstm1_cont_slice_8_split
I1214 10:12:20.501298 24007 net.cpp:84] Creating Layer cont_9_lstm1_cont_slice_8_split
I1214 10:12:20.501303 24007 net.cpp:381] cont_9_lstm1_cont_slice_8_split <- cont_9
I1214 10:12:20.501308 24007 net.cpp:339] cont_9_lstm1_cont_slice_8_split -> cont_9_lstm1_cont_slice_8_split_0
I1214 10:12:20.501315 24007 net.cpp:339] cont_9_lstm1_cont_slice_8_split -> cont_9_lstm1_cont_slice_8_split_1
I1214 10:12:20.501322 24007 net.cpp:113] Setting up cont_9_lstm1_cont_slice_8_split
I1214 10:12:20.501327 24007 net.cpp:120] Top shape: 1 1 24 (24)
I1214 10:12:20.501333 24007 net.cpp:120] Top shape: 1 1 24 (24)
I1214 10:12:20.501338 24007 layer_factory.hpp:74] Creating layer cont_10_lstm1_cont_slice_9_split
I1214 10:12:20.501348 24007 net.cpp:84] Creating Layer cont_10_lstm1_cont_slice_9_split
I1214 10:12:20.501353 24007 net.cpp:381] cont_10_lstm1_cont_slice_9_split <- cont_10
I1214 10:12:20.501358 24007 net.cpp:339] cont_10_lstm1_cont_slice_9_split -> cont_10_lstm1_cont_slice_9_split_0
I1214 10:12:20.501364 24007 net.cpp:339] cont_10_lstm1_cont_slice_9_split -> cont_10_lstm1_cont_slice_9_split_1
I1214 10:12:20.501371 24007 net.cpp:113] Setting up cont_10_lstm1_cont_slice_9_split
I1214 10:12:20.501379 24007 net.cpp:120] Top shape: 1 1 24 (24)
I1214 10:12:20.501384 24007 net.cpp:120] Top shape: 1 1 24 (24)
I1214 10:12:20.501389 24007 layer_factory.hpp:74] Creating layer cont_11_lstm1_cont_slice_10_split
I1214 10:12:20.501394 24007 net.cpp:84] Creating Layer cont_11_lstm1_cont_slice_10_split
I1214 10:12:20.501399 24007 net.cpp:381] cont_11_lstm1_cont_slice_10_split <- cont_11
I1214 10:12:20.501405 24007 net.cpp:339] cont_11_lstm1_cont_slice_10_split -> cont_11_lstm1_cont_slice_10_split_0
I1214 10:12:20.501411 24007 net.cpp:339] cont_11_lstm1_cont_slice_10_split -> cont_11_lstm1_cont_slice_10_split_1
I1214 10:12:20.501417 24007 net.cpp:113] Setting up cont_11_lstm1_cont_slice_10_split
I1214 10:12:20.501425 24007 net.cpp:120] Top shape: 1 1 24 (24)
I1214 10:12:20.501430 24007 net.cpp:120] Top shape: 1 1 24 (24)
I1214 10:12:20.501435 24007 layer_factory.hpp:74] Creating layer cont_12_lstm1_cont_slice_11_split
I1214 10:12:20.501440 24007 net.cpp:84] Creating Layer cont_12_lstm1_cont_slice_11_split
I1214 10:12:20.501444 24007 net.cpp:381] cont_12_lstm1_cont_slice_11_split <- cont_12
I1214 10:12:20.501451 24007 net.cpp:339] cont_12_lstm1_cont_slice_11_split -> cont_12_lstm1_cont_slice_11_split_0
I1214 10:12:20.501458 24007 net.cpp:339] cont_12_lstm1_cont_slice_11_split -> cont_12_lstm1_cont_slice_11_split_1
I1214 10:12:20.501464 24007 net.cpp:113] Setting up cont_12_lstm1_cont_slice_11_split
I1214 10:12:20.501471 24007 net.cpp:120] Top shape: 1 1 24 (24)
I1214 10:12:20.501477 24007 net.cpp:120] Top shape: 1 1 24 (24)
I1214 10:12:20.501482 24007 layer_factory.hpp:74] Creating layer cont_13_lstm1_cont_slice_12_split
I1214 10:12:20.501488 24007 net.cpp:84] Creating Layer cont_13_lstm1_cont_slice_12_split
I1214 10:12:20.501493 24007 net.cpp:381] cont_13_lstm1_cont_slice_12_split <- cont_13
I1214 10:12:20.501499 24007 net.cpp:339] cont_13_lstm1_cont_slice_12_split -> cont_13_lstm1_cont_slice_12_split_0
I1214 10:12:20.501505 24007 net.cpp:339] cont_13_lstm1_cont_slice_12_split -> cont_13_lstm1_cont_slice_12_split_1
I1214 10:12:20.501512 24007 net.cpp:113] Setting up cont_13_lstm1_cont_slice_12_split
I1214 10:12:20.501518 24007 net.cpp:120] Top shape: 1 1 24 (24)
I1214 10:12:20.501523 24007 net.cpp:120] Top shape: 1 1 24 (24)
I1214 10:12:20.501528 24007 layer_factory.hpp:74] Creating layer cont_14_lstm1_cont_slice_13_split
I1214 10:12:20.501533 24007 net.cpp:84] Creating Layer cont_14_lstm1_cont_slice_13_split
I1214 10:12:20.501538 24007 net.cpp:381] cont_14_lstm1_cont_slice_13_split <- cont_14
I1214 10:12:20.501545 24007 net.cpp:339] cont_14_lstm1_cont_slice_13_split -> cont_14_lstm1_cont_slice_13_split_0
I1214 10:12:20.501552 24007 net.cpp:339] cont_14_lstm1_cont_slice_13_split -> cont_14_lstm1_cont_slice_13_split_1
I1214 10:12:20.501559 24007 net.cpp:113] Setting up cont_14_lstm1_cont_slice_13_split
I1214 10:12:20.501564 24007 net.cpp:120] Top shape: 1 1 24 (24)
I1214 10:12:20.501570 24007 net.cpp:120] Top shape: 1 1 24 (24)
I1214 10:12:20.501574 24007 layer_factory.hpp:74] Creating layer cont_15_lstm1_cont_slice_14_split
I1214 10:12:20.501579 24007 net.cpp:84] Creating Layer cont_15_lstm1_cont_slice_14_split
I1214 10:12:20.501585 24007 net.cpp:381] cont_15_lstm1_cont_slice_14_split <- cont_15
I1214 10:12:20.501591 24007 net.cpp:339] cont_15_lstm1_cont_slice_14_split -> cont_15_lstm1_cont_slice_14_split_0
I1214 10:12:20.501598 24007 net.cpp:339] cont_15_lstm1_cont_slice_14_split -> cont_15_lstm1_cont_slice_14_split_1
I1214 10:12:20.501605 24007 net.cpp:113] Setting up cont_15_lstm1_cont_slice_14_split
I1214 10:12:20.501613 24007 net.cpp:120] Top shape: 1 1 24 (24)
I1214 10:12:20.501619 24007 net.cpp:120] Top shape: 1 1 24 (24)
I1214 10:12:20.501623 24007 layer_factory.hpp:74] Creating layer cont_16_lstm1_cont_slice_15_split
I1214 10:12:20.501629 24007 net.cpp:84] Creating Layer cont_16_lstm1_cont_slice_15_split
I1214 10:12:20.501634 24007 net.cpp:381] cont_16_lstm1_cont_slice_15_split <- cont_16
I1214 10:12:20.501642 24007 net.cpp:339] cont_16_lstm1_cont_slice_15_split -> cont_16_lstm1_cont_slice_15_split_0
I1214 10:12:20.501648 24007 net.cpp:339] cont_16_lstm1_cont_slice_15_split -> cont_16_lstm1_cont_slice_15_split_1
I1214 10:12:20.501655 24007 net.cpp:113] Setting up cont_16_lstm1_cont_slice_15_split
I1214 10:12:20.501662 24007 net.cpp:120] Top shape: 1 1 24 (24)
I1214 10:12:20.501667 24007 net.cpp:120] Top shape: 1 1 24 (24)
I1214 10:12:20.501672 24007 layer_factory.hpp:74] Creating layer lstm1_x_transform
I1214 10:12:20.501678 24007 net.cpp:84] Creating Layer lstm1_x_transform
I1214 10:12:20.501682 24007 net.cpp:381] lstm1_x_transform <- x
I1214 10:12:20.501689 24007 net.cpp:339] lstm1_x_transform -> W_xc_x
I1214 10:12:20.501696 24007 net.cpp:113] Setting up lstm1_x_transform
I1214 10:12:20.523147 24007 net.cpp:120] Top shape: 16 24 1024 (393216)
I1214 10:12:20.523190 24007 layer_factory.hpp:74] Creating layer lstm1_W_xc_x_slice
I1214 10:12:20.523203 24007 net.cpp:84] Creating Layer lstm1_W_xc_x_slice
I1214 10:12:20.523211 24007 net.cpp:381] lstm1_W_xc_x_slice <- W_xc_x
I1214 10:12:20.523219 24007 net.cpp:339] lstm1_W_xc_x_slice -> W_xc_x_1
I1214 10:12:20.523236 24007 net.cpp:339] lstm1_W_xc_x_slice -> W_xc_x_2
I1214 10:12:20.523246 24007 net.cpp:339] lstm1_W_xc_x_slice -> W_xc_x_3
…
I1214 10:12:20.523300 24007 net.cpp:339] lstm1_W_xc_x_slice -> W_xc_x_10
I1214 10:12:20.523308 24007 net.cpp:339] lstm1_W_xc_x_slice -> W_xc_x_11
I1214 10:12:20.523315 24007 net.cpp:339] lstm1_W_xc_x_slice -> W_xc_x_12
I1214 10:12:20.523332 24007 net.cpp:339] lstm1_W_xc_x_slice -> W_xc_x_13
I1214 10:12:20.523341 24007 net.cpp:339] lstm1_W_xc_x_slice -> W_xc_x_14
I1214 10:12:20.523350 24007 net.cpp:339] lstm1_W_xc_x_slice -> W_xc_x_15
I1214 10:12:20.523356 24007 net.cpp:339] lstm1_W_xc_x_slice -> W_xc_x_16
I1214 10:12:20.523363 24007 net.cpp:113] Setting up lstm1_W_xc_x_slice
I1214 10:12:20.523375 24007 net.cpp:120] Top shape: 1 24 1024 (24576)
I1214 10:12:20.523380 24007 net.cpp:120] Top shape: 1 24 1024 (24576)
I1214 10:12:20.523386 24007 net.cpp:120] Top shape: 1 24 1024 (24576)
I1214 10:12:20.523391 24007 net.cpp:120] Top shape: 1 24 1024 (24576)
I1214 10:12:20.523396 24007 net.cpp:120] Top shape: 1 24 1024 (24576)
I1214 10:12:20.523402 24007 net.cpp:120] Top shape: 1 24 1024 (24576)
I1214 10:12:20.523407 24007 net.cpp:120] Top shape: 1 24 1024 (24576)
I1214 10:12:20.523412 24007 net.cpp:120] Top shape: 1 24 1024 (24576)
I1214 10:12:20.523417 24007 net.cpp:120] Top shape: 1 24 1024 (24576)
I1214 10:12:20.523423 24007 net.cpp:120] Top shape: 1 24 1024 (24576)
I1214 10:12:20.523428 24007 net.cpp:120] Top shape: 1 24 1024 (24576)
I1214 10:12:20.523434 24007 net.cpp:120] Top shape: 1 24 1024 (24576)
I1214 10:12:20.523439 24007 net.cpp:120] Top shape: 1 24 1024 (24576)
I1214 10:12:20.523444 24007 net.cpp:120] Top shape: 1 24 1024 (24576)
I1214 10:12:20.523450 24007 net.cpp:120] Top shape: 1 24 1024 (24576)
I1214 10:12:20.523455 24007 net.cpp:120] Top shape: 1 24 1024 (24576)
I1214 10:12:20.523460 24007 layer_factory.hpp:74] Creating layer lstm1_h_conted_0
I1214 10:12:20.523473 24007 net.cpp:84] Creating Layer lstm1_h_conted_0
I1214 10:12:20.523480 24007 net.cpp:381] lstm1_h_conted_0 <- h_0
I1214 10:12:20.523486 24007 net.cpp:381] lstm1_h_conted_0 <- cont_1_lstm1_cont_slice_0_split_0
I1214 10:12:20.523504 24007 net.cpp:339] lstm1_h_conted_0 -> h_conted_0
I1214 10:12:20.523512 24007 net.cpp:113] Setting up lstm1_h_conted_0
I1214 10:12:20.523524 24007 net.cpp:120] Top shape: 1 24 256 (6144)
I1214 10:12:20.523530 24007 layer_factory.hpp:74] Creating layer lstm1_transform_1
I1214 10:12:20.523538 24007 net.cpp:84] Creating Layer lstm1_transform_1
I1214 10:12:20.523543 24007 net.cpp:381] lstm1_transform_1 <- h_conted_0
I1214 10:12:20.523550 24007 net.cpp:339] lstm1_transform_1 -> W_hc_h_0
I1214 10:12:20.523557 24007 net.cpp:113] Setting up lstm1_transform_1
I1214 10:12:20.525079 24007 net.cpp:120] Top shape: 1 24 1024 (24576)
I1214 10:12:20.525089 24007 layer_factory.hpp:74] Creating layer lstm1_gate_input_1
I1214 10:12:20.525095 24007 net.cpp:84] Creating Layer lstm1_gate_input_1
I1214 10:12:20.525101 24007 net.cpp:381] lstm1_gate_input_1 <- W_hc_h_0
I1214 10:12:20.525106 24007 net.cpp:381] lstm1_gate_input_1 <- W_xc_x_1
I1214 10:12:20.525123 24007 net.cpp:339] lstm1_gate_input_1 -> gate_input_1
I1214 10:12:20.525131 24007 net.cpp:113] Setting up lstm1_gate_input_1
I1214 10:12:20.525138 24007 net.cpp:120] Top shape: 1 24 1024 (24576)
I1214 10:12:20.525143 24007 layer_factory.hpp:74] Creating layer lstm1_unit_1
I1214 10:12:20.525151 24007 net.cpp:84] Creating Layer lstm1_unit_1
I1214 10:12:20.525157 24007 net.cpp:381] lstm1_unit_1 <- c_0
I1214 10:12:20.525163 24007 net.cpp:381] lstm1_unit_1 <- gate_input_1
I1214 10:12:20.525169 24007 net.cpp:381] lstm1_unit_1 <- cont_1_lstm1_cont_slice_0_split_1
I1214 10:12:20.525177 24007 net.cpp:339] lstm1_unit_1 -> c_1
I1214 10:12:20.525185 24007 net.cpp:339] lstm1_unit_1 -> h_1
I1214 10:12:20.525192 24007 net.cpp:113] Setting up lstm1_unit_1
I1214 10:12:20.525203 24007 net.cpp:120] Top shape: 1 24 256 (6144)
I1214 10:12:20.525210 24007 net.cpp:120] Top shape: 1 24 256 (6144)
I1214 10:12:20.525214 24007 layer_factory.hpp:74] Creating layer h_1_lstm1_unit_1_1_split
I1214 10:12:20.525221 24007 net.cpp:84] Creating Layer h_1_lstm1_unit_1_1_split
I1214 10:12:20.525226 24007 net.cpp:381] h_1_lstm1_unit_1_1_split <- h_1
I1214 10:12:20.525233 24007 net.cpp:339] h_1_lstm1_unit_1_1_split -> h_1_lstm1_unit_1_1_split_0
I1214 10:12:20.525240 24007 net.cpp:339] h_1_lstm1_unit_1_1_split -> h_1_lstm1_unit_1_1_split_1
I1214 10:12:20.525246 24007 net.cpp:113] Setting up h_1_lstm1_unit_1_1_split
I1214 10:12:20.525255 24007 net.cpp:120] Top shape: 1 24 256 (6144)
I1214 10:12:20.525261 24007 net.cpp:120] Top shape: 1 24 256 (6144)
I1214 10:12:20.525266 24007 layer_factory.hpp:74] Creating layer lstm1_h_conted_1
I1214 10:12:20.525272 24007 net.cpp:84] Creating Layer lstm1_h_conted_1
I1214 10:12:20.525277 24007 net.cpp:381] lstm1_h_conted_1 <- h_1_lstm1_unit_1_1_split_0
I1214 10:12:20.525284 24007 net.cpp:381] lstm1_h_conted_1 <- cont_2_lstm1_cont_slice_1_split_0
I1214 10:12:20.525290 24007 net.cpp:339] lstm1_h_conted_1 -> h_conted_1
I1214 10:12:20.525298 24007 net.cpp:113] Setting up lstm1_h_conted_1
I1214 10:12:20.525305 24007 net.cpp:120] Top shape: 1 24 256 (6144)
I1214 10:12:20.525310 24007 layer_factory.hpp:74] Creating layer lstm1_transform_2
I1214 10:12:20.525316 24007 net.cpp:84] Creating Layer lstm1_transform_2
I1214 10:12:20.525321 24007 net.cpp:381] lstm1_transform_2 <- h_conted_1
I1214 10:12:20.525328 24007 net.cpp:339] lstm1_transform_2 -> W_hc_h_1
I1214 10:12:20.525336 24007 net.cpp:113] Setting up lstm1_transform_2
I1214 10:12:20.526849 24007 net.cpp:120] Top shape: 1 24 1024 (24576)
I1214 10:12:20.526859 24007 net.cpp:425] Sharing parameters 'W_hc' owned by layer 'lstm1_transform_1', param index 0
I1214 10:12:20.526865 24007 layer_factory.hpp:74] Creating layer lstm1_gate_input_2
I1214 10:12:20.526872 24007 net.cpp:84] Creating Layer lstm1_gate_input_2
I1214 10:12:20.526877 24007 net.cpp:381] lstm1_gate_input_2 <- W_hc_h_1
I1214 10:12:20.526883 24007 net.cpp:381] lstm1_gate_input_2 <- W_xc_x_2
I1214 10:12:20.526890 24007 net.cpp:339] lstm1_gate_input_2 -> gate_input_2
I1214 10:12:20.526897 24007 net.cpp:113] Setting up lstm1_gate_input_2
I1214 10:12:20.526908 24007 net.cpp:120] Top shape: 1 24 1024 (24576)
I1214 10:12:20.526914 24007 layer_factory.hpp:74] Creating layer lstm1_unit_2
I1214 10:12:20.526922 24007 net.cpp:84] Creating Layer lstm1_unit_2
I1214 10:12:20.526927 24007 net.cpp:381] lstm1_unit_2 <- c_1
I1214 10:12:20.526933 24007 net.cpp:381] lstm1_unit_2 <- gate_input_2
I1214 10:12:20.526939 24007 net.cpp:381] lstm1_unit_2 <- cont_2_lstm1_cont_slice_1_split_1
I1214 10:12:20.526945 24007 net.cpp:339] lstm1_unit_2 -> c_2
I1214 10:12:20.526952 24007 net.cpp:339] lstm1_unit_2 -> h_2
I1214 10:12:20.526959 24007 net.cpp:113] Setting up lstm1_unit_2
I1214 10:12:20.526968 24007 net.cpp:120] Top shape: 1 24 256 (6144)
I1214 10:12:20.526973 24007 net.cpp:120] Top shape: 1 24 256 (6144)
I1214 10:12:20.526978 24007 layer_factory.hpp:74] Creating layer h_2_lstm1_unit_2_1_split
I1214 10:12:20.526985 24007 net.cpp:84] Creating Layer h_2_lstm1_unit_2_1_split
I1214 10:12:20.526991 24007 net.cpp:381] h_2_lstm1_unit_2_1_split <- h_2
I1214 10:12:20.526998 24007 net.cpp:339] h_2_lstm1_unit_2_1_split -> h_2_lstm1_unit_2_1_split_0
I1214 10:12:20.527004 24007 net.cpp:339] h_2_lstm1_unit_2_1_split -> h_2_lstm1_unit_2_1_split_1
I1214 10:12:20.527011 24007 net.cpp:113] Setting up h_2_lstm1_unit_2_1_split
I1214 10:12:20.527019 24007 net.cpp:120] Top shape: 1 24 256 (6144)
I1214 10:12:20.527025 24007 net.cpp:120] Top shape: 1 24 256 (6144)
I1214 10:12:20.527030 24007 layer_factory.hpp:74] Creating layer lstm1_h_conted_2
I1214 10:12:20.527036 24007 net.cpp:84] Creating Layer lstm1_h_conted_2
I1214 10:12:20.527041 24007 net.cpp:381] lstm1_h_conted_2 <- h_2_lstm1_unit_2_1_split_0
I1214 10:12:20.527047 24007 net.cpp:381] lstm1_h_conted_2 <- cont_3_lstm1_cont_slice_2_split_0
I1214 10:12:20.527053 24007 net.cpp:339] lstm1_h_conted_2 -> h_conted_2
I1214 10:12:20.527060 24007 net.cpp:113] Setting up lstm1_h_conted_2
I1214 10:12:20.527066 24007 net.cpp:120] Top shape: 1 24 256 (6144)
I1214 10:12:20.527071 24007 layer_factory.hpp:74] Creating layer lstm1_transform_3
I1214 10:12:20.527078 24007 net.cpp:84] Creating Layer lstm1_transform_3
I1214 10:12:20.527083 24007 net.cpp:381] lstm1_transform_3 <- h_conted_2
I1214 10:12:20.527093 24007 net.cpp:339] lstm1_transform_3 -> W_hc_h_2
I1214 10:12:20.527101 24007 net.cpp:113] Setting up lstm1_transform_3
I1214 10:12:20.528607 24007 net.cpp:120] Top shape: 1 24 1024 (24576)
I1214 10:12:20.528616 24007 net.cpp:425] Sharing parameters 'W_hc' owned by layer 'lstm1_transform_1', param index 0
I1214 10:12:20.528621 24007 layer_factory.hpp:74] Creating layer lstm1_gate_input_3
I1214 10:12:20.528630 24007 net.cpp:84] Creating Layer lstm1_gate_input_3
I1214 10:12:20.528635 24007 net.cpp:381] lstm1_gate_input_3 <- W_hc_h_2
I1214 10:12:20.528641 24007 net.cpp:381] lstm1_gate_input_3 <- W_xc_x_3
I1214 10:12:20.528647 24007 net.cpp:339] lstm1_gate_input_3 -> gate_input_3
I1214 10:12:20.528655 24007 net.cpp:113] Setting up lstm1_gate_input_3
I1214 10:12:20.528661 24007 net.cpp:120] Top shape: 1 24 1024 (24576)
I1214 10:12:20.528666 24007 layer_factory.hpp:74] Creating layer lstm1_unit_3
I1214 10:12:20.528676 24007 net.cpp:84] Creating Layer lstm1_unit_3
I1214 10:12:20.528681 24007 net.cpp:381] lstm1_unit_3 <- c_2
I1214 10:12:20.528687 24007 net.cpp:381] lstm1_unit_3 <- gate_input_3
I1214 10:12:20.528693 24007 net.cpp:381] lstm1_unit_3 <- cont_3_lstm1_cont_slice_2_split_1
I1214 10:12:20.528699 24007 net.cpp:339] lstm1_unit_3 -> c_3
I1214 10:12:20.528707 24007 net.cpp:339] lstm1_unit_3 -> h_3
I1214 10:12:20.528713 24007 net.cpp:113] Setting up lstm1_unit_3
I1214 10:12:20.528723 24007 net.cpp:120] Top shape: 1 24 256 (6144)
I1214 10:12:20.528728 24007 net.cpp:120] Top shape: 1 24 256 (6144)
I1214 10:12:20.528733 24007 layer_factory.hpp:74] Creating layer h_3_lstm1_unit_3_1_split
I1214 10:12:20.528739 24007 net.cpp:84] Creating Layer h_3_lstm1_unit_3_1_split
I1214 10:12:20.528744 24007 net.cpp:381] h_3_lstm1_unit_3_1_split <- h_3
I1214 10:12:20.528750 24007 net.cpp:339] h_3_lstm1_unit_3_1_split -> h_3_lstm1_unit_3_1_split_0
I1214 10:12:20.528761 24007 net.cpp:339] h_3_lstm1_unit_3_1_split -> h_3_lstm1_unit_3_1_split_1
I1214 10:12:20.528769 24007 net.cpp:113] Setting up h_3_lstm1_unit_3_1_split
I1214 10:12:20.528776 24007 net.cpp:120] Top shape: 1 24 256 (6144)
I1214 10:12:20.528781 24007 net.cpp:120] Top shape: 1 24 256 (6144)
I1214 10:12:20.528786 24007 layer_factory.hpp:74] Creating layer lstm1_h_conted_3
I1214 10:12:20.528795 24007 net.cpp:84] Creating Layer lstm1_h_conted_3
I1214 10:12:20.528800 24007 net.cpp:381] lstm1_h_conted_3 <- h_3_lstm1_unit_3_1_split_0
I1214 10:12:20.528806 24007 net.cpp:381] lstm1_h_conted_3 <- cont_4_lstm1_cont_slice_3_split_0
I1214 10:12:20.528812 24007 net.cpp:339] lstm1_h_conted_3 -> h_conted_3
I1214 10:12:20.528820 24007 net.cpp:113] Setting up lstm1_h_conted_3
I1214 10:12:20.528825 24007 net.cpp:120] Top shape: 1 24 256 (6144)
I1214 10:12:20.528831 24007 layer_factory.hpp:74] Creating layer lstm1_transform_4
I1214 10:12:20.528838 24007 net.cpp:84] Creating Layer lstm1_transform_4
I1214 10:12:20.528844 24007 net.cpp:381] lstm1_transform_4 <- h_conted_3
I1214 10:12:20.528851 24007 net.cpp:339] lstm1_transform_4 -> W_hc_h_3
I1214 10:12:20.528858 24007 net.cpp:113] Setting up lstm1_transform_4
I1214 10:12:20.530365 24007 net.cpp:120] Top shape: 1 24 1024 (24576)
I1214 10:12:20.530374 24007 net.cpp:425] Sharing parameters 'W_hc' owned by layer 'lstm1_transform_1', param index 0
I1214 10:12:20.530378 24007 layer_factory.hpp:74] Creating layer lstm1_gate_input_4
I1214 10:12:20.530385 24007 net.cpp:84] Creating Layer lstm1_gate_input_4
I1214 10:12:20.530390 24007 net.cpp:381] lstm1_gate_input_4 <- W_hc_h_3
I1214 10:12:20.530395 24007 net.cpp:381] lstm1_gate_input_4 <- W_xc_x_4
I1214 10:12:20.530403 24007 net.cpp:339] lstm1_gate_input_4 -> gate_input_4
I1214 10:12:20.530411 24007 net.cpp:113] Setting up lstm1_gate_input_4
I1214 10:12:20.530418 24007 net.cpp:120] Top shape: 1 24 1024 (24576)
I1214 10:12:20.530423 24007 layer_factory.hpp:74] Creating layer lstm1_unit_4
I1214 10:12:20.530431 24007 net.cpp:84] Creating Layer lstm1_unit_4
I1214 10:12:20.530434 24007 net.cpp:381] lstm1_unit_4 <- c_3
I1214 10:12:20.530441 24007 net.cpp:381] lstm1_unit_4 <- gate_input_4
I1214 10:12:20.530446 24007 net.cpp:381] lstm1_unit_4 <- cont_4_lstm1_cont_slice_3_split_1
I1214 10:12:20.530453 24007 net.cpp:339] lstm1_unit_4 -> c_4
I1214 10:12:20.530462 24007 net.cpp:339] lstm1_unit_4 -> h_4
I1214 10:12:20.530468 24007 net.cpp:113] Setting up lstm1_unit_4
I1214 10:12:20.530475 24007 net.cpp:120] Top shape: 1 24 256 (6144)
I1214 10:12:20.530481 24007 net.cpp:120] Top shape: 1 24 256 (6144)
I1214 10:12:20.530486 24007 layer_factory.hpp:74] Creating layer h_4_lstm1_unit_4_1_split
I1214 10:12:20.530493 24007 net.cpp:84] Creating Layer h_4_lstm1_unit_4_1_split
I1214 10:12:20.530498 24007 net.cpp:381] h_4_lstm1_unit_4_1_split <- h_4
I1214 10:12:20.530503 24007 net.cpp:339] h_4_lstm1_unit_4_1_split -> h_4_lstm1_unit_4_1_split_0
I1214 10:12:20.530511 24007 net.cpp:339] h_4_lstm1_unit_4_1_split -> h_4_lstm1_unit_4_1_split_1
I1214 10:12:20.530519 24007 net.cpp:113] Setting up h_4_lstm1_unit_4_1_split
I1214 10:12:20.530525 24007 net.cpp:120] Top shape: 1 24 256 (6144)
I1214 10:12:20.530531 24007 net.cpp:120] Top shape: 1 24 256 (6144)
I1214 10:12:20.530536 24007 layer_factory.hpp:74] Creating layer lstm1_h_conted_4
I1214 10:12:20.530542 24007 net.cpp:84] Creating Layer lstm1_h_conted_4
I1214 10:12:20.530546 24007 net.cpp:381] lstm1_h_conted_4 <- h_4_lstm1_unit_4_1_split_0
I1214 10:12:20.530552 24007 net.cpp:381] lstm1_h_conted_4 <- cont_5_lstm1_cont_slice_4_split_0
I1214 10:12:20.530560 24007 net.cpp:339] lstm1_h_conted_4 -> h_conted_4
I1214 10:12:20.530567 24007 net.cpp:113] Setting up lstm1_h_conted_4
I1214 10:12:20.530575 24007 net.cpp:120] Top shape: 1 24 256 (6144)
I1214 10:12:20.530580 24007 layer_factory.hpp:74] Creating layer lstm1_transform_5
I1214 10:12:20.530586 24007 net.cpp:84] Creating Layer lstm1_transform_5
I1214 10:12:20.530591 24007 net.cpp:381] lstm1_transform_5 <- h_conted_4
I1214 10:12:20.530596 24007 net.cpp:339] lstm1_transform_5 -> W_hc_h_4
I1214 10:12:20.530606 24007 net.cpp:113] Setting up lstm1_transform_5
I1214 10:12:20.532115 24007 net.cpp:120] Top shape: 1 24 1024 (24576)
I1214 10:12:20.532125 24007 net.cpp:425] Sharing parameters 'W_hc' owned by layer 'lstm1_transform_1', param index 0
I1214 10:12:20.532130 24007 layer_factory.hpp:74] Creating layer lstm1_gate_input_5
I1214 10:12:20.532138 24007 net.cpp:84] Creating Layer lstm1_gate_input_5
I1214 10:12:20.532143 24007 net.cpp:381] lstm1_gate_input_5 <- W_hc_h_4
I1214 10:12:20.532150 24007 net.cpp:381] lstm1_gate_input_5 <- W_xc_x_5
I1214 10:12:20.532155 24007 net.cpp:339] lstm1_gate_input_5 -> gate_input_5
I1214 10:12:20.532162 24007 net.cpp:113] Setting up lstm1_gate_input_5
I1214 10:12:20.532169 24007 net.cpp:120] Top shape: 1 24 1024 (24576)
I1214 10:12:20.532176 24007 layer_factory.hpp:74] Creating layer lstm1_unit_5
I1214 10:12:20.532183 24007 net.cpp:84] Creating Layer lstm1_unit_5
I1214 10:12:20.532188 24007 net.cpp:381] lstm1_unit_5 <- c_4
I1214 10:12:20.532194 24007 net.cpp:381] lstm1_unit_5 <- gate_input_5
I1214 10:12:20.532199 24007 net.cpp:381] lstm1_unit_5 <- cont_5_lstm1_cont_slice_4_split_1
I1214 10:12:20.532205 24007 net.cpp:339] lstm1_unit_5 -> c_5
I1214 10:12:20.532213 24007 net.cpp:339] lstm1_unit_5 -> h_5
I1214 10:12:20.532219 24007 net.cpp:113] Setting up lstm1_unit_5
I1214 10:12:20.532227 24007 net.cpp:120] Top shape: 1 24 256 (6144)
I1214 10:12:20.532233 24007 net.cpp:120] Top shape: 1 24 256 (6144)
I1214 10:12:20.532238 24007 layer_factory.hpp:74] Creating layer h_5_lstm1_unit_5_1_split
I1214 10:12:20.532245 24007 net.cpp:84] Creating Layer h_5_lstm1_unit_5_1_split
I1214 10:12:20.532250 24007 net.cpp:381] h_5_lstm1_unit_5_1_split <- h_5
I1214 10:12:20.532256 24007 net.cpp:339] h_5_lstm1_unit_5_1_split -> h_5_lstm1_unit_5_1_split_0
I1214 10:12:20.532263 24007 net.cpp:339] h_5_lstm1_unit_5_1_split -> h_5_lstm1_unit_5_1_split_1
I1214 10:12:20.532270 24007 net.cpp:113] Setting up h_5_lstm1_unit_5_1_split
I1214 10:12:20.532279 24007 net.cpp:120] Top shape: 1 24 256 (6144)
I1214 10:12:20.532285 24007 net.cpp:120] Top shape: 1 24 256 (6144)
I1214 10:12:20.532290 24007 layer_factory.hpp:74] Creating layer lstm1_h_conted_5
I1214 10:12:20.532296 24007 net.cpp:84] Creating Layer lstm1_h_conted_5
I1214 10:12:20.532300 24007 net.cpp:381] lstm1_h_conted_5 <- h_5_lstm1_unit_5_1_split_0
I1214 10:12:20.532306 24007 net.cpp:381] lstm1_h_conted_5 <- cont_6_lstm1_cont_slice_5_split_0
I1214 10:12:20.532312 24007 net.cpp:339] lstm1_h_conted_5 -> h_conted_5
I1214 10:12:20.532318 24007 net.cpp:113] Setting up lstm1_h_conted_5
I1214 10:12:20.532326 24007 net.cpp:120] Top shape: 1 24 256 (6144)
I1214 10:12:20.532331 24007 layer_factory.hpp:74] Creating layer lstm1_transform_6
I1214 10:12:20.532337 24007 net.cpp:84] Creating Layer lstm1_transform_6
I1214 10:12:20.532342 24007 net.cpp:381] lstm1_transform_6 <- h_conted_5
I1214 10:12:20.532351 24007 net.cpp:339] lstm1_transform_6 -> W_hc_h_5
I1214 10:12:20.532357 24007 net.cpp:113] Setting up lstm1_transform_6
I1214 10:12:20.533857 24007 net.cpp:120] Top shape: 1 24 1024 (24576)
I1214 10:12:20.533866 24007 net.cpp:425] Sharing parameters 'W_hc' owned by layer 'lstm1_transform_1', param index 0
I1214 10:12:20.533871 24007 layer_factory.hpp:74] Creating layer lstm1_gate_input_6
I1214 10:12:20.533879 24007 net.cpp:84] Creating Layer lstm1_gate_input_6
I1214 10:12:20.533885 24007 net.cpp:381] lstm1_gate_input_6 <- W_hc_h_5
I1214 10:12:20.533890 24007 net.cpp:381] lstm1_gate_input_6 <- W_xc_x_6
I1214 10:12:20.533896 24007 net.cpp:339] lstm1_gate_input_6 -> gate_input_6
I1214 10:12:20.533905 24007 net.cpp:113] Setting up lstm1_gate_input_6
I1214 10:12:20.533911 24007 net.cpp:120] Top shape: 1 24 1024 (24576)
I1214 10:12:20.533916 24007 layer_factory.hpp:74] Creating layer lstm1_unit_6
I1214 10:12:20.533922 24007 net.cpp:84] Creating Layer lstm1_unit_6
I1214 10:12:20.533928 24007 net.cpp:381] lstm1_unit_6 <- c_5
I1214 10:12:20.533933 24007 net.cpp:381] lstm1_unit_6 <- gate_input_6
I1214 10:12:20.533939 24007 net.cpp:381] lstm1_unit_6 <- cont_6_lstm1_cont_slice_5_split_1
I1214 10:12:20.533949 24007 net.cpp:339] lstm1_unit_6 -> c_6
I1214 10:12:20.533957 24007 net.cpp:339] lstm1_unit_6 -> h_6
I1214 10:12:20.533965 24007 net.cpp:113] Setting up lstm1_unit_6
I1214 10:12:20.533972 24007 net.cpp:120] Top shape: 1 24 256 (6144)
I1214 10:12:20.533978 24007 net.cpp:120] Top shape: 1 24 256 (6144)
I1214 10:12:20.533983 24007 layer_factory.hpp:74] Creating layer h_6_lstm1_unit_6_1_split
I1214 10:12:20.533988 24007 net.cpp:84] Creating Layer h_6_lstm1_unit_6_1_split
I1214 10:12:20.533993 24007 net.cpp:381] h_6_lstm1_unit_6_1_split <- h_6
I1214 10:12:20.534000 24007 net.cpp:339] h_6_lstm1_unit_6_1_split -> h_6_lstm1_unit_6_1_split_0
I1214 10:12:20.534008 24007 net.cpp:339] h_6_lstm1_unit_6_1_split -> h_6_lstm1_unit_6_1_split_1
I1214 10:12:20.534015 24007 net.cpp:113] Setting up h_6_lstm1_unit_6_1_split
I1214 10:12:20.534021 24007 net.cpp:120] Top shape: 1 24 256 (6144)
I1214 10:12:20.534028 24007 net.cpp:120] Top shape: 1 24 256 (6144)
I1214 10:12:20.534031 24007 layer_factory.hpp:74] Creating layer lstm1_h_conted_6
I1214 10:12:20.534037 24007 net.cpp:84] Creating Layer lstm1_h_conted_6
I1214 10:12:20.534042 24007 net.cpp:381] lstm1_h_conted_6 <- h_6_lstm1_unit_6_1_split_0
I1214 10:12:20.534047 24007 net.cpp:381] lstm1_h_conted_6 <- cont_7_lstm1_cont_slice_6_split_0
I1214 10:12:20.534054 24007 net.cpp:339] lstm1_h_conted_6 -> h_conted_6
I1214 10:12:20.534060 24007 net.cpp:113] Setting up lstm1_h_conted_6
I1214 10:12:20.534067 24007 net.cpp:120] Top shape: 1 24 256 (6144)
I1214 10:12:20.534072 24007 layer_factory.hpp:74] Creating layer lstm1_transform_7
I1214 10:12:20.534081 24007 net.cpp:84] Creating Layer lstm1_transform_7
I1214 10:12:20.534087 24007 net.cpp:381] lstm1_transform_7 <- h_conted_6
I1214 10:12:20.534096 24007 net.cpp:339] lstm1_transform_7 -> W_hc_h_6
I1214 10:12:20.534102 24007 net.cpp:113] Setting up lstm1_transform_7
I1214 10:12:20.535612 24007 net.cpp:120] Top shape: 1 24 1024 (24576)
I1214 10:12:20.535624 24007 net.cpp:425] Sharing parameters 'W_hc' owned by layer 'lstm1_transform_1', param index 0
I1214 10:12:20.535629 24007 layer_factory.hpp:74] Creating layer lstm1_gate_input_7
I1214 10:12:20.535634 24007 net.cpp:84] Creating Layer lstm1_gate_input_7
I1214 10:12:20.535640 24007 net.cpp:381] lstm1_gate_input_7 <- W_hc_h_6
I1214 10:12:20.535645 24007 net.cpp:381] lstm1_gate_input_7 <- W_xc_x_7
I1214 10:12:20.535651 24007 net.cpp:339] lstm1_gate_input_7 -> gate_input_7
I1214 10:12:20.535660 24007 net.cpp:113] Setting up lstm1_gate_input_7
I1214 10:12:20.535666 24007 net.cpp:120] Top shape: 1 24 1024 (24576)
I1214 10:12:20.535671 24007 layer_factory.hpp:74] Creating layer lstm1_unit_7
I1214 10:12:20.535679 24007 net.cpp:84] Creating Layer lstm1_unit_7
I1214 10:12:20.535684 24007 net.cpp:381] lstm1_unit_7 <- c_6
I1214 10:12:20.535691 24007 net.cpp:381] lstm1_unit_7 <- gate_input_7
I1214 10:12:20.535696 24007 net.cpp:381] lstm1_unit_7 <- cont_7_lstm1_cont_slice_6_split_1
I1214 10:12:20.535702 24007 net.cpp:339] lstm1_unit_7 -> c_7
I1214 10:12:20.535709 24007 net.cpp:339] lstm1_unit_7 -> h_7
I1214 10:12:20.535717 24007 net.cpp:113] Setting up lstm1_unit_7
I1214 10:12:20.535727 24007 net.cpp:120] Top shape: 1 24 256 (6144)
I1214 10:12:20.535734 24007 net.cpp:120] Top shape: 1 24 256 (6144)
I1214 10:12:20.535739 24007 layer_factory.hpp:74] Creating layer h_7_lstm1_unit_7_1_split
I1214 10:12:20.535745 24007 net.cpp:84] Creating Layer h_7_lstm1_unit_7_1_split
I1214 10:12:20.535749 24007 net.cpp:381] h_7_lstm1_unit_7_1_split <- h_7
I1214 10:12:20.535755 24007 net.cpp:339] h_7_lstm1_unit_7_1_split -> h_7_lstm1_unit_7_1_split_0
I1214 10:12:20.535763 24007 net.cpp:339] h_7_lstm1_unit_7_1_split -> h_7_lstm1_unit_7_1_split_1
I1214 10:12:20.535769 24007 net.cpp:113] Setting up h_7_lstm1_unit_7_1_split
I1214 10:12:20.535775 24007 net.cpp:120] Top shape: 1 24 256 (6144)
I1214 10:12:20.535783 24007 net.cpp:120] Top shape: 1 24 256 (6144)
I1214 10:12:20.535786 24007 layer_factory.hpp:74] Creating layer lstm1_h_conted_7
I1214 10:12:20.535794 24007 net.cpp:84] Creating Layer lstm1_h_conted_7
I1214 10:12:20.535804 24007 net.cpp:381] lstm1_h_conted_7 <- h_7_lstm1_unit_7_1_split_0
I1214 10:12:20.535809 24007 net.cpp:381] lstm1_h_conted_7 <- cont_8_lstm1_cont_slice_7_split_0
I1214 10:12:20.535815 24007 net.cpp:339] lstm1_h_conted_7 -> h_conted_7
I1214 10:12:20.535823 24007 net.cpp:113] Setting up lstm1_h_conted_7
I1214 10:12:20.535830 24007 net.cpp:120] Top shape: 1 24 256 (6144)
I1214 10:12:20.535835 24007 layer_factory.hpp:74] Creating layer lstm1_transform_8
I1214 10:12:20.535842 24007 net.cpp:84] Creating Layer lstm1_transform_8
I1214 10:12:20.535848 24007 net.cpp:381] lstm1_transform_8 <- h_conted_7
I1214 10:12:20.535854 24007 net.cpp:339] lstm1_transform_8 -> W_hc_h_7
I1214 10:12:20.535861 24007 net.cpp:113] Setting up lstm1_transform_8
I1214 10:12:20.537363 24007 net.cpp:120] Top shape: 1 24 1024 (24576)
I1214 10:12:20.537371 24007 net.cpp:425] Sharing parameters 'W_hc' owned by layer 'lstm1_transform_1', param index 0
I1214 10:12:20.537376 24007 layer_factory.hpp:74] Creating layer lstm1_gate_input_8
I1214 10:12:20.537384 24007 net.cpp:84] Creating Layer lstm1_gate_input_8
I1214 10:12:20.537390 24007 net.cpp:381] lstm1_gate_input_8 <- W_hc_h_7
I1214 10:12:20.537396 24007 net.cpp:381] lstm1_gate_input_8 <- W_xc_x_8
I1214 10:12:20.537402 24007 net.cpp:339] lstm1_gate_input_8 -> gate_input_8
I1214 10:12:20.537410 24007 net.cpp:113] Setting up lstm1_gate_input_8
I1214 10:12:20.537416 24007 net.cpp:120] Top shape: 1 24 1024 (24576)
I1214 10:12:20.537421 24007 layer_factory.hpp:74] Creating layer lstm1_unit_8
I1214 10:12:20.537428 24007 net.cpp:84] Creating Layer lstm1_unit_8
I1214 10:12:20.537432 24007 net.cpp:381] lstm1_unit_8 <- c_7
I1214 10:12:20.537439 24007 net.cpp:381] lstm1_unit_8 <- gate_input_8
I1214 10:12:20.537446 24007 net.cpp:381] lstm1_unit_8 <- cont_8_lstm1_cont_slice_7_split_1
I1214 10:12:20.537451 24007 net.cpp:339] lstm1_unit_8 -> c_8
I1214 10:12:20.537458 24007 net.cpp:339] lstm1_unit_8 -> h_8
I1214 10:12:20.537466 24007 net.cpp:113] Setting up lstm1_unit_8
I1214 10:12:20.537472 24007 net.cpp:120] Top shape: 1 24 256 (6144)
I1214 10:12:20.537478 24007 net.cpp:120] Top shape: 1 24 256 (6144)
I1214 10:12:20.537483 24007 layer_factory.hpp:74] Creating layer h_8_lstm1_unit_8_1_split
I1214 10:12:20.537488 24007 net.cpp:84] Creating Layer h_8_lstm1_unit_8_1_split
I1214 10:12:20.537493 24007 net.cpp:381] h_8_lstm1_unit_8_1_split <- h_8
I1214 10:12:20.537502 24007 net.cpp:339] h_8_lstm1_unit_8_1_split -> h_8_lstm1_unit_8_1_split_0
I1214 10:12:20.537509 24007 net.cpp:339] h_8_lstm1_unit_8_1_split -> h_8_lstm1_unit_8_1_split_1
I1214 10:12:20.537515 24007 net.cpp:113] Setting up h_8_lstm1_unit_8_1_split
I1214 10:12:20.537523 24007 net.cpp:120] Top shape: 1 24 256 (6144)
I1214 10:12:20.537528 24007 net.cpp:120] Top shape: 1 24 256 (6144)
I1214 10:12:20.537533 24007 layer_factory.hpp:74] Creating layer lstm1_h_conted_8
I1214 10:12:20.537539 24007 net.cpp:84] Creating Layer lstm1_h_conted_8
I1214 10:12:20.537544 24007 net.cpp:381] lstm1_h_conted_8 <- h_8_lstm1_unit_8_1_split_0
I1214 10:12:20.537549 24007 net.cpp:381] lstm1_h_conted_8 <- cont_9_lstm1_cont_slice_8_split_0
I1214 10:12:20.537557 24007 net.cpp:339] lstm1_h_conted_8 -> h_conted_8
I1214 10:12:20.537565 24007 net.cpp:113] Setting up lstm1_h_conted_8
I1214 10:12:20.537571 24007 net.cpp:120] Top shape: 1 24 256 (6144)
I1214 10:12:20.537576 24007 layer_factory.hpp:74] Creating layer lstm1_transform_9
I1214 10:12:20.537583 24007 net.cpp:84] Creating Layer lstm1_transform_9
I1214 10:12:20.537590 24007 net.cpp:381] lstm1_transform_9 <- h_conted_8
I1214 10:12:20.537597 24007 net.cpp:339] lstm1_transform_9 -> W_hc_h_8
I1214 10:12:20.537605 24007 net.cpp:113] Setting up lstm1_transform_9
I1214 10:12:20.539111 24007 net.cpp:120] Top shape: 1 24 1024 (24576)
I1214 10:12:20.539121 24007 net.cpp:425] Sharing parameters 'W_hc' owned by layer 'lstm1_transform_1', param index 0
I1214 10:12:20.539126 24007 layer_factory.hpp:74] Creating layer lstm1_gate_input_9
I1214 10:12:20.539132 24007 net.cpp:84] Creating Layer lstm1_gate_input_9
I1214 10:12:20.539141 24007 net.cpp:381] lstm1_gate_input_9 <- W_hc_h_8
I1214 10:12:20.539147 24007 net.cpp:381] lstm1_gate_input_9 <- W_xc_x_9
I1214 10:12:20.539155 24007 net.cpp:339] lstm1_gate_input_9 -> gate_input_9
I1214 10:12:20.539162 24007 net.cpp:113] Setting up lstm1_gate_input_9
I1214 10:12:20.539170 24007 net.cpp:120] Top shape: 1 24 1024 (24576)
I1214 10:12:20.539175 24007 layer_factory.hpp:74] Creating layer lstm1_unit_9
I1214 10:12:20.539181 24007 net.cpp:84] Creating Layer lstm1_unit_9
I1214 10:12:20.539186 24007 net.cpp:381] lstm1_unit_9 <- c_8
I1214 10:12:20.539192 24007 net.cpp:381] lstm1_unit_9 <- gate_input_9
I1214 10:12:20.539197 24007 net.cpp:381] lstm1_unit_9 <- cont_9_lstm1_cont_slice_8_split_1
I1214 10:12:20.539203 24007 net.cpp:339] lstm1_unit_9 -> c_9
I1214 10:12:20.539219 24007 net.cpp:339] lstm1_unit_9 -> h_9
I1214 10:12:20.539227 24007 net.cpp:113] Setting up lstm1_unit_9
I1214 10:12:20.539234 24007 net.cpp:120] Top shape: 1 24 256 (6144)
I1214 10:12:20.539239 24007 net.cpp:120] Top shape: 1 24 256 (6144)
I1214 10:12:20.539244 24007 layer_factory.hpp:74] Creating layer h_9_lstm1_unit_9_1_split
I1214 10:12:20.539250 24007 net.cpp:84] Creating Layer h_9_lstm1_unit_9_1_split
I1214 10:12:20.539254 24007 net.cpp:381] h_9_lstm1_unit_9_1_split <- h_9
I1214 10:12:20.539263 24007 net.cpp:339] h_9_lstm1_unit_9_1_split -> h_9_lstm1_unit_9_1_split_0
I1214 10:12:20.539270 24007 net.cpp:339] h_9_lstm1_unit_9_1_split -> h_9_lstm1_unit_9_1_split_1
I1214 10:12:20.539276 24007 net.cpp:113] Setting up h_9_lstm1_unit_9_1_split
I1214 10:12:20.539283 24007 net.cpp:120] Top shape: 1 24 256 (6144)
I1214 10:12:20.539288 24007 net.cpp:120] Top shape: 1 24 256 (6144)
I1214 10:12:20.539294 24007 layer_factory.hpp:74] Creating layer lstm1_h_conted_9
I1214 10:12:20.539304 24007 net.cpp:84] Creating Layer lstm1_h_conted_9
I1214 10:12:20.539309 24007 net.cpp:381] lstm1_h_conted_9 <- h_9_lstm1_unit_9_1_split_0
I1214 10:12:20.539315 24007 net.cpp:381] lstm1_h_conted_9 <- cont_10_lstm1_cont_slice_9_split_0
I1214 10:12:20.539321 24007 net.cpp:339] lstm1_h_conted_9 -> h_conted_9
I1214 10:12:20.539329 24007 net.cpp:113] Setting up lstm1_h_conted_9
I1214 10:12:20.539335 24007 net.cpp:120] Top shape: 1 24 256 (6144)
I1214 10:12:20.539340 24007 layer_factory.hpp:74] Creating layer lstm1_transform_10
I1214 10:12:20.539352 24007 net.cpp:84] Creating Layer lstm1_transform_10
I1214 10:12:20.539357 24007 net.cpp:381] lstm1_transform_10 <- h_conted_9
I1214 10:12:20.539365 24007 net.cpp:339] lstm1_transform_10 -> W_hc_h_9
I1214 10:12:20.539371 24007 net.cpp:113] Setting up lstm1_transform_10
I1214 10:12:20.540874 24007 net.cpp:120] Top shape: 1 24 1024 (24576)
I1214 10:12:20.540882 24007 net.cpp:425] Sharing parameters 'W_hc' owned by layer 'lstm1_transform_1', param index 0
I1214 10:12:20.540887 24007 layer_factory.hpp:74] Creating layer lstm1_gate_input_10
I1214 10:12:20.540894 24007 net.cpp:84] Creating Layer lstm1_gate_input_10
I1214 10:12:20.540899 24007 net.cpp:381] lstm1_gate_input_10 <- W_hc_h_9
I1214 10:12:20.540904 24007 net.cpp:381] lstm1_gate_input_10 <- W_xc_x_10
I1214 10:12:20.540911 24007 net.cpp:339] lstm1_gate_input_10 -> gate_input_10
I1214 10:12:20.540918 24007 net.cpp:113] Setting up lstm1_gate_input_10
I1214 10:12:20.540925 24007 net.cpp:120] Top shape: 1 24 1024 (24576)
I1214 10:12:20.540930 24007 layer_factory.hpp:74] Creating layer lstm1_unit_10
I1214 10:12:20.540936 24007 net.cpp:84] Creating Layer lstm1_unit_10
I1214 10:12:20.540941 24007 net.cpp:381] lstm1_unit_10 <- c_9
I1214 10:12:20.540948 24007 net.cpp:381] lstm1_unit_10 <- gate_input_10
I1214 10:12:20.540954 24007 net.cpp:381] lstm1_unit_10 <- cont_10_lstm1_cont_slice_9_split_1
I1214 10:12:20.540961 24007 net.cpp:339] lstm1_unit_10 -> c_10
I1214 10:12:20.540968 24007 net.cpp:339] lstm1_unit_10 -> h_10
I1214 10:12:20.540977 24007 net.cpp:113] Setting up lstm1_unit_10
I1214 10:12:20.540983 24007 net.cpp:120] Top shape: 1 24 256 (6144)
I1214 10:12:20.540988 24007 net.cpp:120] Top shape: 1 24 256 (6144)
I1214 10:12:20.540993 24007 layer_factory.hpp:74] Creating layer h_10_lstm1_unit_10_1_split
I1214 10:12:20.541004 24007 net.cpp:84] Creating Layer h_10_lstm1_unit_10_1_split
I1214 10:12:20.541009 24007 net.cpp:381] h_10_lstm1_unit_10_1_split <- h_10
I1214 10:12:20.541016 24007 net.cpp:339] h_10_lstm1_unit_10_1_split -> h_10_lstm1_unit_10_1_split_0
I1214 10:12:20.541023 24007 net.cpp:339] h_10_lstm1_unit_10_1_split -> h_10_lstm1_unit_10_1_split_1
I1214 10:12:20.541029 24007 net.cpp:113] Setting up h_10_lstm1_unit_10_1_split
I1214 10:12:20.541038 24007 net.cpp:120] Top shape: 1 24 256 (6144)
I1214 10:12:20.541043 24007 net.cpp:120] Top shape: 1 24 256 (6144)
I1214 10:12:20.541048 24007 layer_factory.hpp:74] Creating layer lstm1_h_conted_10
I1214 10:12:20.541054 24007 net.cpp:84] Creating Layer lstm1_h_conted_10
I1214 10:12:20.541059 24007 net.cpp:381] lstm1_h_conted_10 <- h_10_lstm1_unit_10_1_split_0
I1214 10:12:20.541064 24007 net.cpp:381] lstm1_h_conted_10 <- cont_11_lstm1_cont_slice_10_split_0
I1214 10:12:20.541072 24007 net.cpp:339] lstm1_h_conted_10 -> h_conted_10
I1214 10:12:20.541079 24007 net.cpp:113] Setting up lstm1_h_conted_10
I1214 10:12:20.541086 24007 net.cpp:120] Top shape: 1 24 256 (6144)
I1214 10:12:20.541091 24007 layer_factory.hpp:74] Creating layer lstm1_transform_11
I1214 10:12:20.541098 24007 net.cpp:84] Creating Layer lstm1_transform_11
I1214 10:12:20.541103 24007 net.cpp:381] lstm1_transform_11 <- h_conted_10
I1214 10:12:20.541111 24007 net.cpp:339] lstm1_transform_11 -> W_hc_h_10
I1214 10:12:20.541118 24007 net.cpp:113] Setting up lstm1_transform_11
I1214 10:12:20.542618 24007 net.cpp:120] Top shape: 1 24 1024 (24576)
I1214 10:12:20.542628 24007 net.cpp:425] Sharing parameters 'W_hc' owned by layer 'lstm1_transform_1', param index 0
I1214 10:12:20.542632 24007 layer_factory.hpp:74] Creating layer lstm1_gate_input_11
I1214 10:12:20.542639 24007 net.cpp:84] Creating Layer lstm1_gate_input_11
I1214 10:12:20.542644 24007 net.cpp:381] lstm1_gate_input_11 <- W_hc_h_10
I1214 10:12:20.542649 24007 net.cpp:381] lstm1_gate_input_11 <- W_xc_x_11
I1214 10:12:20.542657 24007 net.cpp:339] lstm1_gate_input_11 -> gate_input_11
I1214 10:12:20.542665 24007 net.cpp:113] Setting up lstm1_gate_input_11
I1214 10:12:20.542672 24007 net.cpp:120] Top shape: 1 24 1024 (24576)
I1214 10:12:20.542677 24007 layer_factory.hpp:74] Creating layer lstm1_unit_11
I1214 10:12:20.542683 24007 net.cpp:84] Creating Layer lstm1_unit_11
I1214 10:12:20.542690 24007 net.cpp:381] lstm1_unit_11 <- c_10
I1214 10:12:20.542695 24007 net.cpp:381] lstm1_unit_11 <- gate_input_11
I1214 10:12:20.542701 24007 net.cpp:381] lstm1_unit_11 <- cont_11_lstm1_cont_slice_10_split_1
I1214 10:12:20.542706 24007 net.cpp:339] lstm1_unit_11 -> c_11
I1214 10:12:20.542716 24007 net.cpp:339] lstm1_unit_11 -> h_11
I1214 10:12:20.542723 24007 net.cpp:113] Setting up lstm1_unit_11
I1214 10:12:20.542731 24007 net.cpp:120] Top shape: 1 24 256 (6144)
I1214 10:12:20.542737 24007 net.cpp:120] Top shape: 1 24 256 (6144)
I1214 10:12:20.542742 24007 layer_factory.hpp:74] Creating layer h_11_lstm1_unit_11_1_split
I1214 10:12:20.542747 24007 net.cpp:84] Creating Layer h_11_lstm1_unit_11_1_split
I1214 10:12:20.542752 24007 net.cpp:381] h_11_lstm1_unit_11_1_split <- h_11
I1214 10:12:20.542757 24007 net.cpp:339] h_11_lstm1_unit_11_1_split -> h_11_lstm1_unit_11_1_split_0
I1214 10:12:20.542764 24007 net.cpp:339] h_11_lstm1_unit_11_1_split -> h_11_lstm1_unit_11_1_split_1
I1214 10:12:20.542771 24007 net.cpp:113] Setting up h_11_lstm1_unit_11_1_split
I1214 10:12:20.542778 24007 net.cpp:120] Top shape: 1 24 256 (6144)
I1214 10:12:20.542783 24007 net.cpp:120] Top shape: 1 24 256 (6144)
I1214 10:12:20.542788 24007 layer_factory.hpp:74] Creating layer lstm1_h_conted_11
I1214 10:12:20.542796 24007 net.cpp:84] Creating Layer lstm1_h_conted_11
I1214 10:12:20.542801 24007 net.cpp:381] lstm1_h_conted_11 <- h_11_lstm1_unit_11_1_split_0
I1214 10:12:20.542807 24007 net.cpp:381] lstm1_h_conted_11 <- cont_12_lstm1_cont_slice_11_split_0
I1214 10:12:20.542814 24007 net.cpp:339] lstm1_h_conted_11 -> h_conted_11
I1214 10:12:20.542824 24007 net.cpp:113] Setting up lstm1_h_conted_11
I1214 10:12:20.542835 24007 net.cpp:120] Top shape: 1 24 256 (6144)
I1214 10:12:20.542841 24007 layer_factory.hpp:74] Creating layer lstm1_transform_12
I1214 10:12:20.542847 24007 net.cpp:84] Creating Layer lstm1_transform_12
I1214 10:12:20.542852 24007 net.cpp:381] lstm1_transform_12 <- h_conted_11
I1214 10:12:20.542860 24007 net.cpp:339] lstm1_transform_12 -> W_hc_h_11
I1214 10:12:20.542866 24007 net.cpp:113] Setting up lstm1_transform_12
I1214 10:12:20.544368 24007 net.cpp:120] Top shape: 1 24 1024 (24576)
I1214 10:12:20.544378 24007 net.cpp:425] Sharing parameters 'W_hc' owned by layer 'lstm1_transform_1', param index 0
I1214 10:12:20.544383 24007 layer_factory.hpp:74] Creating layer lstm1_gate_input_12
I1214 10:12:20.544390 24007 net.cpp:84] Creating Layer lstm1_gate_input_12
I1214 10:12:20.544396 24007 net.cpp:381] lstm1_gate_input_12 <- W_hc_h_11
I1214 10:12:20.544402 24007 net.cpp:381] lstm1_gate_input_12 <- W_xc_x_12
I1214 10:12:20.544409 24007 net.cpp:339] lstm1_gate_input_12 -> gate_input_12
I1214 10:12:20.544415 24007 net.cpp:113] Setting up lstm1_gate_input_12
I1214 10:12:20.544422 24007 net.cpp:120] Top shape: 1 24 1024 (24576)
I1214 10:12:20.544427 24007 layer_factory.hpp:74] Creating layer lstm1_unit_12
I1214 10:12:20.544435 24007 net.cpp:84] Creating Layer lstm1_unit_12
I1214 10:12:20.544440 24007 net.cpp:381] lstm1_unit_12 <- c_11
I1214 10:12:20.544445 24007 net.cpp:381] lstm1_unit_12 <- gate_input_12
I1214 10:12:20.544451 24007 net.cpp:381] lstm1_unit_12 <- cont_12_lstm1_cont_slice_11_split_1
I1214 10:12:20.544457 24007 net.cpp:339] lstm1_unit_12 -> c_12
I1214 10:12:20.544464 24007 net.cpp:339] lstm1_unit_12 -> h_12
I1214 10:12:20.544471 24007 net.cpp:113] Setting up lstm1_unit_12
I1214 10:12:20.544478 24007 net.cpp:120] Top shape: 1 24 256 (6144)
I1214 10:12:20.544484 24007 net.cpp:120] Top shape: 1 24 256 (6144)
I1214 10:12:20.544488 24007 layer_factory.hpp:74] Creating layer h_12_lstm1_unit_12_1_split
I1214 10:12:20.544494 24007 net.cpp:84] Creating Layer h_12_lstm1_unit_12_1_split
I1214 10:12:20.544499 24007 net.cpp:381] h_12_lstm1_unit_12_1_split <- h_12
I1214 10:12:20.544507 24007 net.cpp:339] h_12_lstm1_unit_12_1_split -> h_12_lstm1_unit_12_1_split_0
I1214 10:12:20.544514 24007 net.cpp:339] h_12_lstm1_unit_12_1_split -> h_12_lstm1_unit_12_1_split_1
I1214 10:12:20.544522 24007 net.cpp:113] Setting up h_12_lstm1_unit_12_1_split
I1214 10:12:20.544528 24007 net.cpp:120] Top shape: 1 24 256 (6144)
I1214 10:12:20.544533 24007 net.cpp:120] Top shape: 1 24 256 (6144)
I1214 10:12:20.544538 24007 layer_factory.hpp:74] Creating layer lstm1_h_conted_12
I1214 10:12:20.544545 24007 net.cpp:84] Creating Layer lstm1_h_conted_12
I1214 10:12:20.544551 24007 net.cpp:381] lstm1_h_conted_12 <- h_12_lstm1_unit_12_1_split_0
I1214 10:12:20.544556 24007 net.cpp:381] lstm1_h_conted_12 <- cont_13_lstm1_cont_slice_12_split_0
I1214 10:12:20.544564 24007 net.cpp:339] lstm1_h_conted_12 -> h_conted_12
I1214 10:12:20.544569 24007 net.cpp:113] Setting up lstm1_h_conted_12
I1214 10:12:20.544577 24007 net.cpp:120] Top shape: 1 24 256 (6144)
I1214 10:12:20.544582 24007 layer_factory.hpp:74] Creating layer lstm1_transform_13
I1214 10:12:20.544589 24007 net.cpp:84] Creating Layer lstm1_transform_13
I1214 10:12:20.544594 24007 net.cpp:381] lstm1_transform_13 <- h_conted_12
I1214 10:12:20.544600 24007 net.cpp:339] lstm1_transform_13 -> W_hc_h_12
I1214 10:12:20.544608 24007 net.cpp:113] Setting up lstm1_transform_13
I1214 10:12:20.546111 24007 net.cpp:120] Top shape: 1 24 1024 (24576)
I1214 10:12:20.546120 24007 net.cpp:425] Sharing parameters 'W_hc' owned by layer 'lstm1_transform_1', param index 0
I1214 10:12:20.546124 24007 layer_factory.hpp:74] Creating layer lstm1_gate_input_13
I1214 10:12:20.546131 24007 net.cpp:84] Creating Layer lstm1_gate_input_13
I1214 10:12:20.546136 24007 net.cpp:381] lstm1_gate_input_13 <- W_hc_h_12
I1214 10:12:20.546141 24007 net.cpp:381] lstm1_gate_input_13 <- W_xc_x_13
I1214 10:12:20.546149 24007 net.cpp:339] lstm1_gate_input_13 -> gate_input_13
I1214 10:12:20.546157 24007 net.cpp:113] Setting up lstm1_gate_input_13
I1214 10:12:20.546169 24007 net.cpp:120] Top shape: 1 24 1024 (24576)
I1214 10:12:20.546174 24007 layer_factory.hpp:74] Creating layer lstm1_unit_13
I1214 10:12:20.546180 24007 net.cpp:84] Creating Layer lstm1_unit_13
I1214 10:12:20.546185 24007 net.cpp:381] lstm1_unit_13 <- c_12
I1214 10:12:20.546190 24007 net.cpp:381] lstm1_unit_13 <- gate_input_13
I1214 10:12:20.546195 24007 net.cpp:381] lstm1_unit_13 <- cont_13_lstm1_cont_slice_12_split_1
I1214 10:12:20.546201 24007 net.cpp:339] lstm1_unit_13 -> c_13
I1214 10:12:20.546210 24007 net.cpp:339] lstm1_unit_13 -> h_13
I1214 10:12:20.546216 24007 net.cpp:113] Setting up lstm1_unit_13
I1214 10:12:20.546223 24007 net.cpp:120] Top shape: 1 24 256 (6144)
I1214 10:12:20.546228 24007 net.cpp:120] Top shape: 1 24 256 (6144)
I1214 10:12:20.546233 24007 layer_factory.hpp:74] Creating layer h_13_lstm1_unit_13_1_split
I1214 10:12:20.546241 24007 net.cpp:84] Creating Layer h_13_lstm1_unit_13_1_split
I1214 10:12:20.546246 24007 net.cpp:381] h_13_lstm1_unit_13_1_split <- h_13
I1214 10:12:20.546252 24007 net.cpp:339] h_13_lstm1_unit_13_1_split -> h_13_lstm1_unit_13_1_split_0
I1214 10:12:20.546259 24007 net.cpp:339] h_13_lstm1_unit_13_1_split -> h_13_lstm1_unit_13_1_split_1
I1214 10:12:20.546267 24007 net.cpp:113] Setting up h_13_lstm1_unit_13_1_split
I1214 10:12:20.546273 24007 net.cpp:120] Top shape: 1 24 256 (6144)
I1214 10:12:20.546279 24007 net.cpp:120] Top shape: 1 24 256 (6144)
I1214 10:12:20.546284 24007 layer_factory.hpp:74] Creating layer lstm1_h_conted_13
I1214 10:12:20.546289 24007 net.cpp:84] Creating Layer lstm1_h_conted_13
I1214 10:12:20.546294 24007 net.cpp:381] lstm1_h_conted_13 <- h_13_lstm1_unit_13_1_split_0
I1214 10:12:20.546300 24007 net.cpp:381] lstm1_h_conted_13 <- cont_14_lstm1_cont_slice_13_split_0
I1214 10:12:20.546306 24007 net.cpp:339] lstm1_h_conted_13 -> h_conted_13
I1214 10:12:20.546313 24007 net.cpp:113] Setting up lstm1_h_conted_13
I1214 10:12:20.546321 24007 net.cpp:120] Top shape: 1 24 256 (6144)
I1214 10:12:20.546327 24007 layer_factory.hpp:74] Creating layer lstm1_transform_14
I1214 10:12:20.546334 24007 net.cpp:84] Creating Layer lstm1_transform_14
I1214 10:12:20.546339 24007 net.cpp:381] lstm1_transform_14 <- h_conted_13
I1214 10:12:20.546347 24007 net.cpp:339] lstm1_transform_14 -> W_hc_h_13
I1214 10:12:20.546355 24007 net.cpp:113] Setting up lstm1_transform_14
I1214 10:12:20.547866 24007 net.cpp:120] Top shape: 1 24 1024 (24576)
I1214 10:12:20.547876 24007 net.cpp:425] Sharing parameters 'W_hc' owned by layer 'lstm1_transform_1', param index 0
I1214 10:12:20.547881 24007 layer_factory.hpp:74] Creating layer lstm1_gate_input_14
I1214 10:12:20.547888 24007 net.cpp:84] Creating Layer lstm1_gate_input_14
I1214 10:12:20.547893 24007 net.cpp:381] lstm1_gate_input_14 <- W_hc_h_13
I1214 10:12:20.547899 24007 net.cpp:381] lstm1_gate_input_14 <- W_xc_x_14
I1214 10:12:20.547904 24007 net.cpp:339] lstm1_gate_input_14 -> gate_input_14
I1214 10:12:20.547911 24007 net.cpp:113] Setting up lstm1_gate_input_14
I1214 10:12:20.547919 24007 net.cpp:120] Top shape: 1 24 1024 (24576)
I1214 10:12:20.547922 24007 layer_factory.hpp:74] Creating layer lstm1_unit_14
I1214 10:12:20.547930 24007 net.cpp:84] Creating Layer lstm1_unit_14
I1214 10:12:20.547936 24007 net.cpp:381] lstm1_unit_14 <- c_13
I1214 10:12:20.547942 24007 net.cpp:381] lstm1_unit_14 <- gate_input_14
I1214 10:12:20.547948 24007 net.cpp:381] lstm1_unit_14 <- cont_14_lstm1_cont_slice_13_split_1
I1214 10:12:20.547955 24007 net.cpp:339] lstm1_unit_14 -> c_14
I1214 10:12:20.547961 24007 net.cpp:339] lstm1_unit_14 -> h_14
I1214 10:12:20.547968 24007 net.cpp:113] Setting up lstm1_unit_14
I1214 10:12:20.547977 24007 net.cpp:120] Top shape: 1 24 256 (6144)
I1214 10:12:20.547983 24007 net.cpp:120] Top shape: 1 24 256 (6144)
I1214 10:12:20.547988 24007 layer_factory.hpp:74] Creating layer h_14_lstm1_unit_14_1_split
I1214 10:12:20.547993 24007 net.cpp:84] Creating Layer h_14_lstm1_unit_14_1_split
I1214 10:12:20.547998 24007 net.cpp:381] h_14_lstm1_unit_14_1_split <- h_14
I1214 10:12:20.548004 24007 net.cpp:339] h_14_lstm1_unit_14_1_split -> h_14_lstm1_unit_14_1_split_0
I1214 10:12:20.548017 24007 net.cpp:339] h_14_lstm1_unit_14_1_split -> h_14_lstm1_unit_14_1_split_1
I1214 10:12:20.548023 24007 net.cpp:113] Setting up h_14_lstm1_unit_14_1_split
I1214 10:12:20.548032 24007 net.cpp:120] Top shape: 1 24 256 (6144)
I1214 10:12:20.548038 24007 net.cpp:120] Top shape: 1 24 256 (6144)
I1214 10:12:20.548041 24007 layer_factory.hpp:74] Creating layer lstm1_h_conted_14
I1214 10:12:20.548049 24007 net.cpp:84] Creating Layer lstm1_h_conted_14
I1214 10:12:20.548054 24007 net.cpp:381] lstm1_h_conted_14 <- h_14_lstm1_unit_14_1_split_0
I1214 10:12:20.548060 24007 net.cpp:381] lstm1_h_conted_14 <- cont_15_lstm1_cont_slice_14_split_0
I1214 10:12:20.548066 24007 net.cpp:339] lstm1_h_conted_14 -> h_conted_14
I1214 10:12:20.548074 24007 net.cpp:113] Setting up lstm1_h_conted_14
I1214 10:12:20.548080 24007 net.cpp:120] Top shape: 1 24 256 (6144)
I1214 10:12:20.548085 24007 layer_factory.hpp:74] Creating layer lstm1_transform_15
I1214 10:12:20.548094 24007 net.cpp:84] Creating Layer lstm1_transform_15
I1214 10:12:20.548100 24007 net.cpp:381] lstm1_transform_15 <- h_conted_14
I1214 10:12:20.548106 24007 net.cpp:339] lstm1_transform_15 -> W_hc_h_14
I1214 10:12:20.548113 24007 net.cpp:113] Setting up lstm1_transform_15
I1214 10:12:20.549614 24007 net.cpp:120] Top shape: 1 24 1024 (24576)
I1214 10:12:20.549626 24007 net.cpp:425] Sharing parameters 'W_hc' owned by layer 'lstm1_transform_1', param index 0
I1214 10:12:20.549633 24007 layer_factory.hpp:74] Creating layer lstm1_gate_input_15
I1214 10:12:20.549639 24007 net.cpp:84] Creating Layer lstm1_gate_input_15
I1214 10:12:20.549645 24007 net.cpp:381] lstm1_gate_input_15 <- W_hc_h_14
I1214 10:12:20.549651 24007 net.cpp:381] lstm1_gate_input_15 <- W_xc_x_15
I1214 10:12:20.549657 24007 net.cpp:339] lstm1_gate_input_15 -> gate_input_15
I1214 10:12:20.549664 24007 net.cpp:113] Setting up lstm1_gate_input_15
I1214 10:12:20.549671 24007 net.cpp:120] Top shape: 1 24 1024 (24576)
I1214 10:12:20.549676 24007 layer_factory.hpp:74] Creating layer lstm1_unit_15
I1214 10:12:20.549685 24007 net.cpp:84] Creating Layer lstm1_unit_15
I1214 10:12:20.549690 24007 net.cpp:381] lstm1_unit_15 <- c_14
I1214 10:12:20.549695 24007 net.cpp:381] lstm1_unit_15 <- gate_input_15
I1214 10:12:20.549700 24007 net.cpp:381] lstm1_unit_15 <- cont_15_lstm1_cont_slice_14_split_1
I1214 10:12:20.549706 24007 net.cpp:339] lstm1_unit_15 -> c_15
I1214 10:12:20.549713 24007 net.cpp:339] lstm1_unit_15 -> h_15
I1214 10:12:20.549721 24007 net.cpp:113] Setting up lstm1_unit_15
I1214 10:12:20.549727 24007 net.cpp:120] Top shape: 1 24 256 (6144)
I1214 10:12:20.549733 24007 net.cpp:120] Top shape: 1 24 256 (6144)
I1214 10:12:20.549738 24007 layer_factory.hpp:74] Creating layer h_15_lstm1_unit_15_1_split
I1214 10:12:20.549744 24007 net.cpp:84] Creating Layer h_15_lstm1_unit_15_1_split
I1214 10:12:20.549748 24007 net.cpp:381] h_15_lstm1_unit_15_1_split <- h_15
I1214 10:12:20.549757 24007 net.cpp:339] h_15_lstm1_unit_15_1_split -> h_15_lstm1_unit_15_1_split_0
I1214 10:12:20.549764 24007 net.cpp:339] h_15_lstm1_unit_15_1_split -> h_15_lstm1_unit_15_1_split_1
I1214 10:12:20.549770 24007 net.cpp:113] Setting up h_15_lstm1_unit_15_1_split
I1214 10:12:20.549777 24007 net.cpp:120] Top shape: 1 24 256 (6144)
I1214 10:12:20.549782 24007 net.cpp:120] Top shape: 1 24 256 (6144)
I1214 10:12:20.549787 24007 layer_factory.hpp:74] Creating layer lstm1_h_conted_15
I1214 10:12:20.549794 24007 net.cpp:84] Creating Layer lstm1_h_conted_15
I1214 10:12:20.549800 24007 net.cpp:381] lstm1_h_conted_15 <- h_15_lstm1_unit_15_1_split_0
I1214 10:12:20.549806 24007 net.cpp:381] lstm1_h_conted_15 <- cont_16_lstm1_cont_slice_15_split_0
I1214 10:12:20.549813 24007 net.cpp:339] lstm1_h_conted_15 -> h_conted_15
I1214 10:12:20.549818 24007 net.cpp:113] Setting up lstm1_h_conted_15
I1214 10:12:20.549825 24007 net.cpp:120] Top shape: 1 24 256 (6144)
I1214 10:12:20.549831 24007 layer_factory.hpp:74] Creating layer lstm1_transform_16
I1214 10:12:20.549837 24007 net.cpp:84] Creating Layer lstm1_transform_16
I1214 10:12:20.549846 24007 net.cpp:381] lstm1_transform_16 <- h_conted_15
I1214 10:12:20.549854 24007 net.cpp:339] lstm1_transform_16 -> W_hc_h_15
I1214 10:12:20.549862 24007 net.cpp:113] Setting up lstm1_transform_16
I1214 10:12:20.551367 24007 net.cpp:120] Top shape: 1 24 1024 (24576)
I1214 10:12:20.551376 24007 net.cpp:425] Sharing parameters 'W_hc' owned by layer 'lstm1_transform_1', param index 0
I1214 10:12:20.551381 24007 layer_factory.hpp:74] Creating layer lstm1_gate_input_16
I1214 10:12:20.551388 24007 net.cpp:84] Creating Layer lstm1_gate_input_16
I1214 10:12:20.551395 24007 net.cpp:381] lstm1_gate_input_16 <- W_hc_h_15
I1214 10:12:20.551401 24007 net.cpp:381] lstm1_gate_input_16 <- W_xc_x_16
I1214 10:12:20.551408 24007 net.cpp:339] lstm1_gate_input_16 -> gate_input_16
I1214 10:12:20.551414 24007 net.cpp:113] Setting up lstm1_gate_input_16
I1214 10:12:20.551422 24007 net.cpp:120] Top shape: 1 24 1024 (24576)
I1214 10:12:20.551427 24007 layer_factory.hpp:74] Creating layer lstm1_unit_16
I1214 10:12:20.551434 24007 net.cpp:84] Creating Layer lstm1_unit_16
I1214 10:12:20.551439 24007 net.cpp:381] lstm1_unit_16 <- c_15
I1214 10:12:20.551445 24007 net.cpp:381] lstm1_unit_16 <- gate_input_16
I1214 10:12:20.551450 24007 net.cpp:381] lstm1_unit_16 <- cont_16_lstm1_cont_slice_15_split_1
I1214 10:12:20.551455 24007 net.cpp:339] lstm1_unit_16 -> c_16
I1214 10:12:20.551465 24007 net.cpp:339] lstm1_unit_16 -> h_16
I1214 10:12:20.551471 24007 net.cpp:113] Setting up lstm1_unit_16
I1214 10:12:20.551478 24007 net.cpp:120] Top shape: 1 24 256 (6144)
I1214 10:12:20.551484 24007 net.cpp:120] Top shape: 1 24 256 (6144)
I1214 10:12:20.551489 24007 layer_factory.hpp:74] Creating layer lstm1_
I1214 10:12:20.551494 24007 net.cpp:84] Creating Layer lstm1_
I1214 10:12:20.551499 24007 net.cpp:381] lstm1_ <- c_16
I1214 10:12:20.551506 24007 net.cpp:339] lstm1_ -> c_T
I1214 10:12:20.551514 24007 net.cpp:113] Setting up lstm1_
I1214 10:12:20.551520 24007 net.cpp:120] Top shape: 1 24 256 (6144)
I1214 10:12:20.551525 24007 layer_factory.hpp:74] Creating layer lstm1_h_concat
I1214 10:12:20.551533 24007 net.cpp:84] Creating Layer lstm1_h_concat
I1214 10:12:20.551538 24007 net.cpp:381] lstm1_h_concat <- h_1_lstm1_unit_1_1_split_1
I1214 10:12:20.551544 24007 net.cpp:381] lstm1_h_concat <- h_2_lstm1_unit_2_1_split_1
I1214 10:12:20.551549 24007 net.cpp:381] lstm1_h_concat <- h_3_lstm1_unit_3_1_split_1
…
I1214 10:12:20.552094 24007 net.cpp:205] This network produces output c_T
I1214 10:12:20.552100 24007 net.cpp:205] This network produces output h
I1214 10:12:20.552173 24007 net.cpp:446] Collecting Learning Rate and Weight Decay.
I1214 10:12:20.552204 24007 net.cpp:218] Network initialization done.
I1214 10:12:20.552211 24007 net.cpp:219] Memory required for data: 8630784
I1214 10:12:20.552361 24007 recurrent_layer.cpp:135] Adding parameter 0: W_xc
I1214 10:12:20.552369 24007 recurrent_layer.cpp:135] Adding parameter 1: b_c
I1214 10:12:20.552374 24007 recurrent_layer.cpp:135] Adding parameter 2: W_hc
I1214 10:12:20.552433 24007 net.cpp:120] Top shape: 16 24 256 (98304)
I1214 10:12:20.552444 24007 layer_factory.hpp:74] Creating layer lstm1-drop
I1214 10:12:20.552453 24007 net.cpp:84] Creating Layer lstm1-drop
I1214 10:12:20.552459 24007 net.cpp:381] lstm1-drop <- lstm1
I1214 10:12:20.552465 24007 net.cpp:339] lstm1-drop -> lstm1-drop
I1214 10:12:20.552472 24007 net.cpp:113] Setting up lstm1-drop
I1214 10:12:20.552481 24007 net.cpp:120] Top shape: 16 24 256 (98304)
I1214 10:12:20.552486 24007 layer_factory.hpp:74] Creating layer fc8-final
I1214 10:12:20.552494 24007 net.cpp:84] Creating Layer fc8-final
I1214 10:12:20.552500 24007 net.cpp:381] fc8-final <- lstm1-drop
I1214 10:12:20.552506 24007 net.cpp:339] fc8-final -> fc8-final
I1214 10:12:20.552513 24007 net.cpp:113] Setting up fc8-final
I1214 10:12:20.553076 24007 net.cpp:120] Top shape: 16 24 101 (38784)
I1214 10:12:20.553088 24007 layer_factory.hpp:74] Creating layer fc8-final_fc8-final_0_split
I1214 10:12:20.553095 24007 net.cpp:84] Creating Layer fc8-final_fc8-final_0_split
I1214 10:12:20.553100 24007 net.cpp:381] fc8-final_fc8-final_0_split <- fc8-final
I1214 10:12:20.553107 24007 net.cpp:339] fc8-final_fc8-final_0_split -> fc8-final_fc8-final_0_split_0
I1214 10:12:20.553114 24007 net.cpp:339] fc8-final_fc8-final_0_split -> fc8-final_fc8-final_0_split_1
I1214 10:12:20.553122 24007 net.cpp:113] Setting up fc8-final_fc8-final_0_split
I1214 10:12:20.553128 24007 net.cpp:120] Top shape: 16 24 101 (38784)
I1214 10:12:20.553134 24007 net.cpp:120] Top shape: 16 24 101 (38784)
I1214 10:12:20.553138 24007 layer_factory.hpp:74] Creating layer loss
I1214 10:12:20.553148 24007 net.cpp:84] Creating Layer loss
I1214 10:12:20.553153 24007 net.cpp:381] loss <- fc8-final_fc8-final_0_split_0
I1214 10:12:20.553159 24007 net.cpp:381] loss <- reshape-label_reshape-label_0_split_1
I1214 10:12:20.553166 24007 net.cpp:339] loss -> loss
I1214 10:12:20.553175 24007 net.cpp:113] Setting up loss
…
I1214 10:12:20.554270 24007 net.cpp:258] The NetState phase (1) differed from the phase (0) specified by a rule in layer reshape-label-print
I1214 10:12:20.554275 24007 net.cpp:258] The NetState phase (1) differed from the phase (0) specified by a rule in layer reshape-cm
I1214 10:12:20.554433 24007 net.cpp:42] Initializing net from parameters: 
name: "lstm_joints"
state {
  phase: TEST
  stage: "test-on-test"
}
layer {
  name: "data"
  type: "Python"
  top: "data"
  top: "label"
  top: "clip_markers"
  include {
    phase: TEST
    stage: "test-on-test"
  }
  python_param {
    module: "sequence_input_layer"
    layer: "videoReadTest_RGB"
  }
}
layer {
  name: "conv1"
  type: "Convolution"
  bottom: "data"
  top: "conv1"
  param {
    lr_mult: 1
    decay_mult: 1
  }
  param {
    lr_mult: 2
    decay_mult: 0
  }
  convolution_param {
    num_output: 96
    kernel_size: 7
    stride: 2
    weight_filler {
      type: "gaussian"
      std: 0.01
    }
    bias_filler {
      type: "constant"
      value: 0.1
    }
  }
}
layer {
  name: "relu1"
  type: "ReLU"
  bottom: "conv1"
  top: "conv1"
}
layer {
  name: "pool1"
  type: "Pooling"
  bottom: "conv1"
  top: "pool1"
  pooling_param {
    pool: MAX
    kernel_size: 3
    stride: 2
  }
}
layer {
  name: "norm1"
  type: "LRN"
  bottom: "pool1"
  top: "norm1"
  lrn_param {
    local_size: 5
    alpha: 0.0001
    beta: 0.75
  }
}
layer {
  name: "conv2"
  type: "Convolution"
  bottom: "norm1"
  top: "conv2"
  param {
    lr_mult: 1
    decay_mult: 1
  }
  param {
    lr_mult: 2
    decay_mult: 0
  }
  convolution_param {
    num_output: 384
    kernel_size: 5
    group: 2
    stride: 2
    weight_filler {
      type: "gaussian"
      std: 0.01
    }
    bias_filler {
      type: "constant"
      value: 0.1
    }
  }
}
layer {
  name: "relu2"
  type: "ReLU"
  bottom: "conv2"
  top: "conv2"
}
layer {
  name: "pool2"
  type: "Pooling"
  bottom: "conv2"
  top: "pool2"
  pooling_param {
    pool: MAX
    kernel_size: 3
    stride: 2
  }
}
layer {
  name: "norm2"
  type: "LRN"
  bottom: "pool2"
  top: "norm2"
  lrn_param {
    local_size: 5
    alpha: 0.0001
    beta: 0.75
  }
}
layer {
  name: "conv3"
  type: "Convolution"
  bottom: "norm2"
  top: "conv3"
  param {
    lr_mult: 1
    decay_mult: 1
  }
  param {
    lr_mult: 2
    decay_mult: 0
  }
  convolution_param {
    num_output: 512
    pad: 1
    kernel_size: 3
    weight_filler {
      type: "gaussian"
      std: 0.01
    }
    bias_filler {
      type: "constant"
      value: 0.1
    }
  }
}
layer {
  name: "relu3"
  type: "ReLU"
  bottom: "conv3"
  top: "conv3"
}
layer {
  name: "conv4"
  type: "Convolution"
  bottom: "conv3"
  top: "conv4"
  param {
    lr_mult: 1
    decay_mult: 1
  }
  param {
    lr_mult: 2
    decay_mult: 0
  }
  convolution_param {
    num_output: 512
    pad: 1
    kernel_size: 3
    group: 2
    weight_filler {
      type: "gaussian"
      std: 0.01
    }
    bias_filler {
      type: "constant"
      value: 0.1
    }
  }
}
layer {
  name: "relu4"
  type: "ReLU"
  bottom: "conv4"
  top: "conv4"
}
layer {
  name: "conv5"
  type: "Convolution"
  bottom: "conv4"
  top: "conv5"
  param {
    lr_mult: 1
    decay_mult: 1
  }
  param {
    lr_mult: 2
    decay_mult: 0
  }
  convolution_param {
    num_output: 384
    pad: 1
    kernel_size: 3
    group: 2
    weight_filler {
      type: "gaussian"
      std: 0.01
    }
    bias_filler {
      type: "constant"
      value: 0.1
    }
  }
}
layer {
  name: "relu5"
  type: "ReLU"
  bottom: "conv5"
  top: "conv5"
}
layer {
  name: "pool5"
  type: "Pooling"
  bottom: "conv5"
  top: "pool5"
  pooling_param {
    pool: MAX
    kernel_size: 3
    stride: 2
  }
}
layer {
  name: "fc6"
  type: "InnerProduct"
  bottom: "pool5"
  top: "fc6"
  param {
    lr_mult: 1
    decay_mult: 1
  }
  param {
    lr_mult: 2
    decay_mult: 0
  }
  inner_product_param {
    num_output: 4096
    weight_filler {
      type: "gaussian"
      std: 0.01
    }
    bias_filler {
      type: "constant"
      value: 0.1
    }
  }
}
layer {
  name: "relu6"
  type: "ReLU"
  bottom: "fc6"
  top: "fc6"
}
layer {
  name: "drop6"
  type: "Dropout"
  bottom: "fc6"
  top: "fc6"
  dropout_param {
    dropout_ratio: 0.9
  }
}
layer {
  name: "reshape-data"
  type: "Reshape"
  bottom: "fc6"
  top: "fc6-reshape"
  include {
    phase: TEST
    stage: "test-on-test"
  }
  reshape_param {
    shape {
      dim: 16
      dim: 3
      dim: 4096
    }
  }
}
layer {
  name: "reshape-label"
  type: "Reshape"
  bottom: "label"
  top: "reshape-label"
  include {
    phase: TEST
    stage: "test-on-test"
  }
  reshape_param {
    shape {
      dim: 16
      dim: 3
    }
  }
}
layer {
  name: "reshape-label-print"
  type: "Split"
  bottom: "reshape-label"
  top: "reshape-label-print-test"
  include {
    phase: TEST
    stage: "test-on-test"
  }
}
layer {
  name: "reshape-cm"
  type: "Reshape"
  bottom: "clip_markers"
  top: "reshape-cm"
  include {
    phase: TEST
    stage: "test-on-test"
  }
  reshape_param {
    shape {
      dim: 16
      dim: 3
    }
  }
}
layer {
  name: "lstm1"
  type: "LSTM"
  bottom: "fc6-reshape"
  bottom: "reshape-cm"
  top: "lstm1"
  recurrent_param {
    num_output: 256
    weight_filler {
      type: "uniform"
      min: -0.01
      max: 0.01
    }
    bias_filler {
      type: "constant"
      value: 0
    }
  }
}
layer {
  name: "lstm1-drop"
  type: "Dropout"
  bottom: "lstm1"
  top: "lstm1-drop"
  dropout_param {
    dropout_ratio: 0.5
  }
}
layer {
  name: "fc8-final"
  type: "InnerProduct"
  bottom: "lstm1-drop"
  top: "fc8-final"
  param {
    lr_mult: 10
    decay_mult: 1
  }
  param {
    lr_mult: 20
    decay_mult: 0
  }
  inner_product_param {
    num_output: 101
    weight_filler {
      type: "gaussian"
      std: 0.01
    }
    bias_filler {
      type: "constant"
      value: 0
    }
    axis: 2
  }
}
layer {
  name: "loss"
  type: "SoftmaxWithLoss"
  bottom: "fc8-final"
  bottom: "reshape-label"
  top: "loss"
  softmax_param {
    axis: 2
  }
}
layer {
  name: "accuracy"
  type: "Accuracy"
  bottom: "fc8-final"
  bottom: "reshape-label"
  top: "accuracy"
  accuracy_param {
    axis: 2
  }
}
I1214 10:12:20.554530 24007 layer_factory.hpp:74] Creating layer data
I1214 10:12:20.554594 24007 net.cpp:84] Creating Layer data
I1214 10:12:20.554602 24007 net.cpp:339] data -> data
I1214 10:12:20.554611 24007 net.cpp:339] data -> label
I1214 10:12:20.554620 24007 net.cpp:339] data -> clip_markers
I1214 10:12:20.554626 24007 net.cpp:113] Setting up data
Outputs: ['data', 'label', 'clip_markers']
I1214 10:12:22.354483 24007 net.cpp:120] Top shape: 48 3 227 227 (7420176)
I1214 10:12:22.354521 24007 net.cpp:120] Top shape: 48 (48)
I1214 10:12:22.354527 24007 net.cpp:120] Top shape: 48 (48)
I1214 10:12:22.354538 24007 layer_factory.hpp:74] Creating layer conv1
I1214 10:12:22.354557 24007 net.cpp:84] Creating Layer conv1
I1214 10:12:22.354564 24007 net.cpp:381] conv1 <- data
I1214 10:12:22.354576 24007 net.cpp:339] conv1 -> conv1
I1214 10:12:22.354591 24007 net.cpp:113] Setting up conv1
I1214 10:12:22.354957 24007 net.cpp:120] Top shape: 48 96 111 111 (56775168)
I1214 10:12:22.354975 24007 layer_factory.hpp:74] Creating layer relu1
I1214 10:12:22.354987 24007 net.cpp:84] Creating Layer relu1
I1214 10:12:22.354995 24007 net.cpp:381] relu1 <- conv1
I1214 10:12:22.355000 24007 net.cpp:328] relu1 -> conv1 (in-place)
I1214 10:12:22.355007 24007 net.cpp:113] Setting up relu1
I1214 10:12:22.355015 24007 net.cpp:120] Top shape: 48 96 111 111 (56775168)
I1214 10:12:22.355022 24007 layer_factory.hpp:74] Creating layer pool1
I1214 10:12:22.355032 24007 net.cpp:84] Creating Layer pool1
I1214 10:12:22.355037 24007 net.cpp:381] pool1 <- conv1
I1214 10:12:22.355044 24007 net.cpp:339] pool1 -> pool1
I1214 10:12:22.355053 24007 net.cpp:113] Setting up pool1
I1214 10:12:22.355064 24007 net.cpp:120] Top shape: 48 96 55 55 (13939200)
I1214 10:12:22.355072 24007 layer_factory.hpp:74] Creating layer norm1
I1214 10:12:22.355082 24007 net.cpp:84] Creating Layer norm1
I1214 10:12:22.355087 24007 net.cpp:381] norm1 <- pool1
I1214 10:12:22.355094 24007 net.cpp:339] norm1 -> norm1
I1214 10:12:22.355101 24007 net.cpp:113] Setting up norm1
I1214 10:12:22.355109 24007 net.cpp:120] Top shape: 48 96 55 55 (13939200)
I1214 10:12:22.355116 24007 layer_factory.hpp:74] Creating layer conv2
I1214 10:12:22.355124 24007 net.cpp:84] Creating Layer conv2
I1214 10:12:22.355129 24007 net.cpp:381] conv2 <- norm1
I1214 10:12:22.355137 24007 net.cpp:339] conv2 -> conv2
I1214 10:12:22.355154 24007 net.cpp:113] Setting up conv2
I1214 10:12:22.365217 24007 net.cpp:120] Top shape: 48 384 26 26 (12460032)
I1214 10:12:22.365231 24007 layer_factory.hpp:74] Creating layer relu2
I1214 10:12:22.365238 24007 net.cpp:84] Creating Layer relu2
I1214 10:12:22.365244 24007 net.cpp:381] relu2 <- conv2
I1214 10:12:22.365253 24007 net.cpp:328] relu2 -> conv2 (in-place)
I1214 10:12:22.365262 24007 net.cpp:113] Setting up relu2
I1214 10:12:22.365267 24007 net.cpp:120] Top shape: 48 384 26 26 (12460032)
I1214 10:12:22.365274 24007 layer_factory.hpp:74] Creating layer pool2
I1214 10:12:22.365281 24007 net.cpp:84] Creating Layer pool2
I1214 10:12:22.365286 24007 net.cpp:381] pool2 <- conv2
I1214 10:12:22.365293 24007 net.cpp:339] pool2 -> pool2
I1214 10:12:22.365301 24007 net.cpp:113] Setting up pool2
I1214 10:12:22.365309 24007 net.cpp:120] Top shape: 48 384 13 13 (3115008)
I1214 10:12:22.365314 24007 layer_factory.hpp:74] Creating layer norm2
I1214 10:12:22.365324 24007 net.cpp:84] Creating Layer norm2
I1214 10:12:22.365330 24007 net.cpp:381] norm2 <- pool2
I1214 10:12:22.365336 24007 net.cpp:339] norm2 -> norm2
I1214 10:12:22.365345 24007 net.cpp:113] Setting up norm2
I1214 10:12:22.365352 24007 net.cpp:120] Top shape: 48 384 13 13 (3115008)
I1214 10:12:22.365357 24007 layer_factory.hpp:74] Creating layer conv3
I1214 10:12:22.365365 24007 net.cpp:84] Creating Layer conv3
I1214 10:12:22.365371 24007 net.cpp:381] conv3 <- norm2
I1214 10:12:22.365378 24007 net.cpp:339] conv3 -> conv3
I1214 10:12:22.365386 24007 net.cpp:113] Setting up conv3
I1214 10:12:22.403322 24007 net.cpp:120] Top shape: 48 512 13 13 (4153344)
I1214 10:12:22.403357 24007 layer_factory.hpp:74] Creating layer relu3
I1214 10:12:22.403370 24007 net.cpp:84] Creating Layer relu3
I1214 10:12:22.403378 24007 net.cpp:381] relu3 <- conv3
I1214 10:12:22.403384 24007 net.cpp:328] relu3 -> conv3 (in-place)
I1214 10:12:22.403394 24007 net.cpp:113] Setting up relu3
I1214 10:12:22.403401 24007 net.cpp:120] Top shape: 48 512 13 13 (4153344)
I1214 10:12:22.403408 24007 layer_factory.hpp:74] Creating layer conv4
I1214 10:12:22.403415 24007 net.cpp:84] Creating Layer conv4
I1214 10:12:22.403421 24007 net.cpp:381] conv4 <- conv3
I1214 10:12:22.403429 24007 net.cpp:339] conv4 -> conv4
I1214 10:12:22.403436 24007 net.cpp:113] Setting up conv4
I1214 10:12:22.428524 24007 net.cpp:120] Top shape: 48 512 13 13 (4153344)
I1214 10:12:22.428539 24007 layer_factory.hpp:74] Creating layer relu4
I1214 10:12:22.428552 24007 net.cpp:84] Creating Layer relu4
I1214 10:12:22.428558 24007 net.cpp:381] relu4 <- conv4
I1214 10:12:22.428565 24007 net.cpp:328] relu4 -> conv4 (in-place)
I1214 10:12:22.428571 24007 net.cpp:113] Setting up relu4
I1214 10:12:22.428577 24007 net.cpp:120] Top shape: 48 512 13 13 (4153344)
I1214 10:12:22.428585 24007 layer_factory.hpp:74] Creating layer conv5
I1214 10:12:22.428596 24007 net.cpp:84] Creating Layer conv5
I1214 10:12:22.428601 24007 net.cpp:381] conv5 <- conv4
I1214 10:12:22.428607 24007 net.cpp:339] conv5 -> conv5
I1214 10:12:22.428616 24007 net.cpp:113] Setting up conv5
I1214 10:12:22.447881 24007 net.cpp:120] Top shape: 48 384 13 13 (3115008)
I1214 10:12:22.447901 24007 layer_factory.hpp:74] Creating layer relu5
I1214 10:12:22.447908 24007 net.cpp:84] Creating Layer relu5
I1214 10:12:22.447914 24007 net.cpp:381] relu5 <- conv5
I1214 10:12:22.447921 24007 net.cpp:328] relu5 -> conv5 (in-place)
I1214 10:12:22.447932 24007 net.cpp:113] Setting up relu5
I1214 10:12:22.447938 24007 net.cpp:120] Top shape: 48 384 13 13 (3115008)
I1214 10:12:22.447944 24007 layer_factory.hpp:74] Creating layer pool5
I1214 10:12:22.447952 24007 net.cpp:84] Creating Layer pool5
I1214 10:12:22.447955 24007 net.cpp:381] pool5 <- conv5
I1214 10:12:22.447962 24007 net.cpp:339] pool5 -> pool5
I1214 10:12:22.447970 24007 net.cpp:113] Setting up pool5
I1214 10:12:22.447980 24007 net.cpp:120] Top shape: 48 384 6 6 (663552)
I1214 10:12:22.447986 24007 layer_factory.hpp:74] Creating layer fc6
I1214 10:12:22.447998 24007 net.cpp:84] Creating Layer fc6
I1214 10:12:22.448012 24007 net.cpp:381] fc6 <- pool5
I1214 10:12:22.448019 24007 net.cpp:339] fc6 -> fc6
I1214 10:12:22.448027 24007 net.cpp:113] Setting up fc6
I1214 10:12:23.650775 24007 net.cpp:120] Top shape: 48 4096 (196608)
I1214 10:12:23.650816 24007 layer_factory.hpp:74] Creating layer relu6
I1214 10:12:23.650837 24007 net.cpp:84] Creating Layer relu6
I1214 10:12:23.650845 24007 net.cpp:381] relu6 <- fc6
I1214 10:12:23.650854 24007 net.cpp:328] relu6 -> fc6 (in-place)
I1214 10:12:23.650864 24007 net.cpp:113] Setting up relu6
I1214 10:12:23.650871 24007 net.cpp:120] Top shape: 48 4096 (196608)
I1214 10:12:23.650876 24007 layer_factory.hpp:74] Creating layer drop6
I1214 10:12:23.650887 24007 net.cpp:84] Creating Layer drop6
I1214 10:12:23.650892 24007 net.cpp:381] drop6 <- fc6
I1214 10:12:23.650897 24007 net.cpp:328] drop6 -> fc6 (in-place)
I1214 10:12:23.650904 24007 net.cpp:113] Setting up drop6
I1214 10:12:23.650918 24007 net.cpp:120] Top shape: 48 4096 (196608)
I1214 10:12:23.650923 24007 layer_factory.hpp:74] Creating layer reshape-data
I1214 10:12:23.650931 24007 net.cpp:84] Creating Layer reshape-data
I1214 10:12:23.650938 24007 net.cpp:381] reshape-data <- fc6
I1214 10:12:23.650944 24007 net.cpp:339] reshape-data -> fc6-reshape
I1214 10:12:23.650954 24007 net.cpp:113] Setting up reshape-data
I1214 10:12:23.650962 24007 net.cpp:120] Top shape: 16 3 4096 (196608)
I1214 10:12:23.650967 24007 layer_factory.hpp:74] Creating layer reshape-label
I1214 10:12:23.650974 24007 net.cpp:84] Creating Layer reshape-label
I1214 10:12:23.650979 24007 net.cpp:381] reshape-label <- label
I1214 10:12:23.650986 24007 net.cpp:339] reshape-label -> reshape-label
I1214 10:12:23.650995 24007 net.cpp:113] Setting up reshape-label
I1214 10:12:23.651002 24007 net.cpp:120] Top shape: 16 3 (48)
I1214 10:12:23.651007 24007 layer_factory.hpp:74] Creating layer reshape-label_reshape-label_0_split
I1214 10:12:23.651015 24007 net.cpp:84] Creating Layer reshape-label_reshape-label_0_split
I1214 10:12:23.651021 24007 net.cpp:381] reshape-label_reshape-label_0_split <- reshape-label
I1214 10:12:23.651027 24007 net.cpp:339] reshape-label_reshape-label_0_split -> reshape-label_reshape-label_0_split_0
I1214 10:12:23.651036 24007 net.cpp:339] reshape-label_reshape-label_0_split -> reshape-label_reshape-label_0_split_1
I1214 10:12:23.651044 24007 net.cpp:339] reshape-label_reshape-label_0_split -> reshape-label_reshape-label_0_split_2
I1214 10:12:23.651051 24007 net.cpp:113] Setting up reshape-label_reshape-label_0_split
I1214 10:12:23.651059 24007 net.cpp:120] Top shape: 16 3 (48)
I1214 10:12:23.651065 24007 net.cpp:120] Top shape: 16 3 (48)
I1214 10:12:23.651072 24007 net.cpp:120] Top shape: 16 3 (48)
I1214 10:12:23.651077 24007 layer_factory.hpp:74] Creating layer reshape-label-print
I1214 10:12:23.651082 24007 net.cpp:84] Creating Layer reshape-label-print
I1214 10:12:23.651087 24007 net.cpp:381] reshape-label-print <- reshape-label_reshape-label_0_split_0
I1214 10:12:23.651094 24007 net.cpp:339] reshape-label-print -> reshape-label-print-test
I1214 10:12:23.651100 24007 net.cpp:113] Setting up reshape-label-print
I1214 10:12:23.651108 24007 net.cpp:120] Top shape: 16 3 (48)
I1214 10:12:23.651113 24007 layer_factory.hpp:74] Creating layer reshape-cm
I1214 10:12:23.651120 24007 net.cpp:84] Creating Layer reshape-cm
I1214 10:12:23.651126 24007 net.cpp:381] reshape-cm <- clip_markers
I1214 10:12:23.651134 24007 net.cpp:339] reshape-cm -> reshape-cm
I1214 10:12:23.651140 24007 net.cpp:113] Setting up reshape-cm
I1214 10:12:23.651147 24007 net.cpp:120] Top shape: 16 3 (48)
I1214 10:12:23.651154 24007 layer_factory.hpp:74] Creating layer lstm1
I1214 10:12:23.651170 24007 net.cpp:84] Creating Layer lstm1
I1214 10:12:23.651175 24007 net.cpp:381] lstm1 <- fc6-reshape
I1214 10:12:23.651180 24007 net.cpp:381] lstm1 <- reshape-cm
I1214 10:12:23.651187 24007 net.cpp:339] lstm1 -> lstm1
I1214 10:12:23.651196 24007 net.cpp:113] Setting up lstm1
I1214 10:12:23.651202 24007 recurrent_layer.cpp:27] Initializing recurrent layer: assuming input batch contains 16 timesteps of 3 independent streams.
I1214 10:12:23.651710 24007 net.cpp:42] Initializing net from parameters: 
input: "x"
input: "cont"
input: "c_0"
input: "h_0"
force_backward: true
input_shape {
  dim: 16
  dim: 3
  dim: 4096
}
input_shape {
  dim: 1
  dim: 16
  dim: 3
}
input_shape {
  dim: 1
  dim: 3
  dim: 256
}
input_shape {
  dim: 1
  dim: 3
  dim: 256
}
layer {
  name: "lstm1_cont_slice"
  type: "Slice"
  bottom: "cont"
  top: "cont_1"
  top: "cont_2"
  top: "cont_3"
  top: "cont_4"
  top: "cont_5"
  top: "cont_6"
  top: "cont_7"
  top: "cont_8"
  top: "cont_9"
  top: "cont_10"
  top: "cont_11"
  top: "cont_12"
  top: "cont_13"
  top: "cont_14"
  top: "cont_15"
  top: "cont_16"
  slice_param {
    axis: 1
  }
}
layer {
  name: "lstm1_x_transform"
  type: "InnerProduct"
  bottom: "x"
  top: "W_xc_x"
  param {
    name: "W_xc"
  }
  param {
    name: "b_c"
  }
  inner_product_param {
    num_output: 1024
    bias_term: true
    weight_filler {
      type: "uniform"
      min: -0.01
      max: 0.01
    }
    bias_filler {
      type: "constant"
      value: 0
    }
    axis: 2
  }
}
layer {
  name: "lstm1_W_xc_x_slice"
  type: "Slice"
  bottom: "W_xc_x"
  top: "W_xc_x_1"
  top: "W_xc_x_2"
  top: "W_xc_x_3"
  top: "W_xc_x_4"
  top: "W_xc_x_5"
  top: "W_xc_x_6"
  top: "W_xc_x_7"
  top: "W_xc_x_8"
  top: "W_xc_x_9"
  top: "W_xc_x_10"
  top: "W_xc_x_11"
  top: "W_xc_x_12"
  top: "W_xc_x_13"
  top: "W_xc_x_14"
  top: "W_xc_x_15"
  top: "W_xc_x_16"
  slice_param {
    axis: 0
  }
}
layer {
  name: "lstm1_h_conted_0"
  type: "Eltwise"
  bottom: "h_0"
  bottom: "cont_1"
  top: "h_conted_0"
  eltwise_param {
    operation: SUM
    coeff_blob: true
  }
}
layer {
  name: "lstm1_transform_1"
  type: "InnerProduct"
  bottom: "h_conted_0"
  top: "W_hc_h_0"
  param {
    name: "W_hc"
  }
  inner_product_param {
    num_output: 1024
    bias_term: false
    weight_filler {
      type: "uniform"
      min: -0.01
      max: 0.01
    }
    axis: 2
  }
}
layer {
  name: "lstm1_gate_input_1"
  type: "Eltwise"
  bottom: "W_hc_h_0"
  bottom: "W_xc_x_1"
  top: "gate_input_1"
  eltwise_param {
    operation: SUM
  }
}
layer {
  name: "lstm1_unit_1"
  type: "LSTMUnit"
  bottom: "c_0"
  bottom: "gate_input_1"
  bottom: "cont_1"
  top: "c_1"
  top: "h_1"
}
layer {
  name: "lstm1_h_conted_1"
  type: "Eltwise"
  bottom: "h_1"
  bottom: "cont_2"
  top: "h_conted_1"
  eltwise_param {
    operation: SUM
    coeff_blob: true
  }
}
layer {
  name: "lstm1_transform_2"
  type: "InnerProduct"
  bottom: "h_conted_1"
  top: "W_hc_h_1"
  param {
    name: "W_hc"
  }
  inner_product_param {
    num_output: 1024
    bias_term: false
    weight_filler {
      type: "uniform"
      min: -0.01
      max: 0.01
    }
    axis: 2
  }
}
layer {
  name: "lstm1_gate_input_2"
  type: "Eltwise"
  bottom: "W_hc_h_1"
  bottom: "W_xc_x_2"
  top: "gate_input_2"
  eltwise_param {
    operation: SUM
  }
}
layer {
  name: "lstm1_unit_2"
  type: "LSTMUnit"
  bottom: "c_1"
  bottom: "gate_input_2"
  bottom: "cont_2"
  top: "c_2"
  top: "h_2"
}
layer {
  name: "lstm1_h_conted_2"
  type: "Eltwise"
  bottom: "h_2"
  bottom: "cont_3"
  top: "h_conted_2"
  eltwise_param {
    operation: SUM
    coeff_blob: true
  }
}
layer {
  name: "lstm1_transform_3"
  type: "InnerProduct"
  bottom: "h_conted_2"
  top: "W_hc_h_2"
  param {
    name: "W_hc"
  }
  inner_product_param {
    num_output: 1024
    bias_term: false
    weight_filler {
      type: "uniform"
      min: -0.01
      max: 0.01
    }
    axis: 2
  }
}
layer {
  name: "lstm1_gate_input_3"
  type: "Eltwise"
  bottom: "W_hc_h_2"
  bottom: "W_xc_x_3"
  top: "gate_input_3"
  eltwise_param {
    operation: SUM
  }
}
layer {
  name: "lstm1_unit_3"
  type: "LSTMUnit"
  bottom: "c_2"
  bottom: "gate_input_3"
  bottom: "cont_3"
  top: "c_3"
  top: "h_3"
}
layer {
  name: "lstm1_h_conted_3"
  type: "Eltwise"
  bottom: "h_3"
  bottom: "cont_4"
  top: "h_conted_3"
  eltwise_param {
    operation: SUM
    coeff_blob: true
  }
}
layer {
  name: "lstm1_transform_4"
  type: "InnerProduct"
  bottom: "h_conted_3"
  top: "W_hc_h_3"
  param {
    name: "W_hc"
  }
  inner_product_param {
    num_output: 1024
    bias_term: false
    weight_filler {
      type: "uniform"
      min: -0.01
      max: 0.01
    }
    axis: 2
  }
}
layer {
  name: "lstm1_gate_input_4"
  type: "Eltwise"
  bottom: "W_hc_h_3"
  bottom: "W_xc_x_4"
  top: "gate_input_4"
  eltwise_param {
    operation: SUM
  }
}
layer {
  name: "lstm1_unit_4"
  type: "LSTMUnit"
  bottom: "c_3"
  bottom: "gate_input_4"
  bottom: "cont_4"
  top: "c_4"
  top: "h_4"
}
layer {
  name: "lstm1_h_conted_4"
  type: "Eltwise"
  bottom: "h_4"
  bottom: "cont_5"
  top: "h_conted_4"
  eltwise_param {
    operation: SUM
    coeff_blob: true
  }
}
layer {
  name: "lstm1_transform_5"
  type: "InnerProduct"
  bottom: "h_conted_4"
  top: "W_hc_h_4"
  param {
    name: "W_hc"
  }
  inner_product_param {
    num_output: 1024
    bias_term: false
    weight_filler {
      type: "uniform"
      min: -0.01
      max: 0.01
    }
    axis: 2
  }
}
layer {
  name: "lstm1_gate_input_5"
  type: "Eltwise"
  bottom: "W_hc_h_4"
  bottom: "W_xc_x_5"
  top: "gate_input_5"
  eltwise_param {
    operation: SUM
  }
}
layer {
  name: "lstm1_unit_5"
  type: "LSTMUnit"
  bottom: "c_4"
  bottom: "gate_input_5"
  bottom: "cont_5"
  top: "c_5"
  top: "h_5"
}
layer {
  name: "lstm1_h_conted_5"
  type: "Eltwise"
  bottom: "h_5"
  bottom: "cont_6"
  top: "h_conted_5"
  eltwise_param {
    operation: SUM
    coeff_blob: true
  }
}
layer {
  name: "lstm1_transform_6"
  type: "InnerProduct"
  bottom: "h_conted_5"
  top: "W_hc_h_5"
  param {
    name: "W_hc"
  }
  inner_product_param {
    num_output: 1024
    bias_term: false
    weight_filler {
      type: "uniform"
      min: -0.01
      max: 0.01
    }
    axis: 2
  }
}
layer {
  name: "lstm1_gate_input_6"
  type: "Eltwise"
  bottom: "W_hc_h_5"
  bottom: "W_xc_x_6"
  top: "gate_input_6"
  eltwise_param {
    operation: SUM
  }
}
layer {
  name: "lstm1_unit_6"
  type: "LSTMUnit"
  bottom: "c_5"
  bottom: "gate_input_6"
  bottom: "cont_6"
  top: "c_6"
  top: "h_6"
}
layer {
  name: "lstm1_h_conted_6"
  type: "Eltwise"
  bottom: "h_6"
  bottom: "cont_7"
  top: "h_conted_6"
  eltwise_param {
    operation: SUM
    coeff_blob: true
  }
}
layer {
  name: "lstm1_transform_7"
  type: "InnerProduct"
  bottom: "h_conted_6"
  top: "W_hc_h_6"
  param {
    name: "W_hc"
  }
  inner_product_param {
    num_output: 1024
    bias_term: false
    weight_filler {
      type: "uniform"
      min: -0.01
      max: 0.01
    }
    axis: 2
  }
}
layer {
  name: "lstm1_gate_input_7"
  type: "Eltwise"
  bottom: "W_hc_h_6"
  bottom: "W_xc_x_7"
  top: "gate_input_7"
  eltwise_param {
    operation: SUM
  }
}
layer {
  name: "lstm1_unit_7"
  type: "LSTMUnit"
  bottom: "c_6"
  bottom: "gate_input_7"
  bottom: "cont_7"
  top: "c_7"
  top: "h_7"
}
layer {
  name: "lstm1_h_conted_7"
  type: "Eltwise"
  bottom: "h_7"
  bottom: "cont_8"
  top: "h_conted_7"
  eltwise_param {
    operation: SUM
    coeff_blob: true
  }
}
layer {
  name: "lstm1_transform_8"
  type: "InnerProduct"
  bottom: "h_conted_7"
  top: "W_hc_h_7"
  param {
    name: "W_hc"
  }
  inner_product_param {
    num_output: 1024
    bias_term: false
    weight_filler {
      type: "uniform"
      min: -0.01
      max: 0.01
    }
    axis: 2
  }
}
layer {
  name: "lstm1_gate_input_8"
  type: "Eltwise"
  bottom: "W_hc_h_7"
  bottom: "W_xc_x_8"
  top: "gate_input_8"
  eltwise_param {
    operation: SUM
  }
}
layer {
  name: "lstm1_unit_8"
  type: "LSTMUnit"
  bottom: "c_7"
  bottom: "gate_input_8"
  bottom: "cont_8"
  top: "c_8"
  top: "h_8"
}
layer {
  name: "lstm1_h_conted_8"
  type: "Eltwise"
  bottom: "h_8"
  bottom: "cont_9"
  top: "h_conted_8"
  eltwise_param {
    operation: SUM
    coeff_blob: true
  }
}
layer {
  name: "lstm1_transform_9"
  type: "InnerProduct"
  bottom: "h_conted_8"
  top: "W_hc_h_8"
  param {
    name: "W_hc"
  }
  inner_product_param {
    num_output: 1024
    bias_term: false
    weight_filler {
      type: "uniform"
      min: -0.01
      max: 0.01
    }
    axis: 2
  }
}
layer {
  name: "lstm1_gate_input_9"
  type: "Eltwise"
  bottom: "W_hc_h_8"
  bottom: "W_xc_x_9"
  top: "gate_input_9"
  eltwise_param {
    operation: SUM
  }
}
layer {
  name: "lstm1_unit_9"
  type: "LSTMUnit"
  bottom: "c_8"
  bottom: "gate_input_9"
  bottom: "cont_9"
  top: "c_9"
  top: "h_9"
}
layer {
  name: "lstm1_h_conted_9"
  type: "Eltwise"
  bottom: "h_9"
  bottom: "cont_10"
  top: "h_conted_9"
  eltwise_param {
    operation: SUM
    coeff_blob: true
  }
}
layer {
  name: "lstm1_transform_10"
  type: "InnerProduct"
  bottom: "h_conted_9"
  top: "W_hc_h_9"
  param {
    name: "W_hc"
  }
  inner_product_param {
    num_output: 1024
    bias_term: false
    weight_filler {
      type: "uniform"
      min: -0.01
      max: 0.01
    }
    axis: 2
  }
}
layer {
  name: "lstm1_gate_input_10"
  type: "Eltwise"
  bottom: "W_hc_h_9"
  bottom: "W_xc_x_10"
  top: "gate_input_10"
  eltwise_param {
    operation: SUM
  }
}
layer {
  name: "lstm1_unit_10"
  type: "LSTMUnit"
  bottom: "c_9"
  bottom: "gate_input_10"
  bottom: "cont_10"
  top: "c_10"
  top: "h_10"
}
layer {
  name: "lstm1_h_conted_10"
  type: "Eltwise"
  bottom: "h_10"
  bottom: "cont_11"
  top: "h_conted_10"
  eltwise_param {
    operation: SUM
    coeff_blob: true
  }
}
layer {
  name: "lstm1_transform_11"
  type: "InnerProduct"
  bottom: "h_conted_10"
  top: "W_hc_h_10"
  param {
    name: "W_hc"
  }
  inner_product_param {
    num_output: 1024
    bias_term: false
    weight_filler {
      type: "uniform"
      min: -0.01
      max: 0.01
    }
    axis: 2
  }
}
layer {
  name: "lstm1_gate_input_11"
  type: "Eltwise"
  bottom: "W_hc_h_10"
  bottom: "W_xc_x_11"
  top: "gate_input_11"
  eltwise_param {
    operation: SUM
  }
}
layer {
  name: "lstm1_unit_11"
  type: "LSTMUnit"
  bottom: "c_10"
  bottom: "gate_input_11"
  bottom: "cont_11"
  top: "c_11"
  top: "h_11"
}
layer {
  name: "lstm1_h_conted_11"
  type: "Eltwise"
  bottom: "h_11"
  bottom: "cont_12"
  top: "h_conted_11"
  eltwise_param {
    operation: SUM
    coeff_blob: true
  }
}
layer {
  name: "lstm1_transform_12"
  type: "InnerProduct"
  bottom: "h_conted_11"
  top: "W_hc_h_11"
  param {
    name: "W_hc"
  }
  inner_product_param {
    num_output: 1024
    bias_term: false
    weight_filler {
      type: "uniform"
      min: -0.01
      max: 0.01
    }
    axis: 2
  }
}
layer {
  name: "lstm1_gate_input_12"
  type: "Eltwise"
  bottom: "W_hc_h_11"
  bottom: "W_xc_x_12"
  top: "gate_input_12"
  eltwise_param {
    operation: SUM
  }
}
layer {
  name: "lstm1_unit_12"
  type: "LSTMUnit"
  bottom: "c_11"
  bottom: "gate_input_12"
  bottom: "cont_12"
  top: "c_12"
  top: "h_12"
}
layer {
  name: "lstm1_h_conted_12"
  type: "Eltwise"
  bottom: "h_12"
  bottom: "cont_13"
  top: "h_conted_12"
  eltwise_param {
    operation: SUM
    coeff_blob: true
  }
}
layer {
  name: "lstm1_transform_13"
  type: "InnerProduct"
  bottom: "h_conted_12"
  top: "W_hc_h_12"
  param {
    name: "W_hc"
  }
  inner_product_param {
    num_output: 1024
    bias_term: false
    weight_filler {
      type: "uniform"
      min: -0.01
      max: 0.01
    }
    axis: 2
  }
}
layer {
  name: "lstm1_gate_input_13"
  type: "Eltwise"
  bottom: "W_hc_h_12"
  bottom: "W_xc_x_13"
  top: "gate_input_13"
  eltwise_param {
    operation: SUM
  }
}
layer {
  name: "lstm1_unit_13"
  type: "LSTMUnit"
  bottom: "c_12"
  bottom: "gate_input_13"
  bottom: "cont_13"
  top: "c_13"
  top: "h_13"
}
layer {
  name: "lstm1_h_conted_13"
  type: "Eltwise"
  bottom: "h_13"
  bottom: "cont_14"
  top: "h_conted_13"
  eltwise_param {
    operation: SUM
    coeff_blob: true
  }
}
layer {
  name: "lstm1_transform_14"
  type: "InnerProduct"
  bottom: "h_conted_13"
  top: "W_hc_h_13"
  param {
    name: "W_hc"
  }
  inner_product_param {
    num_output: 1024
    bias_term: false
    weight_filler {
      type: "uniform"
      min: -0.01
      max: 0.01
    }
    axis: 2
  }
}
layer {
  name: "lstm1_gate_input_14"
  type: "Eltwise"
  bottom: "W_hc_h_13"
  bottom: "W_xc_x_14"
  top: "gate_input_14"
  eltwise_param {
    operation: SUM
  }
}
layer {
  name: "lstm1_unit_14"
  type: "LSTMUnit"
  bottom: "c_13"
  bottom: "gate_input_14"
  bottom: "cont_14"
  top: "c_14"
  top: "h_14"
}
layer {
  name: "lstm1_h_conted_14"
  type: "Eltwise"
  bottom: "h_14"
  bottom: "cont_15"
  top: "h_conted_14"
  eltwise_param {
    operation: SUM
    coeff_blob: true
  }
}
layer {
  name: "lstm1_transform_15"
  type: "InnerProduct"
  bottom: "h_conted_14"
  top: "W_hc_h_14"
  param {
    name: "W_hc"
  }
  inner_product_param {
    num_output: 1024
    bias_term: false
    weight_filler {
      type: "uniform"
      min: -0.01
      max: 0.01
    }
    axis: 2
  }
}
layer {
  name: "lstm1_gate_input_15"
  type: "Eltwise"
  bottom: "W_hc_h_14"
  bottom: "W_xc_x_15"
  top: "gate_input_15"
  eltwise_param {
    operation: SUM
  }
}
layer {
  name: "lstm1_unit_15"
  type: "LSTMUnit"
  bottom: "c_14"
  bottom: "gate_input_15"
  bottom: "cont_15"
  top: "c_15"
  top: "h_15"
}
layer {
  name: "lstm1_h_conted_15"
  type: "Eltwise"
  bottom: "h_15"
  bottom: "cont_16"
  top: "h_conted_15"
  eltwise_param {
    operation: SUM
    coeff_blob: true
  }
}
layer {
  name: "lstm1_transform_16"
  type: "InnerProduct"
  bottom: "h_conted_15"
  top: "W_hc_h_15"
  param {
    name: "W_hc"
  }
  inner_product_param {
    num_output: 1024
    bias_term: false
    weight_filler {
      type: "uniform"
      min: -0.01
      max: 0.01
    }
    axis: 2
  }
}
layer {
  name: "lstm1_gate_input_16"
  type: "Eltwise"
  bottom: "W_hc_h_15"
  bottom: "W_xc_x_16"
  top: "gate_input_16"
  eltwise_param {
    operation: SUM
  }
}
layer {
  name: "lstm1_unit_16"
  type: "LSTMUnit"
  bottom: "c_15"
  bottom: "gate_input_16"
  bottom: "cont_16"
  top: "c_16"
  top: "h_16"
}
layer {
  name: "lstm1_"
  type: "Split"
  bottom: "c_16"
  top: "c_T"
}
layer {
  name: "lstm1_h_concat"
  type: "Concat"
  bottom: "h_1"
  bottom: "h_2"
  bottom: "h_3"
  bottom: "h_4"
  bottom: "h_5"
  bottom: "h_6"
  bottom: "h_7"
  bottom: "h_8"
  bottom: "h_9"
  bottom: "h_10"
  bottom: "h_11"
  bottom: "h_12"
  bottom: "h_13"
  bottom: "h_14"
  bottom: "h_15"
  bottom: "h_16"
  top: "h"
  concat_param {
    axis: 0
  }
}
I1214 10:12:23.652096 24007 net.cpp:341] Input 0 -> x
I1214 10:12:23.652107 24007 net.cpp:341] Input 1 -> cont
I1214 10:12:23.652113 24007 net.cpp:341] Input 2 -> c_0
I1214 10:12:23.652120 24007 net.cpp:341] Input 3 -> h_0
I1214 10:12:23.652133 24007 layer_factory.hpp:74] Creating layer lstm1_cont_slice
I1214 10:12:23.652143 24007 net.cpp:84] Creating Layer lstm1_cont_slice
…
I1214 10:12:23.652218 24007 net.cpp:339] lstm1_cont_slice -> cont_9
I1214 10:12:23.652226 24007 net.cpp:339] lstm1_cont_slice -> cont_10
I1214 10:12:23.652233 24007 net.cpp:339] lstm1_cont_slice -> cont_11
I1214 10:12:23.652241 24007 net.cpp:339] lstm1_cont_slice -> cont_12
I1214 10:12:23.652248 24007 net.cpp:339] lstm1_cont_slice -> cont_13
I1214 10:12:23.652257 24007 net.cpp:339] lstm1_cont_slice -> cont_14
I1214 10:12:23.652264 24007 net.cpp:339] lstm1_cont_slice -> cont_15
I1214 10:12:23.652272 24007 net.cpp:339] lstm1_cont_slice -> cont_16
I1214 10:12:23.652278 24007 net.cpp:113] Setting up lstm1_cont_slice
I1214 10:12:23.652289 24007 net.cpp:120] Top shape: 1 1 3 (3)
I1214 10:12:23.652295 24007 net.cpp:120] Top shape: 1 1 3 (3)
I1214 10:12:23.652300 24007 net.cpp:120] Top shape: 1 1 3 (3)
I1214 10:12:23.652307 24007 net.cpp:120] Top shape: 1 1 3 (3)
I1214 10:12:23.652312 24007 net.cpp:120] Top shape: 1 1 3 (3)
I1214 10:12:23.652317 24007 net.cpp:120] Top shape: 1 1 3 (3)
I1214 10:12:23.652323 24007 net.cpp:120] Top shape: 1 1 3 (3)
I1214 10:12:23.652331 24007 net.cpp:120] Top shape: 1 1 3 (3)
I1214 10:12:23.652338 24007 net.cpp:120] Top shape: 1 1 3 (3)
I1214 10:12:23.652343 24007 net.cpp:120] Top shape: 1 1 3 (3)
I1214 10:12:23.652348 24007 net.cpp:120] Top shape: 1 1 3 (3)
I1214 10:12:23.652354 24007 net.cpp:120] Top shape: 1 1 3 (3)
I1214 10:12:23.652359 24007 net.cpp:120] Top shape: 1 1 3 (3)
I1214 10:12:23.652364 24007 net.cpp:120] Top shape: 1 1 3 (3)
I1214 10:12:23.652369 24007 net.cpp:120] Top shape: 1 1 3 (3)
I1214 10:12:23.652375 24007 net.cpp:120] Top shape: 1 1 3 (3)
I1214 10:12:23.652380 24007 layer_factory.hpp:74] Creating layer cont_1_lstm1_cont_slice_0_split
I1214 10:12:23.652386 24007 net.cpp:84] Creating Layer cont_1_lstm1_cont_slice_0_split
I1214 10:12:23.652391 24007 net.cpp:381] cont_1_lstm1_cont_slice_0_split <- cont_1
I1214 10:12:23.652397 24007 net.cpp:339] cont_1_lstm1_cont_slice_0_split -> cont_1_lstm1_cont_slice_0_split_0
I1214 10:12:23.652405 24007 net.cpp:339] cont_1_lstm1_cont_slice_0_split -> cont_1_lstm1_cont_slice_0_split_1
I1214 10:12:23.652411 24007 net.cpp:113] Setting up cont_1_lstm1_cont_slice_0_split
I1214 10:12:23.652418 24007 net.cpp:120] Top shape: 1 1 3 (3)
I1214 10:12:23.652423 24007 net.cpp:120] Top shape: 1 1 3 (3)
I1214 10:12:23.652428 24007 layer_factory.hpp:74] Creating layer cont_2_lstm1_cont_slice_1_split
I1214 10:12:23.652434 24007 net.cpp:84] Creating Layer cont_2_lstm1_cont_slice_1_split
I1214 10:12:23.652439 24007 net.cpp:381] cont_2_lstm1_cont_slice_1_split <- cont_2
I1214 10:12:23.652446 24007 net.cpp:339] cont_2_lstm1_cont_slice_1_split -> cont_2_lstm1_cont_slice_1_split_0
I1214 10:12:23.652452 24007 net.cpp:339] cont_2_lstm1_cont_slice_1_split -> cont_2_lstm1_cont_slice_1_split_1
I1214 10:12:23.652459 24007 net.cpp:113] Setting up cont_2_lstm1_cont_slice_1_split
I1214 10:12:23.652465 24007 net.cpp:120] Top shape: 1 1 3 (3)
I1214 10:12:23.652472 24007 net.cpp:120] Top shape: 1 1 3 (3)
I1214 10:12:23.652477 24007 layer_factory.hpp:74] Creating layer cont_3_lstm1_cont_slice_2_split
I1214 10:12:23.652482 24007 net.cpp:84] Creating Layer cont_3_lstm1_cont_slice_2_split
I1214 10:12:23.652487 24007 net.cpp:381] cont_3_lstm1_cont_slice_2_split <- cont_3
I1214 10:12:23.652493 24007 net.cpp:339] cont_3_lstm1_cont_slice_2_split -> cont_3_lstm1_cont_slice_2_split_0
I1214 10:12:23.652499 24007 net.cpp:339] cont_3_lstm1_cont_slice_2_split -> cont_3_lstm1_cont_slice_2_split_1
I1214 10:12:23.652505 24007 net.cpp:113] Setting up cont_3_lstm1_cont_slice_2_split
I1214 10:12:23.652513 24007 net.cpp:120] Top shape: 1 1 3 (3)
I1214 10:12:23.652518 24007 net.cpp:120] Top shape: 1 1 3 (3)
I1214 10:12:23.652523 24007 layer_factory.hpp:74] Creating layer cont_4_lstm1_cont_slice_3_split
I1214 10:12:23.652529 24007 net.cpp:84] Creating Layer cont_4_lstm1_cont_slice_3_split
I1214 10:12:23.652534 24007 net.cpp:381] cont_4_lstm1_cont_slice_3_split <- cont_4
I1214 10:12:23.652540 24007 net.cpp:339] cont_4_lstm1_cont_slice_3_split -> cont_4_lstm1_cont_slice_3_split_0
I1214 10:12:23.652547 24007 net.cpp:339] cont_4_lstm1_cont_slice_3_split -> cont_4_lstm1_cont_slice_3_split_1
I1214 10:12:23.652554 24007 net.cpp:113] Setting up cont_4_lstm1_cont_slice_3_split
I1214 10:12:23.652560 24007 net.cpp:120] Top shape: 1 1 3 (3)
I1214 10:12:23.652566 24007 net.cpp:120] Top shape: 1 1 3 (3)
I1214 10:12:23.652570 24007 layer_factory.hpp:74] Creating layer cont_5_lstm1_cont_slice_4_split
I1214 10:12:23.652575 24007 net.cpp:84] Creating Layer cont_5_lstm1_cont_slice_4_split
I1214 10:12:23.652580 24007 net.cpp:381] cont_5_lstm1_cont_slice_4_split <- cont_5
I1214 10:12:23.652586 24007 net.cpp:339] cont_5_lstm1_cont_slice_4_split -> cont_5_lstm1_cont_slice_4_split_0
I1214 10:12:23.652593 24007 net.cpp:339] cont_5_lstm1_cont_slice_4_split -> cont_5_lstm1_cont_slice_4_split_1
I1214 10:12:23.652600 24007 net.cpp:113] Setting up cont_5_lstm1_cont_slice_4_split
I1214 10:12:23.652606 24007 net.cpp:120] Top shape: 1 1 3 (3)
I1214 10:12:23.652611 24007 net.cpp:120] Top shape: 1 1 3 (3)
I1214 10:12:23.652616 24007 layer_factory.hpp:74] Creating layer cont_6_lstm1_cont_slice_5_split
I1214 10:12:23.652627 24007 net.cpp:84] Creating Layer cont_6_lstm1_cont_slice_5_split
I1214 10:12:23.652632 24007 net.cpp:381] cont_6_lstm1_cont_slice_5_split <- cont_6
I1214 10:12:23.652638 24007 net.cpp:339] cont_6_lstm1_cont_slice_5_split -> cont_6_lstm1_cont_slice_5_split_0
I1214 10:12:23.652645 24007 net.cpp:339] cont_6_lstm1_cont_slice_5_split -> cont_6_lstm1_cont_slice_5_split_1
I1214 10:12:23.652652 24007 net.cpp:113] Setting up cont_6_lstm1_cont_slice_5_split
I1214 10:12:23.652658 24007 net.cpp:120] Top shape: 1 1 3 (3)
I1214 10:12:23.652664 24007 net.cpp:120] Top shape: 1 1 3 (3)
I1214 10:12:23.652669 24007 layer_factory.hpp:74] Creating layer cont_7_lstm1_cont_slice_6_split
I1214 10:12:23.652674 24007 net.cpp:84] Creating Layer cont_7_lstm1_cont_slice_6_split
I1214 10:12:23.652678 24007 net.cpp:381] cont_7_lstm1_cont_slice_6_split <- cont_7
I1214 10:12:23.652684 24007 net.cpp:339] cont_7_lstm1_cont_slice_6_split -> cont_7_lstm1_cont_slice_6_split_0
I1214 10:12:23.652693 24007 net.cpp:339] cont_7_lstm1_cont_slice_6_split -> cont_7_lstm1_cont_slice_6_split_1
I1214 10:12:23.652699 24007 net.cpp:113] Setting up cont_7_lstm1_cont_slice_6_split
I1214 10:12:23.652706 24007 net.cpp:120] Top shape: 1 1 3 (3)
I1214 10:12:23.652712 24007 net.cpp:120] Top shape: 1 1 3 (3)
I1214 10:12:23.652717 24007 layer_factory.hpp:74] Creating layer cont_8_lstm1_cont_slice_7_split
I1214 10:12:23.652724 24007 net.cpp:84] Creating Layer cont_8_lstm1_cont_slice_7_split
I1214 10:12:23.652727 24007 net.cpp:381] cont_8_lstm1_cont_slice_7_split <- cont_8
I1214 10:12:23.652734 24007 net.cpp:339] cont_8_lstm1_cont_slice_7_split -> cont_8_lstm1_cont_slice_7_split_0
I1214 10:12:23.652741 24007 net.cpp:339] cont_8_lstm1_cont_slice_7_split -> cont_8_lstm1_cont_slice_7_split_1
I1214 10:12:23.652748 24007 net.cpp:113] Setting up cont_8_lstm1_cont_slice_7_split
I1214 10:12:23.652755 24007 net.cpp:120] Top shape: 1 1 3 (3)
I1214 10:12:23.652760 24007 net.cpp:120] Top shape: 1 1 3 (3)
I1214 10:12:23.652765 24007 layer_factory.hpp:74] Creating layer cont_9_lstm1_cont_slice_8_split
I1214 10:12:23.652770 24007 net.cpp:84] Creating Layer cont_9_lstm1_cont_slice_8_split
I1214 10:12:23.652775 24007 net.cpp:381] cont_9_lstm1_cont_slice_8_split <- cont_9
I1214 10:12:23.652781 24007 net.cpp:339] cont_9_lstm1_cont_slice_8_split -> cont_9_lstm1_cont_slice_8_split_0
I1214 10:12:23.652787 24007 net.cpp:339] cont_9_lstm1_cont_slice_8_split -> cont_9_lstm1_cont_slice_8_split_1
I1214 10:12:23.652793 24007 net.cpp:113] Setting up cont_9_lstm1_cont_slice_8_split
I1214 10:12:23.652799 24007 net.cpp:120] Top shape: 1 1 3 (3)
I1214 10:12:23.652806 24007 net.cpp:120] Top shape: 1 1 3 (3)
I1214 10:12:23.652811 24007 layer_factory.hpp:74] Creating layer cont_10_lstm1_cont_slice_9_split
I1214 10:12:23.652817 24007 net.cpp:84] Creating Layer cont_10_lstm1_cont_slice_9_split
I1214 10:12:23.652820 24007 net.cpp:381] cont_10_lstm1_cont_slice_9_split <- cont_10
I1214 10:12:23.652827 24007 net.cpp:339] cont_10_lstm1_cont_slice_9_split -> cont_10_lstm1_cont_slice_9_split_0
I1214 10:12:23.652833 24007 net.cpp:339] cont_10_lstm1_cont_slice_9_split -> cont_10_lstm1_cont_slice_9_split_1
I1214 10:12:23.652840 24007 net.cpp:113] Setting up cont_10_lstm1_cont_slice_9_split
I1214 10:12:23.652848 24007 net.cpp:120] Top shape: 1 1 3 (3)
I1214 10:12:23.652853 24007 net.cpp:120] Top shape: 1 1 3 (3)
I1214 10:12:23.652858 24007 layer_factory.hpp:74] Creating layer cont_11_lstm1_cont_slice_10_split
I1214 10:12:23.652863 24007 net.cpp:84] Creating Layer cont_11_lstm1_cont_slice_10_split
I1214 10:12:23.652868 24007 net.cpp:381] cont_11_lstm1_cont_slice_10_split <- cont_11
I1214 10:12:23.652873 24007 net.cpp:339] cont_11_lstm1_cont_slice_10_split -> cont_11_lstm1_cont_slice_10_split_0
I1214 10:12:23.652880 24007 net.cpp:339] cont_11_lstm1_cont_slice_10_split -> cont_11_lstm1_cont_slice_10_split_1
I1214 10:12:23.652886 24007 net.cpp:113] Setting up cont_11_lstm1_cont_slice_10_split
I1214 10:12:23.652894 24007 net.cpp:120] Top shape: 1 1 3 (3)
I1214 10:12:23.652899 24007 net.cpp:120] Top shape: 1 1 3 (3)
I1214 10:12:23.652907 24007 layer_factory.hpp:74] Creating layer cont_12_lstm1_cont_slice_11_split
I1214 10:12:23.652914 24007 net.cpp:84] Creating Layer cont_12_lstm1_cont_slice_11_split
I1214 10:12:23.652918 24007 net.cpp:381] cont_12_lstm1_cont_slice_11_split <- cont_12
I1214 10:12:23.652925 24007 net.cpp:339] cont_12_lstm1_cont_slice_11_split -> cont_12_lstm1_cont_slice_11_split_0
I1214 10:12:23.652931 24007 net.cpp:339] cont_12_lstm1_cont_slice_11_split -> cont_12_lstm1_cont_slice_11_split_1
I1214 10:12:23.652937 24007 net.cpp:113] Setting up cont_12_lstm1_cont_slice_11_split
I1214 10:12:23.652945 24007 net.cpp:120] Top shape: 1 1 3 (3)
I1214 10:12:23.652950 24007 net.cpp:120] Top shape: 1 1 3 (3)
I1214 10:12:23.652954 24007 layer_factory.hpp:74] Creating layer cont_13_lstm1_cont_slice_12_split
I1214 10:12:23.652961 24007 net.cpp:84] Creating Layer cont_13_lstm1_cont_slice_12_split
I1214 10:12:23.652966 24007 net.cpp:381] cont_13_lstm1_cont_slice_12_split <- cont_13
I1214 10:12:23.652971 24007 net.cpp:339] cont_13_lstm1_cont_slice_12_split -> cont_13_lstm1_cont_slice_12_split_0
I1214 10:12:23.652978 24007 net.cpp:339] cont_13_lstm1_cont_slice_12_split -> cont_13_lstm1_cont_slice_12_split_1
I1214 10:12:23.652984 24007 net.cpp:113] Setting up cont_13_lstm1_cont_slice_12_split
I1214 10:12:23.652992 24007 net.cpp:120] Top shape: 1 1 3 (3)
I1214 10:12:23.652997 24007 net.cpp:120] Top shape: 1 1 3 (3)
I1214 10:12:23.653002 24007 layer_factory.hpp:74] Creating layer cont_14_lstm1_cont_slice_13_split
I1214 10:12:23.653007 24007 net.cpp:84] Creating Layer cont_14_lstm1_cont_slice_13_split
I1214 10:12:23.653012 24007 net.cpp:381] cont_14_lstm1_cont_slice_13_split <- cont_14
I1214 10:12:23.653018 24007 net.cpp:339] cont_14_lstm1_cont_slice_13_split -> cont_14_lstm1_cont_slice_13_split_0
I1214 10:12:23.653025 24007 net.cpp:339] cont_14_lstm1_cont_slice_13_split -> cont_14_lstm1_cont_slice_13_split_1
I1214 10:12:23.653031 24007 net.cpp:113] Setting up cont_14_lstm1_cont_slice_13_split
I1214 10:12:23.653038 24007 net.cpp:120] Top shape: 1 1 3 (3)
I1214 10:12:23.653043 24007 net.cpp:120] Top shape: 1 1 3 (3)
I1214 10:12:23.653048 24007 layer_factory.hpp:74] Creating layer cont_15_lstm1_cont_slice_14_split
I1214 10:12:23.653053 24007 net.cpp:84] Creating Layer cont_15_lstm1_cont_slice_14_split
I1214 10:12:23.653059 24007 net.cpp:381] cont_15_lstm1_cont_slice_14_split <- cont_15
I1214 10:12:23.653065 24007 net.cpp:339] cont_15_lstm1_cont_slice_14_split -> cont_15_lstm1_cont_slice_14_split_0
I1214 10:12:23.653072 24007 net.cpp:339] cont_15_lstm1_cont_slice_14_split -> cont_15_lstm1_cont_slice_14_split_1
I1214 10:12:23.653079 24007 net.cpp:113] Setting up cont_15_lstm1_cont_slice_14_split
I1214 10:12:23.653084 24007 net.cpp:120] Top shape: 1 1 3 (3)
I1214 10:12:23.653090 24007 net.cpp:120] Top shape: 1 1 3 (3)
I1214 10:12:23.653095 24007 layer_factory.hpp:74] Creating layer cont_16_lstm1_cont_slice_15_split
I1214 10:12:23.653101 24007 net.cpp:84] Creating Layer cont_16_lstm1_cont_slice_15_split
I1214 10:12:23.653105 24007 net.cpp:381] cont_16_lstm1_cont_slice_15_split <- cont_16
I1214 10:12:23.653112 24007 net.cpp:339] cont_16_lstm1_cont_slice_15_split -> cont_16_lstm1_cont_slice_15_split_0
I1214 10:12:23.653120 24007 net.cpp:339] cont_16_lstm1_cont_slice_15_split -> cont_16_lstm1_cont_slice_15_split_1
I1214 10:12:23.653126 24007 net.cpp:113] Setting up cont_16_lstm1_cont_slice_15_split
I1214 10:12:23.653132 24007 net.cpp:120] Top shape: 1 1 3 (3)
I1214 10:12:23.653138 24007 net.cpp:120] Top shape: 1 1 3 (3)
I1214 10:12:23.653143 24007 layer_factory.hpp:74] Creating layer lstm1_x_transform
I1214 10:12:23.653149 24007 net.cpp:84] Creating Layer lstm1_x_transform
I1214 10:12:23.653154 24007 net.cpp:381] lstm1_x_transform <- x
I1214 10:12:23.653161 24007 net.cpp:339] lstm1_x_transform -> W_xc_x
I1214 10:12:23.653168 24007 net.cpp:113] Setting up lstm1_x_transform
I1214 10:12:23.675235 24007 net.cpp:120] Top shape: 16 3 1024 (49152)
I1214 10:12:23.675272 24007 layer_factory.hpp:74] Creating layer lstm1_W_xc_x_slice
I1214 10:12:23.675297 24007 net.cpp:84] Creating Layer lstm1_W_xc_x_slice
I1214 10:12:23.675303 24007 net.cpp:381] lstm1_W_xc_x_slice <- W_xc_x
I1214 10:12:23.675312 24007 net.cpp:339] lstm1_W_xc_x_slice -> W_xc_x_1
I1214 10:12:23.675325 24007 net.cpp:339] lstm1_W_xc_x_slice -> W_xc_x_2
I1214 10:12:23.675333 24007 net.cpp:339] lstm1_W_xc_x_slice -> W_xc_x_3
…
I1214 10:12:23.675395 24007 net.cpp:339] lstm1_W_xc_x_slice -> W_xc_x_10
I1214 10:12:23.675402 24007 net.cpp:339] lstm1_W_xc_x_slice -> W_xc_x_11
I1214 10:12:23.675412 24007 net.cpp:339] lstm1_W_xc_x_slice -> W_xc_x_12
I1214 10:12:23.675426 24007 net.cpp:339] lstm1_W_xc_x_slice -> W_xc_x_13
I1214 10:12:23.675433 24007 net.cpp:339] lstm1_W_xc_x_slice -> W_xc_x_14
I1214 10:12:23.675441 24007 net.cpp:339] lstm1_W_xc_x_slice -> W_xc_x_15
I1214 10:12:23.675449 24007 net.cpp:339] lstm1_W_xc_x_slice -> W_xc_x_16
I1214 10:12:23.675457 24007 net.cpp:113] Setting up lstm1_W_xc_x_slice
I1214 10:12:23.675469 24007 net.cpp:120] Top shape: 1 3 1024 (3072)
I1214 10:12:23.675477 24007 net.cpp:120] Top shape: 1 3 1024 (3072)
I1214 10:12:23.675482 24007 net.cpp:120] Top shape: 1 3 1024 (3072)
I1214 10:12:23.675487 24007 net.cpp:120] Top shape: 1 3 1024 (3072)
I1214 10:12:23.675493 24007 net.cpp:120] Top shape: 1 3 1024 (3072)
I1214 10:12:23.675498 24007 net.cpp:120] Top shape: 1 3 1024 (3072)
I1214 10:12:23.675504 24007 net.cpp:120] Top shape: 1 3 1024 (3072)
I1214 10:12:23.675509 24007 net.cpp:120] Top shape: 1 3 1024 (3072)
I1214 10:12:23.675515 24007 net.cpp:120] Top shape: 1 3 1024 (3072)
I1214 10:12:23.675520 24007 net.cpp:120] Top shape: 1 3 1024 (3072)
I1214 10:12:23.675525 24007 net.cpp:120] Top shape: 1 3 1024 (3072)
I1214 10:12:23.675531 24007 net.cpp:120] Top shape: 1 3 1024 (3072)
I1214 10:12:23.675536 24007 net.cpp:120] Top shape: 1 3 1024 (3072)
I1214 10:12:23.675541 24007 net.cpp:120] Top shape: 1 3 1024 (3072)
I1214 10:12:23.675547 24007 net.cpp:120] Top shape: 1 3 1024 (3072)
I1214 10:12:23.675552 24007 net.cpp:120] Top shape: 1 3 1024 (3072)
I1214 10:12:23.675557 24007 layer_factory.hpp:74] Creating layer lstm1_h_conted_0
I1214 10:12:23.675565 24007 net.cpp:84] Creating Layer lstm1_h_conted_0
I1214 10:12:23.675570 24007 net.cpp:381] lstm1_h_conted_0 <- h_0
I1214 10:12:23.675577 24007 net.cpp:381] lstm1_h_conted_0 <- cont_1_lstm1_cont_slice_0_split_0
I1214 10:12:23.675583 24007 net.cpp:339] lstm1_h_conted_0 -> h_conted_0
I1214 10:12:23.675591 24007 net.cpp:113] Setting up lstm1_h_conted_0
I1214 10:12:23.675600 24007 net.cpp:120] Top shape: 1 3 256 (768)
I1214 10:12:23.675604 24007 layer_factory.hpp:74] Creating layer lstm1_transform_1
I1214 10:12:23.675613 24007 net.cpp:84] Creating Layer lstm1_transform_1
I1214 10:12:23.675619 24007 net.cpp:381] lstm1_transform_1 <- h_conted_0
I1214 10:12:23.675626 24007 net.cpp:339] lstm1_transform_1 -> W_hc_h_0
I1214 10:12:23.675633 24007 net.cpp:113] Setting up lstm1_transform_1
I1214 10:12:23.677103 24007 net.cpp:120] Top shape: 1 3 1024 (3072)
I1214 10:12:23.677112 24007 layer_factory.hpp:74] Creating layer lstm1_gate_input_1
I1214 10:12:23.677119 24007 net.cpp:84] Creating Layer lstm1_gate_input_1
I1214 10:12:23.677124 24007 net.cpp:381] lstm1_gate_input_1 <- W_hc_h_0
I1214 10:12:23.677129 24007 net.cpp:381] lstm1_gate_input_1 <- W_xc_x_1
I1214 10:12:23.677136 24007 net.cpp:339] lstm1_gate_input_1 -> gate_input_1
I1214 10:12:23.677144 24007 net.cpp:113] Setting up lstm1_gate_input_1
I1214 10:12:23.677150 24007 net.cpp:120] Top shape: 1 3 1024 (3072)
I1214 10:12:23.677155 24007 layer_factory.hpp:74] Creating layer lstm1_unit_1
I1214 10:12:23.677161 24007 net.cpp:84] Creating Layer lstm1_unit_1
I1214 10:12:23.677170 24007 net.cpp:381] lstm1_unit_1 <- c_0
I1214 10:12:23.677176 24007 net.cpp:381] lstm1_unit_1 <- gate_input_1
I1214 10:12:23.677182 24007 net.cpp:381] lstm1_unit_1 <- cont_1_lstm1_cont_slice_0_split_1
I1214 10:12:23.677189 24007 net.cpp:339] lstm1_unit_1 -> c_1
I1214 10:12:23.677197 24007 net.cpp:339] lstm1_unit_1 -> h_1
I1214 10:12:23.677203 24007 net.cpp:113] Setting up lstm1_unit_1
I1214 10:12:23.677213 24007 net.cpp:120] Top shape: 1 3 256 (768)
I1214 10:12:23.677219 24007 net.cpp:120] Top shape: 1 3 256 (768)
I1214 10:12:23.677224 24007 layer_factory.hpp:74] Creating layer h_1_lstm1_unit_1_1_split
I1214 10:12:23.677230 24007 net.cpp:84] Creating Layer h_1_lstm1_unit_1_1_split
I1214 10:12:23.677235 24007 net.cpp:381] h_1_lstm1_unit_1_1_split <- h_1
I1214 10:12:23.677242 24007 net.cpp:339] h_1_lstm1_unit_1_1_split -> h_1_lstm1_unit_1_1_split_0
I1214 10:12:23.677249 24007 net.cpp:339] h_1_lstm1_unit_1_1_split -> h_1_lstm1_unit_1_1_split_1
I1214 10:12:23.677256 24007 net.cpp:113] Setting up h_1_lstm1_unit_1_1_split
I1214 10:12:23.677263 24007 net.cpp:120] Top shape: 1 3 256 (768)
I1214 10:12:23.677269 24007 net.cpp:120] Top shape: 1 3 256 (768)
I1214 10:12:23.677273 24007 layer_factory.hpp:74] Creating layer lstm1_h_conted_1
I1214 10:12:23.677280 24007 net.cpp:84] Creating Layer lstm1_h_conted_1
I1214 10:12:23.677285 24007 net.cpp:381] lstm1_h_conted_1 <- h_1_lstm1_unit_1_1_split_0
I1214 10:12:23.677290 24007 net.cpp:381] lstm1_h_conted_1 <- cont_2_lstm1_cont_slice_1_split_0
I1214 10:12:23.677299 24007 net.cpp:339] lstm1_h_conted_1 -> h_conted_1
I1214 10:12:23.677306 24007 net.cpp:113] Setting up lstm1_h_conted_1
I1214 10:12:23.677312 24007 net.cpp:120] Top shape: 1 3 256 (768)
I1214 10:12:23.677317 24007 layer_factory.hpp:74] Creating layer lstm1_transform_2
I1214 10:12:23.677325 24007 net.cpp:84] Creating Layer lstm1_transform_2
I1214 10:12:23.677330 24007 net.cpp:381] lstm1_transform_2 <- h_conted_1
I1214 10:12:23.677336 24007 net.cpp:339] lstm1_transform_2 -> W_hc_h_1
I1214 10:12:23.677343 24007 net.cpp:113] Setting up lstm1_transform_2
I1214 10:12:23.678889 24007 net.cpp:120] Top shape: 1 3 1024 (3072)
I1214 10:12:23.678899 24007 net.cpp:425] Sharing parameters 'W_hc' owned by layer 'lstm1_transform_1', param index 0
I1214 10:12:23.678903 24007 layer_factory.hpp:74] Creating layer lstm1_gate_input_2
I1214 10:12:23.678910 24007 net.cpp:84] Creating Layer lstm1_gate_input_2
I1214 10:12:23.678915 24007 net.cpp:381] lstm1_gate_input_2 <- W_hc_h_1
I1214 10:12:23.678921 24007 net.cpp:381] lstm1_gate_input_2 <- W_xc_x_2
I1214 10:12:23.678928 24007 net.cpp:339] lstm1_gate_input_2 -> gate_input_2
I1214 10:12:23.678936 24007 net.cpp:113] Setting up lstm1_gate_input_2
I1214 10:12:23.678943 24007 net.cpp:120] Top shape: 1 3 1024 (3072)
I1214 10:12:23.678948 24007 layer_factory.hpp:74] Creating layer lstm1_unit_2
I1214 10:12:23.678956 24007 net.cpp:84] Creating Layer lstm1_unit_2
I1214 10:12:23.678961 24007 net.cpp:381] lstm1_unit_2 <- c_1
I1214 10:12:23.678966 24007 net.cpp:381] lstm1_unit_2 <- gate_input_2
I1214 10:12:23.678972 24007 net.cpp:381] lstm1_unit_2 <- cont_2_lstm1_cont_slice_1_split_1
I1214 10:12:23.678977 24007 net.cpp:339] lstm1_unit_2 -> c_2
I1214 10:12:23.678984 24007 net.cpp:339] lstm1_unit_2 -> h_2
I1214 10:12:23.678992 24007 net.cpp:113] Setting up lstm1_unit_2
I1214 10:12:23.678999 24007 net.cpp:120] Top shape: 1 3 256 (768)
I1214 10:12:23.679005 24007 net.cpp:120] Top shape: 1 3 256 (768)
I1214 10:12:23.679010 24007 layer_factory.hpp:74] Creating layer h_2_lstm1_unit_2_1_split
I1214 10:12:23.679016 24007 net.cpp:84] Creating Layer h_2_lstm1_unit_2_1_split
I1214 10:12:23.679021 24007 net.cpp:381] h_2_lstm1_unit_2_1_split <- h_2
I1214 10:12:23.679028 24007 net.cpp:339] h_2_lstm1_unit_2_1_split -> h_2_lstm1_unit_2_1_split_0
I1214 10:12:23.679035 24007 net.cpp:339] h_2_lstm1_unit_2_1_split -> h_2_lstm1_unit_2_1_split_1
I1214 10:12:23.679042 24007 net.cpp:113] Setting up h_2_lstm1_unit_2_1_split
I1214 10:12:23.679050 24007 net.cpp:120] Top shape: 1 3 256 (768)
I1214 10:12:23.679056 24007 net.cpp:120] Top shape: 1 3 256 (768)
I1214 10:12:23.679066 24007 layer_factory.hpp:74] Creating layer lstm1_h_conted_2
I1214 10:12:23.679072 24007 net.cpp:84] Creating Layer lstm1_h_conted_2
I1214 10:12:23.679077 24007 net.cpp:381] lstm1_h_conted_2 <- h_2_lstm1_unit_2_1_split_0
I1214 10:12:23.679083 24007 net.cpp:381] lstm1_h_conted_2 <- cont_3_lstm1_cont_slice_2_split_0
I1214 10:12:23.679090 24007 net.cpp:339] lstm1_h_conted_2 -> h_conted_2
I1214 10:12:23.679097 24007 net.cpp:113] Setting up lstm1_h_conted_2
I1214 10:12:23.679105 24007 net.cpp:120] Top shape: 1 3 256 (768)
I1214 10:12:23.679110 24007 layer_factory.hpp:74] Creating layer lstm1_transform_3
I1214 10:12:23.679116 24007 net.cpp:84] Creating Layer lstm1_transform_3
I1214 10:12:23.679122 24007 net.cpp:381] lstm1_transform_3 <- h_conted_2
I1214 10:12:23.679128 24007 net.cpp:339] lstm1_transform_3 -> W_hc_h_2
I1214 10:12:23.679136 24007 net.cpp:113] Setting up lstm1_transform_3
I1214 10:12:23.680809 24007 net.cpp:120] Top shape: 1 3 1024 (3072)
I1214 10:12:23.680819 24007 net.cpp:425] Sharing parameters 'W_hc' owned by layer 'lstm1_transform_1', param index 0
I1214 10:12:23.680824 24007 layer_factory.hpp:74] Creating layer lstm1_gate_input_3
I1214 10:12:23.680831 24007 net.cpp:84] Creating Layer lstm1_gate_input_3
I1214 10:12:23.680837 24007 net.cpp:381] lstm1_gate_input_3 <- W_hc_h_2
I1214 10:12:23.680843 24007 net.cpp:381] lstm1_gate_input_3 <- W_xc_x_3
I1214 10:12:23.680850 24007 net.cpp:339] lstm1_gate_input_3 -> gate_input_3
I1214 10:12:23.680856 24007 net.cpp:113] Setting up lstm1_gate_input_3
I1214 10:12:23.680863 24007 net.cpp:120] Top shape: 1 3 1024 (3072)
I1214 10:12:23.680868 24007 layer_factory.hpp:74] Creating layer lstm1_unit_3
I1214 10:12:23.680877 24007 net.cpp:84] Creating Layer lstm1_unit_3
I1214 10:12:23.680882 24007 net.cpp:381] lstm1_unit_3 <- c_2
I1214 10:12:23.680888 24007 net.cpp:381] lstm1_unit_3 <- gate_input_3
I1214 10:12:23.680894 24007 net.cpp:381] lstm1_unit_3 <- cont_3_lstm1_cont_slice_2_split_1
I1214 10:12:23.680901 24007 net.cpp:339] lstm1_unit_3 -> c_3
I1214 10:12:23.680907 24007 net.cpp:339] lstm1_unit_3 -> h_3
I1214 10:12:23.680915 24007 net.cpp:113] Setting up lstm1_unit_3
I1214 10:12:23.680922 24007 net.cpp:120] Top shape: 1 3 256 (768)
I1214 10:12:23.680928 24007 net.cpp:120] Top shape: 1 3 256 (768)
I1214 10:12:23.680932 24007 layer_factory.hpp:74] Creating layer h_3_lstm1_unit_3_1_split
I1214 10:12:23.680939 24007 net.cpp:84] Creating Layer h_3_lstm1_unit_3_1_split
I1214 10:12:23.680944 24007 net.cpp:381] h_3_lstm1_unit_3_1_split <- h_3
I1214 10:12:23.680951 24007 net.cpp:339] h_3_lstm1_unit_3_1_split -> h_3_lstm1_unit_3_1_split_0
I1214 10:12:23.680958 24007 net.cpp:339] h_3_lstm1_unit_3_1_split -> h_3_lstm1_unit_3_1_split_1
I1214 10:12:23.680965 24007 net.cpp:113] Setting up h_3_lstm1_unit_3_1_split
I1214 10:12:23.680973 24007 net.cpp:120] Top shape: 1 3 256 (768)
I1214 10:12:23.680977 24007 net.cpp:120] Top shape: 1 3 256 (768)
I1214 10:12:23.680982 24007 layer_factory.hpp:74] Creating layer lstm1_h_conted_3
I1214 10:12:23.680989 24007 net.cpp:84] Creating Layer lstm1_h_conted_3
I1214 10:12:23.680994 24007 net.cpp:381] lstm1_h_conted_3 <- h_3_lstm1_unit_3_1_split_0
I1214 10:12:23.680999 24007 net.cpp:381] lstm1_h_conted_3 <- cont_4_lstm1_cont_slice_3_split_0
I1214 10:12:23.681005 24007 net.cpp:339] lstm1_h_conted_3 -> h_conted_3
I1214 10:12:23.681012 24007 net.cpp:113] Setting up lstm1_h_conted_3
I1214 10:12:23.681018 24007 net.cpp:120] Top shape: 1 3 256 (768)
I1214 10:12:23.681023 24007 layer_factory.hpp:74] Creating layer lstm1_transform_4
I1214 10:12:23.681031 24007 net.cpp:84] Creating Layer lstm1_transform_4
I1214 10:12:23.681036 24007 net.cpp:381] lstm1_transform_4 <- h_conted_3
I1214 10:12:23.681043 24007 net.cpp:339] lstm1_transform_4 -> W_hc_h_3
I1214 10:12:23.681051 24007 net.cpp:113] Setting up lstm1_transform_4
I1214 10:12:23.682706 24007 net.cpp:120] Top shape: 1 3 1024 (3072)
I1214 10:12:23.682715 24007 net.cpp:425] Sharing parameters 'W_hc' owned by layer 'lstm1_transform_1', param index 0
I1214 10:12:23.682724 24007 layer_factory.hpp:74] Creating layer lstm1_gate_input_4
I1214 10:12:23.682730 24007 net.cpp:84] Creating Layer lstm1_gate_input_4
I1214 10:12:23.682735 24007 net.cpp:381] lstm1_gate_input_4 <- W_hc_h_3
I1214 10:12:23.682741 24007 net.cpp:381] lstm1_gate_input_4 <- W_xc_x_4
I1214 10:12:23.682749 24007 net.cpp:339] lstm1_gate_input_4 -> gate_input_4
I1214 10:12:23.682755 24007 net.cpp:113] Setting up lstm1_gate_input_4
I1214 10:12:23.682762 24007 net.cpp:120] Top shape: 1 3 1024 (3072)
I1214 10:12:23.682767 24007 layer_factory.hpp:74] Creating layer lstm1_unit_4
I1214 10:12:23.682775 24007 net.cpp:84] Creating Layer lstm1_unit_4
I1214 10:12:23.682780 24007 net.cpp:381] lstm1_unit_4 <- c_3
I1214 10:12:23.682785 24007 net.cpp:381] lstm1_unit_4 <- gate_input_4
I1214 10:12:23.682790 24007 net.cpp:381] lstm1_unit_4 <- cont_4_lstm1_cont_slice_3_split_1
I1214 10:12:23.682797 24007 net.cpp:339] lstm1_unit_4 -> c_4
I1214 10:12:23.682806 24007 net.cpp:339] lstm1_unit_4 -> h_4
I1214 10:12:23.682812 24007 net.cpp:113] Setting up lstm1_unit_4
I1214 10:12:23.682822 24007 net.cpp:120] Top shape: 1 3 256 (768)
I1214 10:12:23.682828 24007 net.cpp:120] Top shape: 1 3 256 (768)
I1214 10:12:23.682833 24007 layer_factory.hpp:74] Creating layer h_4_lstm1_unit_4_1_split
I1214 10:12:23.682839 24007 net.cpp:84] Creating Layer h_4_lstm1_unit_4_1_split
I1214 10:12:23.682844 24007 net.cpp:381] h_4_lstm1_unit_4_1_split <- h_4
I1214 10:12:23.682850 24007 net.cpp:339] h_4_lstm1_unit_4_1_split -> h_4_lstm1_unit_4_1_split_0
I1214 10:12:23.682858 24007 net.cpp:339] h_4_lstm1_unit_4_1_split -> h_4_lstm1_unit_4_1_split_1
I1214 10:12:23.682865 24007 net.cpp:113] Setting up h_4_lstm1_unit_4_1_split
I1214 10:12:23.682873 24007 net.cpp:120] Top shape: 1 3 256 (768)
I1214 10:12:23.682878 24007 net.cpp:120] Top shape: 1 3 256 (768)
I1214 10:12:23.682883 24007 layer_factory.hpp:74] Creating layer lstm1_h_conted_4
I1214 10:12:23.682888 24007 net.cpp:84] Creating Layer lstm1_h_conted_4
I1214 10:12:23.682893 24007 net.cpp:381] lstm1_h_conted_4 <- h_4_lstm1_unit_4_1_split_0
I1214 10:12:23.682899 24007 net.cpp:381] lstm1_h_conted_4 <- cont_5_lstm1_cont_slice_4_split_0
I1214 10:12:23.682906 24007 net.cpp:339] lstm1_h_conted_4 -> h_conted_4
I1214 10:12:23.682914 24007 net.cpp:113] Setting up lstm1_h_conted_4
I1214 10:12:23.682920 24007 net.cpp:120] Top shape: 1 3 256 (768)
I1214 10:12:23.682925 24007 layer_factory.hpp:74] Creating layer lstm1_transform_5
I1214 10:12:23.682932 24007 net.cpp:84] Creating Layer lstm1_transform_5
I1214 10:12:23.682936 24007 net.cpp:381] lstm1_transform_5 <- h_conted_4
I1214 10:12:23.682943 24007 net.cpp:339] lstm1_transform_5 -> W_hc_h_4
I1214 10:12:23.682950 24007 net.cpp:113] Setting up lstm1_transform_5
I1214 10:12:23.684593 24007 net.cpp:120] Top shape: 1 3 1024 (3072)
I1214 10:12:23.684602 24007 net.cpp:425] Sharing parameters 'W_hc' owned by layer 'lstm1_transform_1', param index 0
I1214 10:12:23.684607 24007 layer_factory.hpp:74] Creating layer lstm1_gate_input_5
I1214 10:12:23.684614 24007 net.cpp:84] Creating Layer lstm1_gate_input_5
I1214 10:12:23.684619 24007 net.cpp:381] lstm1_gate_input_5 <- W_hc_h_4
I1214 10:12:23.684625 24007 net.cpp:381] lstm1_gate_input_5 <- W_xc_x_5
I1214 10:12:23.684633 24007 net.cpp:339] lstm1_gate_input_5 -> gate_input_5
I1214 10:12:23.684640 24007 net.cpp:113] Setting up lstm1_gate_input_5
I1214 10:12:23.684648 24007 net.cpp:120] Top shape: 1 3 1024 (3072)
I1214 10:12:23.684653 24007 layer_factory.hpp:74] Creating layer lstm1_unit_5
I1214 10:12:23.684659 24007 net.cpp:84] Creating Layer lstm1_unit_5
I1214 10:12:23.684664 24007 net.cpp:381] lstm1_unit_5 <- c_4
I1214 10:12:23.684669 24007 net.cpp:381] lstm1_unit_5 <- gate_input_5
I1214 10:12:23.684674 24007 net.cpp:381] lstm1_unit_5 <- cont_5_lstm1_cont_slice_4_split_1
I1214 10:12:23.684680 24007 net.cpp:339] lstm1_unit_5 -> c_5
I1214 10:12:23.684687 24007 net.cpp:339] lstm1_unit_5 -> h_5
I1214 10:12:23.684695 24007 net.cpp:113] Setting up lstm1_unit_5
I1214 10:12:23.684702 24007 net.cpp:120] Top shape: 1 3 256 (768)
I1214 10:12:23.684707 24007 net.cpp:120] Top shape: 1 3 256 (768)
I1214 10:12:23.684716 24007 layer_factory.hpp:74] Creating layer h_5_lstm1_unit_5_1_split
I1214 10:12:23.684722 24007 net.cpp:84] Creating Layer h_5_lstm1_unit_5_1_split
I1214 10:12:23.684727 24007 net.cpp:381] h_5_lstm1_unit_5_1_split <- h_5
I1214 10:12:23.684733 24007 net.cpp:339] h_5_lstm1_unit_5_1_split -> h_5_lstm1_unit_5_1_split_0
I1214 10:12:23.684741 24007 net.cpp:339] h_5_lstm1_unit_5_1_split -> h_5_lstm1_unit_5_1_split_1
I1214 10:12:23.684747 24007 net.cpp:113] Setting up h_5_lstm1_unit_5_1_split
I1214 10:12:23.684754 24007 net.cpp:120] Top shape: 1 3 256 (768)
I1214 10:12:23.684761 24007 net.cpp:120] Top shape: 1 3 256 (768)
I1214 10:12:23.684765 24007 layer_factory.hpp:74] Creating layer lstm1_h_conted_5
I1214 10:12:23.684772 24007 net.cpp:84] Creating Layer lstm1_h_conted_5
I1214 10:12:23.684777 24007 net.cpp:381] lstm1_h_conted_5 <- h_5_lstm1_unit_5_1_split_0
I1214 10:12:23.684783 24007 net.cpp:381] lstm1_h_conted_5 <- cont_6_lstm1_cont_slice_5_split_0
I1214 10:12:23.684789 24007 net.cpp:339] lstm1_h_conted_5 -> h_conted_5
I1214 10:12:23.684797 24007 net.cpp:113] Setting up lstm1_h_conted_5
I1214 10:12:23.684803 24007 net.cpp:120] Top shape: 1 3 256 (768)
I1214 10:12:23.684808 24007 layer_factory.hpp:74] Creating layer lstm1_transform_6
I1214 10:12:23.684815 24007 net.cpp:84] Creating Layer lstm1_transform_6
I1214 10:12:23.684820 24007 net.cpp:381] lstm1_transform_6 <- h_conted_5
I1214 10:12:23.684826 24007 net.cpp:339] lstm1_transform_6 -> W_hc_h_5
I1214 10:12:23.684834 24007 net.cpp:113] Setting up lstm1_transform_6
I1214 10:12:23.686470 24007 net.cpp:120] Top shape: 1 3 1024 (3072)
I1214 10:12:23.686478 24007 net.cpp:425] Sharing parameters 'W_hc' owned by layer 'lstm1_transform_1', param index 0
I1214 10:12:23.686483 24007 layer_factory.hpp:74] Creating layer lstm1_gate_input_6
I1214 10:12:23.686491 24007 net.cpp:84] Creating Layer lstm1_gate_input_6
I1214 10:12:23.686496 24007 net.cpp:381] lstm1_gate_input_6 <- W_hc_h_5
I1214 10:12:23.686501 24007 net.cpp:381] lstm1_gate_input_6 <- W_xc_x_6
I1214 10:12:23.686508 24007 net.cpp:339] lstm1_gate_input_6 -> gate_input_6
I1214 10:12:23.686516 24007 net.cpp:113] Setting up lstm1_gate_input_6
I1214 10:12:23.686522 24007 net.cpp:120] Top shape: 1 3 1024 (3072)
I1214 10:12:23.686527 24007 layer_factory.hpp:74] Creating layer lstm1_unit_6
I1214 10:12:23.686534 24007 net.cpp:84] Creating Layer lstm1_unit_6
I1214 10:12:23.686538 24007 net.cpp:381] lstm1_unit_6 <- c_5
I1214 10:12:23.686544 24007 net.cpp:381] lstm1_unit_6 <- gate_input_6
I1214 10:12:23.686549 24007 net.cpp:381] lstm1_unit_6 <- cont_6_lstm1_cont_slice_5_split_1
I1214 10:12:23.686556 24007 net.cpp:339] lstm1_unit_6 -> c_6
I1214 10:12:23.686564 24007 net.cpp:339] lstm1_unit_6 -> h_6
I1214 10:12:23.686570 24007 net.cpp:113] Setting up lstm1_unit_6
I1214 10:12:23.686578 24007 net.cpp:120] Top shape: 1 3 256 (768)
I1214 10:12:23.686583 24007 net.cpp:120] Top shape: 1 3 256 (768)
I1214 10:12:23.686589 24007 layer_factory.hpp:74] Creating layer h_6_lstm1_unit_6_1_split
I1214 10:12:23.686594 24007 net.cpp:84] Creating Layer h_6_lstm1_unit_6_1_split
I1214 10:12:23.686599 24007 net.cpp:381] h_6_lstm1_unit_6_1_split <- h_6
I1214 10:12:23.686606 24007 net.cpp:339] h_6_lstm1_unit_6_1_split -> h_6_lstm1_unit_6_1_split_0
I1214 10:12:23.686614 24007 net.cpp:339] h_6_lstm1_unit_6_1_split -> h_6_lstm1_unit_6_1_split_1
I1214 10:12:23.686620 24007 net.cpp:113] Setting up h_6_lstm1_unit_6_1_split
I1214 10:12:23.686627 24007 net.cpp:120] Top shape: 1 3 256 (768)
I1214 10:12:23.686633 24007 net.cpp:120] Top shape: 1 3 256 (768)
I1214 10:12:23.686637 24007 layer_factory.hpp:74] Creating layer lstm1_h_conted_6
I1214 10:12:23.686643 24007 net.cpp:84] Creating Layer lstm1_h_conted_6
I1214 10:12:23.686648 24007 net.cpp:381] lstm1_h_conted_6 <- h_6_lstm1_unit_6_1_split_0
I1214 10:12:23.686655 24007 net.cpp:381] lstm1_h_conted_6 <- cont_7_lstm1_cont_slice_6_split_0
I1214 10:12:23.686661 24007 net.cpp:339] lstm1_h_conted_6 -> h_conted_6
I1214 10:12:23.686667 24007 net.cpp:113] Setting up lstm1_h_conted_6
I1214 10:12:23.686677 24007 net.cpp:120] Top shape: 1 3 256 (768)
I1214 10:12:23.686682 24007 layer_factory.hpp:74] Creating layer lstm1_transform_7
I1214 10:12:23.686689 24007 net.cpp:84] Creating Layer lstm1_transform_7
I1214 10:12:23.686694 24007 net.cpp:381] lstm1_transform_7 <- h_conted_6
I1214 10:12:23.686702 24007 net.cpp:339] lstm1_transform_7 -> W_hc_h_6
I1214 10:12:23.686709 24007 net.cpp:113] Setting up lstm1_transform_7
I1214 10:12:23.688344 24007 net.cpp:120] Top shape: 1 3 1024 (3072)
I1214 10:12:23.688355 24007 net.cpp:425] Sharing parameters 'W_hc' owned by layer 'lstm1_transform_1', param index 0
I1214 10:12:23.688360 24007 layer_factory.hpp:74] Creating layer lstm1_gate_input_7
I1214 10:12:23.688367 24007 net.cpp:84] Creating Layer lstm1_gate_input_7
I1214 10:12:23.688372 24007 net.cpp:381] lstm1_gate_input_7 <- W_hc_h_6
I1214 10:12:23.688379 24007 net.cpp:381] lstm1_gate_input_7 <- W_xc_x_7
I1214 10:12:23.688385 24007 net.cpp:339] lstm1_gate_input_7 -> gate_input_7
I1214 10:12:23.688391 24007 net.cpp:113] Setting up lstm1_gate_input_7
I1214 10:12:23.688400 24007 net.cpp:120] Top shape: 1 3 1024 (3072)
I1214 10:12:23.688405 24007 layer_factory.hpp:74] Creating layer lstm1_unit_7
I1214 10:12:23.688410 24007 net.cpp:84] Creating Layer lstm1_unit_7
I1214 10:12:23.688416 24007 net.cpp:381] lstm1_unit_7 <- c_6
I1214 10:12:23.688421 24007 net.cpp:381] lstm1_unit_7 <- gate_input_7
I1214 10:12:23.688427 24007 net.cpp:381] lstm1_unit_7 <- cont_7_lstm1_cont_slice_6_split_1
I1214 10:12:23.688433 24007 net.cpp:339] lstm1_unit_7 -> c_7
I1214 10:12:23.688441 24007 net.cpp:339] lstm1_unit_7 -> h_7
I1214 10:12:23.688447 24007 net.cpp:113] Setting up lstm1_unit_7
I1214 10:12:23.688455 24007 net.cpp:120] Top shape: 1 3 256 (768)
I1214 10:12:23.688462 24007 net.cpp:120] Top shape: 1 3 256 (768)
I1214 10:12:23.688467 24007 layer_factory.hpp:74] Creating layer h_7_lstm1_unit_7_1_split
I1214 10:12:23.688473 24007 net.cpp:84] Creating Layer h_7_lstm1_unit_7_1_split
I1214 10:12:23.688477 24007 net.cpp:381] h_7_lstm1_unit_7_1_split <- h_7
I1214 10:12:23.688483 24007 net.cpp:339] h_7_lstm1_unit_7_1_split -> h_7_lstm1_unit_7_1_split_0
I1214 10:12:23.688491 24007 net.cpp:339] h_7_lstm1_unit_7_1_split -> h_7_lstm1_unit_7_1_split_1
I1214 10:12:23.688498 24007 net.cpp:113] Setting up h_7_lstm1_unit_7_1_split
I1214 10:12:23.688504 24007 net.cpp:120] Top shape: 1 3 256 (768)
I1214 10:12:23.688510 24007 net.cpp:120] Top shape: 1 3 256 (768)
I1214 10:12:23.688515 24007 layer_factory.hpp:74] Creating layer lstm1_h_conted_7
I1214 10:12:23.688521 24007 net.cpp:84] Creating Layer lstm1_h_conted_7
I1214 10:12:23.688526 24007 net.cpp:381] lstm1_h_conted_7 <- h_7_lstm1_unit_7_1_split_0
I1214 10:12:23.688531 24007 net.cpp:381] lstm1_h_conted_7 <- cont_8_lstm1_cont_slice_7_split_0
I1214 10:12:23.688539 24007 net.cpp:339] lstm1_h_conted_7 -> h_conted_7
I1214 10:12:23.688544 24007 net.cpp:113] Setting up lstm1_h_conted_7
I1214 10:12:23.688551 24007 net.cpp:120] Top shape: 1 3 256 (768)
I1214 10:12:23.688555 24007 layer_factory.hpp:74] Creating layer lstm1_transform_8
I1214 10:12:23.688563 24007 net.cpp:84] Creating Layer lstm1_transform_8
I1214 10:12:23.688570 24007 net.cpp:381] lstm1_transform_8 <- h_conted_7
I1214 10:12:23.688576 24007 net.cpp:339] lstm1_transform_8 -> W_hc_h_7
I1214 10:12:23.688583 24007 net.cpp:113] Setting up lstm1_transform_8
I1214 10:12:23.690212 24007 net.cpp:120] Top shape: 1 3 1024 (3072)
I1214 10:12:23.690222 24007 net.cpp:425] Sharing parameters 'W_hc' owned by layer 'lstm1_transform_1', param index 0
I1214 10:12:23.690227 24007 layer_factory.hpp:74] Creating layer lstm1_gate_input_8
I1214 10:12:23.690233 24007 net.cpp:84] Creating Layer lstm1_gate_input_8
I1214 10:12:23.690238 24007 net.cpp:381] lstm1_gate_input_8 <- W_hc_h_7
I1214 10:12:23.690243 24007 net.cpp:381] lstm1_gate_input_8 <- W_xc_x_8
I1214 10:12:23.690250 24007 net.cpp:339] lstm1_gate_input_8 -> gate_input_8
I1214 10:12:23.690258 24007 net.cpp:113] Setting up lstm1_gate_input_8
I1214 10:12:23.690264 24007 net.cpp:120] Top shape: 1 3 1024 (3072)
I1214 10:12:23.690274 24007 layer_factory.hpp:74] Creating layer lstm1_unit_8
I1214 10:12:23.690280 24007 net.cpp:84] Creating Layer lstm1_unit_8
I1214 10:12:23.690285 24007 net.cpp:381] lstm1_unit_8 <- c_7
I1214 10:12:23.690291 24007 net.cpp:381] lstm1_unit_8 <- gate_input_8
I1214 10:12:23.690296 24007 net.cpp:381] lstm1_unit_8 <- cont_8_lstm1_cont_slice_7_split_1
I1214 10:12:23.690304 24007 net.cpp:339] lstm1_unit_8 -> c_8
I1214 10:12:23.690312 24007 net.cpp:339] lstm1_unit_8 -> h_8
I1214 10:12:23.690318 24007 net.cpp:113] Setting up lstm1_unit_8
I1214 10:12:23.690325 24007 net.cpp:120] Top shape: 1 3 256 (768)
I1214 10:12:23.690332 24007 net.cpp:120] Top shape: 1 3 256 (768)
I1214 10:12:23.690336 24007 layer_factory.hpp:74] Creating layer h_8_lstm1_unit_8_1_split
I1214 10:12:23.690343 24007 net.cpp:84] Creating Layer h_8_lstm1_unit_8_1_split
I1214 10:12:23.690347 24007 net.cpp:381] h_8_lstm1_unit_8_1_split <- h_8
I1214 10:12:23.690353 24007 net.cpp:339] h_8_lstm1_unit_8_1_split -> h_8_lstm1_unit_8_1_split_0
I1214 10:12:23.690361 24007 net.cpp:339] h_8_lstm1_unit_8_1_split -> h_8_lstm1_unit_8_1_split_1
I1214 10:12:23.690367 24007 net.cpp:113] Setting up h_8_lstm1_unit_8_1_split
I1214 10:12:23.690374 24007 net.cpp:120] Top shape: 1 3 256 (768)
I1214 10:12:23.690381 24007 net.cpp:120] Top shape: 1 3 256 (768)
I1214 10:12:23.690385 24007 layer_factory.hpp:74] Creating layer lstm1_h_conted_8
I1214 10:12:23.690392 24007 net.cpp:84] Creating Layer lstm1_h_conted_8
I1214 10:12:23.690397 24007 net.cpp:381] lstm1_h_conted_8 <- h_8_lstm1_unit_8_1_split_0
I1214 10:12:23.690402 24007 net.cpp:381] lstm1_h_conted_8 <- cont_9_lstm1_cont_slice_8_split_0
I1214 10:12:23.690409 24007 net.cpp:339] lstm1_h_conted_8 -> h_conted_8
I1214 10:12:23.690417 24007 net.cpp:113] Setting up lstm1_h_conted_8
I1214 10:12:23.690423 24007 net.cpp:120] Top shape: 1 3 256 (768)
I1214 10:12:23.690428 24007 layer_factory.hpp:74] Creating layer lstm1_transform_9
I1214 10:12:23.690434 24007 net.cpp:84] Creating Layer lstm1_transform_9
I1214 10:12:23.690439 24007 net.cpp:381] lstm1_transform_9 <- h_conted_8
I1214 10:12:23.690446 24007 net.cpp:339] lstm1_transform_9 -> W_hc_h_8
I1214 10:12:23.690453 24007 net.cpp:113] Setting up lstm1_transform_9
I1214 10:12:23.692215 24007 net.cpp:120] Top shape: 1 3 1024 (3072)
I1214 10:12:23.692225 24007 net.cpp:425] Sharing parameters 'W_hc' owned by layer 'lstm1_transform_1', param index 0
I1214 10:12:23.692230 24007 layer_factory.hpp:74] Creating layer lstm1_gate_input_9
I1214 10:12:23.692237 24007 net.cpp:84] Creating Layer lstm1_gate_input_9
I1214 10:12:23.692242 24007 net.cpp:381] lstm1_gate_input_9 <- W_hc_h_8
I1214 10:12:23.692248 24007 net.cpp:381] lstm1_gate_input_9 <- W_xc_x_9
I1214 10:12:23.692255 24007 net.cpp:339] lstm1_gate_input_9 -> gate_input_9
I1214 10:12:23.692263 24007 net.cpp:113] Setting up lstm1_gate_input_9
I1214 10:12:23.692270 24007 net.cpp:120] Top shape: 1 3 1024 (3072)
I1214 10:12:23.692276 24007 layer_factory.hpp:74] Creating layer lstm1_unit_9
I1214 10:12:23.692281 24007 net.cpp:84] Creating Layer lstm1_unit_9
I1214 10:12:23.692286 24007 net.cpp:381] lstm1_unit_9 <- c_8
I1214 10:12:23.692292 24007 net.cpp:381] lstm1_unit_9 <- gate_input_9
I1214 10:12:23.692297 24007 net.cpp:381] lstm1_unit_9 <- cont_9_lstm1_cont_slice_8_split_1
I1214 10:12:23.692304 24007 net.cpp:339] lstm1_unit_9 -> c_9
I1214 10:12:23.692318 24007 net.cpp:339] lstm1_unit_9 -> h_9
I1214 10:12:23.692327 24007 net.cpp:113] Setting up lstm1_unit_9
I1214 10:12:23.692333 24007 net.cpp:120] Top shape: 1 3 256 (768)
I1214 10:12:23.692340 24007 net.cpp:120] Top shape: 1 3 256 (768)
I1214 10:12:23.692345 24007 layer_factory.hpp:74] Creating layer h_9_lstm1_unit_9_1_split
I1214 10:12:23.692351 24007 net.cpp:84] Creating Layer h_9_lstm1_unit_9_1_split
I1214 10:12:23.692356 24007 net.cpp:381] h_9_lstm1_unit_9_1_split <- h_9
I1214 10:12:23.692363 24007 net.cpp:339] h_9_lstm1_unit_9_1_split -> h_9_lstm1_unit_9_1_split_0
I1214 10:12:23.692370 24007 net.cpp:339] h_9_lstm1_unit_9_1_split -> h_9_lstm1_unit_9_1_split_1
I1214 10:12:23.692376 24007 net.cpp:113] Setting up h_9_lstm1_unit_9_1_split
I1214 10:12:23.692394 24007 net.cpp:120] Top shape: 1 3 256 (768)
I1214 10:12:23.692400 24007 net.cpp:120] Top shape: 1 3 256 (768)
I1214 10:12:23.692405 24007 layer_factory.hpp:74] Creating layer lstm1_h_conted_9
I1214 10:12:23.692416 24007 net.cpp:84] Creating Layer lstm1_h_conted_9
I1214 10:12:23.692422 24007 net.cpp:381] lstm1_h_conted_9 <- h_9_lstm1_unit_9_1_split_0
I1214 10:12:23.692428 24007 net.cpp:381] lstm1_h_conted_9 <- cont_10_lstm1_cont_slice_9_split_0
I1214 10:12:23.692435 24007 net.cpp:339] lstm1_h_conted_9 -> h_conted_9
I1214 10:12:23.692442 24007 net.cpp:113] Setting up lstm1_h_conted_9
I1214 10:12:23.692448 24007 net.cpp:120] Top shape: 1 3 256 (768)
I1214 10:12:23.692455 24007 layer_factory.hpp:74] Creating layer lstm1_transform_10
I1214 10:12:23.692461 24007 net.cpp:84] Creating Layer lstm1_transform_10
I1214 10:12:23.692466 24007 net.cpp:381] lstm1_transform_10 <- h_conted_9
I1214 10:12:23.692472 24007 net.cpp:339] lstm1_transform_10 -> W_hc_h_9
I1214 10:12:23.692479 24007 net.cpp:113] Setting up lstm1_transform_10
I1214 10:12:23.694226 24007 net.cpp:120] Top shape: 1 3 1024 (3072)
I1214 10:12:23.694236 24007 net.cpp:425] Sharing parameters 'W_hc' owned by layer 'lstm1_transform_1', param index 0
I1214 10:12:23.694241 24007 layer_factory.hpp:74] Creating layer lstm1_gate_input_10
I1214 10:12:23.694248 24007 net.cpp:84] Creating Layer lstm1_gate_input_10
I1214 10:12:23.694253 24007 net.cpp:381] lstm1_gate_input_10 <- W_hc_h_9
I1214 10:12:23.694259 24007 net.cpp:381] lstm1_gate_input_10 <- W_xc_x_10
I1214 10:12:23.694265 24007 net.cpp:339] lstm1_gate_input_10 -> gate_input_10
I1214 10:12:23.694272 24007 net.cpp:113] Setting up lstm1_gate_input_10
I1214 10:12:23.694279 24007 net.cpp:120] Top shape: 1 3 1024 (3072)
I1214 10:12:23.694284 24007 layer_factory.hpp:74] Creating layer lstm1_unit_10
I1214 10:12:23.694291 24007 net.cpp:84] Creating Layer lstm1_unit_10
I1214 10:12:23.694296 24007 net.cpp:381] lstm1_unit_10 <- c_9
I1214 10:12:23.694301 24007 net.cpp:381] lstm1_unit_10 <- gate_input_10
I1214 10:12:23.694308 24007 net.cpp:381] lstm1_unit_10 <- cont_10_lstm1_cont_slice_9_split_1
I1214 10:12:23.694314 24007 net.cpp:339] lstm1_unit_10 -> c_10
I1214 10:12:23.694321 24007 net.cpp:339] lstm1_unit_10 -> h_10
I1214 10:12:23.694329 24007 net.cpp:113] Setting up lstm1_unit_10
I1214 10:12:23.694335 24007 net.cpp:120] Top shape: 1 3 256 (768)
I1214 10:12:23.694342 24007 net.cpp:120] Top shape: 1 3 256 (768)
I1214 10:12:23.694347 24007 layer_factory.hpp:74] Creating layer h_10_lstm1_unit_10_1_split
I1214 10:12:23.694355 24007 net.cpp:84] Creating Layer h_10_lstm1_unit_10_1_split
I1214 10:12:23.694358 24007 net.cpp:381] h_10_lstm1_unit_10_1_split <- h_10
I1214 10:12:23.694365 24007 net.cpp:339] h_10_lstm1_unit_10_1_split -> h_10_lstm1_unit_10_1_split_0
I1214 10:12:23.694372 24007 net.cpp:339] h_10_lstm1_unit_10_1_split -> h_10_lstm1_unit_10_1_split_1
I1214 10:12:23.694380 24007 net.cpp:113] Setting up h_10_lstm1_unit_10_1_split
I1214 10:12:23.694386 24007 net.cpp:120] Top shape: 1 3 256 (768)
I1214 10:12:23.694392 24007 net.cpp:120] Top shape: 1 3 256 (768)
I1214 10:12:23.694397 24007 layer_factory.hpp:74] Creating layer lstm1_h_conted_10
I1214 10:12:23.694403 24007 net.cpp:84] Creating Layer lstm1_h_conted_10
I1214 10:12:23.694408 24007 net.cpp:381] lstm1_h_conted_10 <- h_10_lstm1_unit_10_1_split_0
I1214 10:12:23.694414 24007 net.cpp:381] lstm1_h_conted_10 <- cont_11_lstm1_cont_slice_10_split_0
I1214 10:12:23.694422 24007 net.cpp:339] lstm1_h_conted_10 -> h_conted_10
I1214 10:12:23.694428 24007 net.cpp:113] Setting up lstm1_h_conted_10
I1214 10:12:23.694435 24007 net.cpp:120] Top shape: 1 3 256 (768)
I1214 10:12:23.694440 24007 layer_factory.hpp:74] Creating layer lstm1_transform_11
I1214 10:12:23.694447 24007 net.cpp:84] Creating Layer lstm1_transform_11
I1214 10:12:23.694453 24007 net.cpp:381] lstm1_transform_11 <- h_conted_10
I1214 10:12:23.694459 24007 net.cpp:339] lstm1_transform_11 -> W_hc_h_10
I1214 10:12:23.694468 24007 net.cpp:113] Setting up lstm1_transform_11
I1214 10:12:23.696104 24007 net.cpp:120] Top shape: 1 3 1024 (3072)
I1214 10:12:23.696113 24007 net.cpp:425] Sharing parameters 'W_hc' owned by layer 'lstm1_transform_1', param index 0
I1214 10:12:23.696118 24007 layer_factory.hpp:74] Creating layer lstm1_gate_input_11
I1214 10:12:23.696125 24007 net.cpp:84] Creating Layer lstm1_gate_input_11
I1214 10:12:23.696130 24007 net.cpp:381] lstm1_gate_input_11 <- W_hc_h_10
I1214 10:12:23.696137 24007 net.cpp:381] lstm1_gate_input_11 <- W_xc_x_11
I1214 10:12:23.696143 24007 net.cpp:339] lstm1_gate_input_11 -> gate_input_11
I1214 10:12:23.696151 24007 net.cpp:113] Setting up lstm1_gate_input_11
I1214 10:12:23.696157 24007 net.cpp:120] Top shape: 1 3 1024 (3072)
I1214 10:12:23.696163 24007 layer_factory.hpp:74] Creating layer lstm1_unit_11
I1214 10:12:23.696169 24007 net.cpp:84] Creating Layer lstm1_unit_11
I1214 10:12:23.696174 24007 net.cpp:381] lstm1_unit_11 <- c_10
I1214 10:12:23.696180 24007 net.cpp:381] lstm1_unit_11 <- gate_input_11
I1214 10:12:23.696185 24007 net.cpp:381] lstm1_unit_11 <- cont_11_lstm1_cont_slice_10_split_1
I1214 10:12:23.696192 24007 net.cpp:339] lstm1_unit_11 -> c_11
I1214 10:12:23.696202 24007 net.cpp:339] lstm1_unit_11 -> h_11
I1214 10:12:23.696210 24007 net.cpp:113] Setting up lstm1_unit_11
I1214 10:12:23.696218 24007 net.cpp:120] Top shape: 1 3 256 (768)
I1214 10:12:23.696225 24007 net.cpp:120] Top shape: 1 3 256 (768)
I1214 10:12:23.696229 24007 layer_factory.hpp:74] Creating layer h_11_lstm1_unit_11_1_split
I1214 10:12:23.696236 24007 net.cpp:84] Creating Layer h_11_lstm1_unit_11_1_split
I1214 10:12:23.696241 24007 net.cpp:381] h_11_lstm1_unit_11_1_split <- h_11
I1214 10:12:23.696247 24007 net.cpp:339] h_11_lstm1_unit_11_1_split -> h_11_lstm1_unit_11_1_split_0
I1214 10:12:23.696254 24007 net.cpp:339] h_11_lstm1_unit_11_1_split -> h_11_lstm1_unit_11_1_split_1
I1214 10:12:23.696261 24007 net.cpp:113] Setting up h_11_lstm1_unit_11_1_split
I1214 10:12:23.696269 24007 net.cpp:120] Top shape: 1 3 256 (768)
I1214 10:12:23.696274 24007 net.cpp:120] Top shape: 1 3 256 (768)
I1214 10:12:23.696279 24007 layer_factory.hpp:74] Creating layer lstm1_h_conted_11
I1214 10:12:23.696285 24007 net.cpp:84] Creating Layer lstm1_h_conted_11
I1214 10:12:23.696290 24007 net.cpp:381] lstm1_h_conted_11 <- h_11_lstm1_unit_11_1_split_0
I1214 10:12:23.696296 24007 net.cpp:381] lstm1_h_conted_11 <- cont_12_lstm1_cont_slice_11_split_0
I1214 10:12:23.696302 24007 net.cpp:339] lstm1_h_conted_11 -> h_conted_11
I1214 10:12:23.696310 24007 net.cpp:113] Setting up lstm1_h_conted_11
I1214 10:12:23.696316 24007 net.cpp:120] Top shape: 1 3 256 (768)
I1214 10:12:23.696321 24007 layer_factory.hpp:74] Creating layer lstm1_transform_12
I1214 10:12:23.696328 24007 net.cpp:84] Creating Layer lstm1_transform_12
I1214 10:12:23.696333 24007 net.cpp:381] lstm1_transform_12 <- h_conted_11
I1214 10:12:23.696341 24007 net.cpp:339] lstm1_transform_12 -> W_hc_h_11
I1214 10:12:23.696348 24007 net.cpp:113] Setting up lstm1_transform_12
I1214 10:12:23.697793 24007 net.cpp:120] Top shape: 1 3 1024 (3072)
I1214 10:12:23.697801 24007 net.cpp:425] Sharing parameters 'W_hc' owned by layer 'lstm1_transform_1', param index 0
I1214 10:12:23.697806 24007 layer_factory.hpp:74] Creating layer lstm1_gate_input_12
I1214 10:12:23.697815 24007 net.cpp:84] Creating Layer lstm1_gate_input_12
I1214 10:12:23.697821 24007 net.cpp:381] lstm1_gate_input_12 <- W_hc_h_11
I1214 10:12:23.697827 24007 net.cpp:381] lstm1_gate_input_12 <- W_xc_x_12
I1214 10:12:23.697834 24007 net.cpp:339] lstm1_gate_input_12 -> gate_input_12
I1214 10:12:23.697840 24007 net.cpp:113] Setting up lstm1_gate_input_12
I1214 10:12:23.697847 24007 net.cpp:120] Top shape: 1 3 1024 (3072)
I1214 10:12:23.697854 24007 layer_factory.hpp:74] Creating layer lstm1_unit_12
I1214 10:12:23.697860 24007 net.cpp:84] Creating Layer lstm1_unit_12
I1214 10:12:23.697865 24007 net.cpp:381] lstm1_unit_12 <- c_11
I1214 10:12:23.697870 24007 net.cpp:381] lstm1_unit_12 <- gate_input_12
I1214 10:12:23.697875 24007 net.cpp:381] lstm1_unit_12 <- cont_12_lstm1_cont_slice_11_split_1
I1214 10:12:23.697885 24007 net.cpp:339] lstm1_unit_12 -> c_12
I1214 10:12:23.697893 24007 net.cpp:339] lstm1_unit_12 -> h_12
I1214 10:12:23.697901 24007 net.cpp:113] Setting up lstm1_unit_12
I1214 10:12:23.697908 24007 net.cpp:120] Top shape: 1 3 256 (768)
I1214 10:12:23.697913 24007 net.cpp:120] Top shape: 1 3 256 (768)
I1214 10:12:23.697918 24007 layer_factory.hpp:74] Creating layer h_12_lstm1_unit_12_1_split
I1214 10:12:23.697924 24007 net.cpp:84] Creating Layer h_12_lstm1_unit_12_1_split
I1214 10:12:23.697929 24007 net.cpp:381] h_12_lstm1_unit_12_1_split <- h_12
I1214 10:12:23.697935 24007 net.cpp:339] h_12_lstm1_unit_12_1_split -> h_12_lstm1_unit_12_1_split_0
I1214 10:12:23.697943 24007 net.cpp:339] h_12_lstm1_unit_12_1_split -> h_12_lstm1_unit_12_1_split_1
I1214 10:12:23.697950 24007 net.cpp:113] Setting up h_12_lstm1_unit_12_1_split
I1214 10:12:23.697957 24007 net.cpp:120] Top shape: 1 3 256 (768)
I1214 10:12:23.697962 24007 net.cpp:120] Top shape: 1 3 256 (768)
I1214 10:12:23.697968 24007 layer_factory.hpp:74] Creating layer lstm1_h_conted_12
I1214 10:12:23.697973 24007 net.cpp:84] Creating Layer lstm1_h_conted_12
I1214 10:12:23.697978 24007 net.cpp:381] lstm1_h_conted_12 <- h_12_lstm1_unit_12_1_split_0
I1214 10:12:23.697984 24007 net.cpp:381] lstm1_h_conted_12 <- cont_13_lstm1_cont_slice_12_split_0
I1214 10:12:23.697990 24007 net.cpp:339] lstm1_h_conted_12 -> h_conted_12
I1214 10:12:23.697998 24007 net.cpp:113] Setting up lstm1_h_conted_12
I1214 10:12:23.698004 24007 net.cpp:120] Top shape: 1 3 256 (768)
I1214 10:12:23.698009 24007 layer_factory.hpp:74] Creating layer lstm1_transform_13
I1214 10:12:23.698016 24007 net.cpp:84] Creating Layer lstm1_transform_13
I1214 10:12:23.698021 24007 net.cpp:381] lstm1_transform_13 <- h_conted_12
I1214 10:12:23.698027 24007 net.cpp:339] lstm1_transform_13 -> W_hc_h_12
I1214 10:12:23.698035 24007 net.cpp:113] Setting up lstm1_transform_13
I1214 10:12:23.699491 24007 net.cpp:120] Top shape: 1 3 1024 (3072)
I1214 10:12:23.699501 24007 net.cpp:425] Sharing parameters 'W_hc' owned by layer 'lstm1_transform_1', param index 0
I1214 10:12:23.699506 24007 layer_factory.hpp:74] Creating layer lstm1_gate_input_13
I1214 10:12:23.699512 24007 net.cpp:84] Creating Layer lstm1_gate_input_13
I1214 10:12:23.699517 24007 net.cpp:381] lstm1_gate_input_13 <- W_hc_h_12
I1214 10:12:23.699522 24007 net.cpp:381] lstm1_gate_input_13 <- W_xc_x_13
I1214 10:12:23.699528 24007 net.cpp:339] lstm1_gate_input_13 -> gate_input_13
I1214 10:12:23.699535 24007 net.cpp:113] Setting up lstm1_gate_input_13
I1214 10:12:23.699543 24007 net.cpp:120] Top shape: 1 3 1024 (3072)
I1214 10:12:23.699548 24007 layer_factory.hpp:74] Creating layer lstm1_unit_13
I1214 10:12:23.699554 24007 net.cpp:84] Creating Layer lstm1_unit_13
I1214 10:12:23.699560 24007 net.cpp:381] lstm1_unit_13 <- c_12
I1214 10:12:23.699565 24007 net.cpp:381] lstm1_unit_13 <- gate_input_13
I1214 10:12:23.699571 24007 net.cpp:381] lstm1_unit_13 <- cont_13_lstm1_cont_slice_12_split_1
I1214 10:12:23.699578 24007 net.cpp:339] lstm1_unit_13 -> c_13
I1214 10:12:23.699584 24007 net.cpp:339] lstm1_unit_13 -> h_13
I1214 10:12:23.699592 24007 net.cpp:113] Setting up lstm1_unit_13
I1214 10:12:23.699599 24007 net.cpp:120] Top shape: 1 3 256 (768)
I1214 10:12:23.699604 24007 net.cpp:120] Top shape: 1 3 256 (768)
I1214 10:12:23.699609 24007 layer_factory.hpp:74] Creating layer h_13_lstm1_unit_13_1_split
I1214 10:12:23.699615 24007 net.cpp:84] Creating Layer h_13_lstm1_unit_13_1_split
I1214 10:12:23.699620 24007 net.cpp:381] h_13_lstm1_unit_13_1_split <- h_13
I1214 10:12:23.699626 24007 net.cpp:339] h_13_lstm1_unit_13_1_split -> h_13_lstm1_unit_13_1_split_0
I1214 10:12:23.699633 24007 net.cpp:339] h_13_lstm1_unit_13_1_split -> h_13_lstm1_unit_13_1_split_1
I1214 10:12:23.699640 24007 net.cpp:113] Setting up h_13_lstm1_unit_13_1_split
I1214 10:12:23.699646 24007 net.cpp:120] Top shape: 1 3 256 (768)
I1214 10:12:23.699653 24007 net.cpp:120] Top shape: 1 3 256 (768)
I1214 10:12:23.699658 24007 layer_factory.hpp:74] Creating layer lstm1_h_conted_13
I1214 10:12:23.699664 24007 net.cpp:84] Creating Layer lstm1_h_conted_13
I1214 10:12:23.699671 24007 net.cpp:381] lstm1_h_conted_13 <- h_13_lstm1_unit_13_1_split_0
I1214 10:12:23.699676 24007 net.cpp:381] lstm1_h_conted_13 <- cont_14_lstm1_cont_slice_13_split_0
I1214 10:12:23.699682 24007 net.cpp:339] lstm1_h_conted_13 -> h_conted_13
I1214 10:12:23.699690 24007 net.cpp:113] Setting up lstm1_h_conted_13
I1214 10:12:23.699698 24007 net.cpp:120] Top shape: 1 3 256 (768)
I1214 10:12:23.699703 24007 layer_factory.hpp:74] Creating layer lstm1_transform_14
I1214 10:12:23.699710 24007 net.cpp:84] Creating Layer lstm1_transform_14
I1214 10:12:23.699715 24007 net.cpp:381] lstm1_transform_14 <- h_conted_13
I1214 10:12:23.699722 24007 net.cpp:339] lstm1_transform_14 -> W_hc_h_13
I1214 10:12:23.699728 24007 net.cpp:113] Setting up lstm1_transform_14
I1214 10:12:23.701360 24007 net.cpp:120] Top shape: 1 3 1024 (3072)
I1214 10:12:23.701370 24007 net.cpp:425] Sharing parameters 'W_hc' owned by layer 'lstm1_transform_1', param index 0
I1214 10:12:23.701375 24007 layer_factory.hpp:74] Creating layer lstm1_gate_input_14
I1214 10:12:23.701382 24007 net.cpp:84] Creating Layer lstm1_gate_input_14
I1214 10:12:23.701387 24007 net.cpp:381] lstm1_gate_input_14 <- W_hc_h_13
I1214 10:12:23.701393 24007 net.cpp:381] lstm1_gate_input_14 <- W_xc_x_14
I1214 10:12:23.701400 24007 net.cpp:339] lstm1_gate_input_14 -> gate_input_14
I1214 10:12:23.701406 24007 net.cpp:113] Setting up lstm1_gate_input_14
I1214 10:12:23.701414 24007 net.cpp:120] Top shape: 1 3 1024 (3072)
I1214 10:12:23.701419 24007 layer_factory.hpp:74] Creating layer lstm1_unit_14
I1214 10:12:23.701426 24007 net.cpp:84] Creating Layer lstm1_unit_14
I1214 10:12:23.701431 24007 net.cpp:381] lstm1_unit_14 <- c_13
I1214 10:12:23.701436 24007 net.cpp:381] lstm1_unit_14 <- gate_input_14
I1214 10:12:23.701442 24007 net.cpp:381] lstm1_unit_14 <- cont_14_lstm1_cont_slice_13_split_1
I1214 10:12:23.701448 24007 net.cpp:339] lstm1_unit_14 -> c_14
I1214 10:12:23.701455 24007 net.cpp:339] lstm1_unit_14 -> h_14
I1214 10:12:23.701463 24007 net.cpp:113] Setting up lstm1_unit_14
I1214 10:12:23.701469 24007 net.cpp:120] Top shape: 1 3 256 (768)
I1214 10:12:23.701475 24007 net.cpp:120] Top shape: 1 3 256 (768)
I1214 10:12:23.701480 24007 layer_factory.hpp:74] Creating layer h_14_lstm1_unit_14_1_split
I1214 10:12:23.701486 24007 net.cpp:84] Creating Layer h_14_lstm1_unit_14_1_split
I1214 10:12:23.701491 24007 net.cpp:381] h_14_lstm1_unit_14_1_split <- h_14
I1214 10:12:23.701498 24007 net.cpp:339] h_14_lstm1_unit_14_1_split -> h_14_lstm1_unit_14_1_split_0
I1214 10:12:23.701504 24007 net.cpp:339] h_14_lstm1_unit_14_1_split -> h_14_lstm1_unit_14_1_split_1
I1214 10:12:23.701511 24007 net.cpp:113] Setting up h_14_lstm1_unit_14_1_split
I1214 10:12:23.701519 24007 net.cpp:120] Top shape: 1 3 256 (768)
I1214 10:12:23.701524 24007 net.cpp:120] Top shape: 1 3 256 (768)
I1214 10:12:23.701529 24007 layer_factory.hpp:74] Creating layer lstm1_h_conted_14
I1214 10:12:23.701534 24007 net.cpp:84] Creating Layer lstm1_h_conted_14
I1214 10:12:23.701539 24007 net.cpp:381] lstm1_h_conted_14 <- h_14_lstm1_unit_14_1_split_0
I1214 10:12:23.701545 24007 net.cpp:381] lstm1_h_conted_14 <- cont_15_lstm1_cont_slice_14_split_0
I1214 10:12:23.701551 24007 net.cpp:339] lstm1_h_conted_14 -> h_conted_14
I1214 10:12:23.701558 24007 net.cpp:113] Setting up lstm1_h_conted_14
I1214 10:12:23.701565 24007 net.cpp:120] Top shape: 1 3 256 (768)
I1214 10:12:23.701570 24007 layer_factory.hpp:74] Creating layer lstm1_transform_15
I1214 10:12:23.701576 24007 net.cpp:84] Creating Layer lstm1_transform_15
I1214 10:12:23.701581 24007 net.cpp:381] lstm1_transform_15 <- h_conted_14
I1214 10:12:23.701587 24007 net.cpp:339] lstm1_transform_15 -> W_hc_h_14
I1214 10:12:23.701594 24007 net.cpp:113] Setting up lstm1_transform_15
I1214 10:12:23.703083 24007 net.cpp:120] Top shape: 1 3 1024 (3072)
I1214 10:12:23.703095 24007 net.cpp:425] Sharing parameters 'W_hc' owned by layer 'lstm1_transform_1', param index 0
I1214 10:12:23.703101 24007 layer_factory.hpp:74] Creating layer lstm1_gate_input_15
I1214 10:12:23.703111 24007 net.cpp:84] Creating Layer lstm1_gate_input_15
I1214 10:12:23.703116 24007 net.cpp:381] lstm1_gate_input_15 <- W_hc_h_14
I1214 10:12:23.703122 24007 net.cpp:381] lstm1_gate_input_15 <- W_xc_x_15
I1214 10:12:23.703130 24007 net.cpp:339] lstm1_gate_input_15 -> gate_input_15
I1214 10:12:23.703137 24007 net.cpp:113] Setting up lstm1_gate_input_15
I1214 10:12:23.703145 24007 net.cpp:120] Top shape: 1 3 1024 (3072)
I1214 10:12:23.703150 24007 layer_factory.hpp:74] Creating layer lstm1_unit_15
I1214 10:12:23.703156 24007 net.cpp:84] Creating Layer lstm1_unit_15
I1214 10:12:23.703161 24007 net.cpp:381] lstm1_unit_15 <- c_14
I1214 10:12:23.703167 24007 net.cpp:381] lstm1_unit_15 <- gate_input_15
I1214 10:12:23.703173 24007 net.cpp:381] lstm1_unit_15 <- cont_15_lstm1_cont_slice_14_split_1
I1214 10:12:23.703181 24007 net.cpp:339] lstm1_unit_15 -> c_15
I1214 10:12:23.703189 24007 net.cpp:339] lstm1_unit_15 -> h_15
I1214 10:12:23.703197 24007 net.cpp:113] Setting up lstm1_unit_15
I1214 10:12:23.703204 24007 net.cpp:120] Top shape: 1 3 256 (768)
I1214 10:12:23.703210 24007 net.cpp:120] Top shape: 1 3 256 (768)
I1214 10:12:23.703215 24007 layer_factory.hpp:74] Creating layer h_15_lstm1_unit_15_1_split
I1214 10:12:23.703222 24007 net.cpp:84] Creating Layer h_15_lstm1_unit_15_1_split
I1214 10:12:23.703227 24007 net.cpp:381] h_15_lstm1_unit_15_1_split <- h_15
I1214 10:12:23.703233 24007 net.cpp:339] h_15_lstm1_unit_15_1_split -> h_15_lstm1_unit_15_1_split_0
I1214 10:12:23.703240 24007 net.cpp:339] h_15_lstm1_unit_15_1_split -> h_15_lstm1_unit_15_1_split_1
I1214 10:12:23.703248 24007 net.cpp:113] Setting up h_15_lstm1_unit_15_1_split
I1214 10:12:23.703254 24007 net.cpp:120] Top shape: 1 3 256 (768)
I1214 10:12:23.703260 24007 net.cpp:120] Top shape: 1 3 256 (768)
I1214 10:12:23.703264 24007 layer_factory.hpp:74] Creating layer lstm1_h_conted_15
I1214 10:12:23.703270 24007 net.cpp:84] Creating Layer lstm1_h_conted_15
I1214 10:12:23.703275 24007 net.cpp:381] lstm1_h_conted_15 <- h_15_lstm1_unit_15_1_split_0
I1214 10:12:23.703281 24007 net.cpp:381] lstm1_h_conted_15 <- cont_16_lstm1_cont_slice_15_split_0
I1214 10:12:23.703289 24007 net.cpp:339] lstm1_h_conted_15 -> h_conted_15
I1214 10:12:23.703296 24007 net.cpp:113] Setting up lstm1_h_conted_15
I1214 10:12:23.703304 24007 net.cpp:120] Top shape: 1 3 256 (768)
I1214 10:12:23.703308 24007 layer_factory.hpp:74] Creating layer lstm1_transform_16
I1214 10:12:23.703315 24007 net.cpp:84] Creating Layer lstm1_transform_16
I1214 10:12:23.703320 24007 net.cpp:381] lstm1_transform_16 <- h_conted_15
I1214 10:12:23.703326 24007 net.cpp:339] lstm1_transform_16 -> W_hc_h_15
I1214 10:12:23.703333 24007 net.cpp:113] Setting up lstm1_transform_16
I1214 10:12:23.704807 24007 net.cpp:120] Top shape: 1 3 1024 (3072)
I1214 10:12:23.704815 24007 net.cpp:425] Sharing parameters 'W_hc' owned by layer 'lstm1_transform_1', param index 0
I1214 10:12:23.704820 24007 layer_factory.hpp:74] Creating layer lstm1_gate_input_16
I1214 10:12:23.704828 24007 net.cpp:84] Creating Layer lstm1_gate_input_16
I1214 10:12:23.704834 24007 net.cpp:381] lstm1_gate_input_16 <- W_hc_h_15
I1214 10:12:23.704840 24007 net.cpp:381] lstm1_gate_input_16 <- W_xc_x_16
I1214 10:12:23.704848 24007 net.cpp:339] lstm1_gate_input_16 -> gate_input_16
I1214 10:12:23.704854 24007 net.cpp:113] Setting up lstm1_gate_input_16
I1214 10:12:23.704861 24007 net.cpp:120] Top shape: 1 3 1024 (3072)
I1214 10:12:23.704866 24007 layer_factory.hpp:74] Creating layer lstm1_unit_16
I1214 10:12:23.704874 24007 net.cpp:84] Creating Layer lstm1_unit_16
I1214 10:12:23.704879 24007 net.cpp:381] lstm1_unit_16 <- c_15
I1214 10:12:23.704885 24007 net.cpp:381] lstm1_unit_16 <- gate_input_16
I1214 10:12:23.704891 24007 net.cpp:381] lstm1_unit_16 <- cont_16_lstm1_cont_slice_15_split_1
I1214 10:12:23.704897 24007 net.cpp:339] lstm1_unit_16 -> c_16
I1214 10:12:23.704905 24007 net.cpp:339] lstm1_unit_16 -> h_16
I1214 10:12:23.704912 24007 net.cpp:113] Setting up lstm1_unit_16
I1214 10:12:23.704920 24007 net.cpp:120] Top shape: 1 3 256 (768)
I1214 10:12:23.704928 24007 net.cpp:120] Top shape: 1 3 256 (768)
I1214 10:12:23.704933 24007 layer_factory.hpp:74] Creating layer lstm1_
I1214 10:12:23.704941 24007 net.cpp:84] Creating Layer lstm1_
I1214 10:12:23.704946 24007 net.cpp:381] lstm1_ <- c_16
I1214 10:12:23.704952 24007 net.cpp:339] lstm1_ -> c_T
I1214 10:12:23.704959 24007 net.cpp:113] Setting up lstm1_
I1214 10:12:23.704965 24007 net.cpp:120] Top shape: 1 3 256 (768)
I1214 10:12:23.704970 24007 layer_factory.hpp:74] Creating layer lstm1_h_concat
I1214 10:12:23.704980 24007 net.cpp:84] Creating Layer lstm1_h_concat
I1214 10:12:23.704987 24007 net.cpp:381] lstm1_h_concat <- h_1_lstm1_unit_1_1_split_1
I1214 10:12:23.704993 24007 net.cpp:381] lstm1_h_concat <- h_2_lstm1_unit_2_1_split_1
I1214 10:12:23.704998 24007 net.cpp:381] lstm1_h_concat <- h_3_lstm1_unit_3_1_split_1
…
I1214 10:12:23.705534 24007 net.cpp:205] This network produces output c_T
I1214 10:12:23.705540 24007 net.cpp:205] This network produces output h
I1214 10:12:23.705616 24007 net.cpp:446] Collecting Learning Rate and Weight Decay.
I1214 10:12:23.705647 24007 net.cpp:218] Network initialization done.
I1214 10:12:23.705654 24007 net.cpp:219] Memory required for data: 1078848
I1214 10:12:23.705799 24007 recurrent_layer.cpp:135] Adding parameter 0: W_xc
I1214 10:12:23.705807 24007 recurrent_layer.cpp:135] Adding parameter 1: b_c
I1214 10:12:23.705812 24007 recurrent_layer.cpp:135] Adding parameter 2: W_hc
I1214 10:12:23.705862 24007 net.cpp:120] Top shape: 16 3 256 (12288)
I1214 10:12:23.705871 24007 layer_factory.hpp:74] Creating layer lstm1-drop
I1214 10:12:23.705881 24007 net.cpp:84] Creating Layer lstm1-drop
I1214 10:12:23.705888 24007 net.cpp:381] lstm1-drop <- lstm1
I1214 10:12:23.705895 24007 net.cpp:339] lstm1-drop -> lstm1-drop
I1214 10:12:23.705903 24007 net.cpp:113] Setting up lstm1-drop
I1214 10:12:23.705909 24007 net.cpp:120] Top shape: 16 3 256 (12288)
I1214 10:12:23.705915 24007 layer_factory.hpp:74] Creating layer fc8-final
I1214 10:12:23.705927 24007 net.cpp:84] Creating Layer fc8-final
I1214 10:12:23.705934 24007 net.cpp:381] fc8-final <- lstm1-drop
I1214 10:12:23.705940 24007 net.cpp:339] fc8-final -> fc8-final
I1214 10:12:23.705946 24007 net.cpp:113] Setting up fc8-final
I1214 10:12:23.706507 24007 net.cpp:120] Top shape: 16 3 101 (4848)
I1214 10:12:23.706519 24007 layer_factory.hpp:74] Creating layer fc8-final_fc8-final_0_split
I1214 10:12:23.706526 24007 net.cpp:84] Creating Layer fc8-final_fc8-final_0_split
I1214 10:12:23.706532 24007 net.cpp:381] fc8-final_fc8-final_0_split <- fc8-final
I1214 10:12:23.706537 24007 net.cpp:339] fc8-final_fc8-final_0_split -> fc8-final_fc8-final_0_split_0
I1214 10:12:23.706544 24007 net.cpp:339] fc8-final_fc8-final_0_split -> fc8-final_fc8-final_0_split_1
I1214 10:12:23.706552 24007 net.cpp:113] Setting up fc8-final_fc8-final_0_split
I1214 10:12:23.706559 24007 net.cpp:120] Top shape: 16 3 101 (4848)
I1214 10:12:23.706564 24007 net.cpp:120] Top shape: 16 3 101 (4848)
I1214 10:12:23.706569 24007 layer_factory.hpp:74] Creating layer loss
I1214 10:12:23.706576 24007 net.cpp:84] Creating Layer loss
I1214 10:12:23.706581 24007 net.cpp:381] loss <- fc8-final_fc8-final_0_split_0
I1214 10:12:23.706588 24007 net.cpp:381] loss <- reshape-label_reshape-label_0_split_1
I1214 10:12:23.706593 24007 net.cpp:339] loss -> loss
I1214 10:12:23.706601 24007 net.cpp:113] Setting up loss
…
